tb_logs/mnist_model_v1/version_1/checkpoints/epoch=2-step=2346.ckpt (torch, 484463 bytes, 12 tensors)

fc1.weight f4 [50, 784]
0	0x3ca81c0c	0.020521186
1	0x3ca52632	0.020159815
2	0xbcf02575	-0.029314736
3	0x3cd9044c	0.026491307
4	0xbbca22dc	-0.0061687063
5	0x3d5e1546	0.054219507
6	0x3dcbb34b	0.09946307
7	0x3dca7afe	0.0988674
8	0x3d8ec242	0.069706455
9	0x3ddae58e	0.10688315
10	0x3e486e53	0.19573335
11	0x3e136c07	0.14396678
12	0x3e167d14	0.14696151
13	0x3dff911a	0.12478848
14	0x3e06d765	0.13168104
15	0x3e20b0be	0.15692422
16	0x3e21de05	0.1580735
17	0x3e14f224	0.14545494
18	0x3db65f10	0.089048505
19	0x3db94216	0.09045808
20	0x3d2a8e9e	0.041639917
21	0x3c583959	0.0131972665
22	0xbc0969d6	-0.00838705
23	0xbb899750	-0.004198946
24	0x3c8e82d0	0.01739636
25	0xbcd10013	-0.02551273
26	0xbc45035c	-0.012024727
27	0xbcbf5dac	-0.023360096
28	0x3cb18b0c	0.021672748
29	0xbca69c73	-0.020338273
30	0xbc133206	-0.0089840945
31	0x3d077fa3	0.03308071
32	0x3d97fa29	0.07420761
33	0x3e024c69	0.1272446
34	0x3e22500c	0.15850848
35	0x3e4cd49e	0.20002982
36	0x3e57bba2	0.2106767
37	0x3e729ebf	0.2369337
38	0x3e60f411	0.21968104
39	0x3e5466dd	0.20742364
40	0x3e8d47c4	0.27593815
41	0x3ea8aa96	0.32942647
42	0x3e965c26	0.2936718
43	0x3e2c0728	0.16799605
44	0x3e4aaea9	0.1979319
45	0x3e70cb71	0.23515107
46	0x3ea46602	0.32109076
47	0x3e90280b	0.2815555
48	0x3dfcc175	0.123415865
49	0x3e08d113	0.13361005
50	0x3e052c72	0.13005236
51	0x3d8d4b17	0.06899088
52	0x3b823f55	0.003974835
53	0xbd06c495	-0.03290232
54	0x3cc33c08	0.023832336
55	0x3cbdb3d0	0.02315703
56	0xbd0b83b0	-0.034061134
57	0xbd11dc9a	-0.035610773
58	0x3c4d27de	0.012521712
59	0x3d7f3aba	0.062311865
60	0x3dbd63e1	0.09247566
61	0x3e1c3e39	0.15258111
62	0x3e50732f	0.20356439
63	0x3e9f7a1d	0.31147853
64	0x3e993380	0.29922104
65	0x3ebf4dfe	0.3736419
66	0x3e9dd562	0.3082686
67	0x3e9eb2a0	0.30995655
68	0x3e99395a	0.29926568
69	0x3e8ad2ca	0.27113944
70	0x3e9d1f16	0.3068778
71	0x3e9c6d02	0.30551916
72	0x3e86f620	0.26359653
73	0x3ea4d2c7	0.3219206
74	0x3ea85bda	0.32882577
75	0x3e6aac99	0.22917403
76	0x3e21bdc5	0.15795048
77	0x3e2abf2b	0.16674487
78	0x3daeb895	0.085313
79	0x3da43fff	0.08020019
80	0x3d6c0805	0.057624836
81	0x3d42be26	0.04754462
82	0xbb623970	-0.0034519099
83	0xbcc0be20	-0.023528159
84	0xb9de6000	-0.00042414665
85	0xbd477839	-0.048698638
86	0xbdb554bd	-0.08854053
87	0xbd3ca9ab	-0.046060245
88	0x3d88ad6f	0.06673705
89	0x3dae2d6e	0.08504759
90	0x3dbcfab3	0.092275046
91	0x3e108913	0.1411479
92	0x3ddd6e8f	0.10812103
93	0x3e2d29e2	0.16910508
94	0x3e563ce9	0.20921673
95	0x3e1d28f4	0.15347654
96	0x3e65f2d3	0.22455911
97	0x3e610aa0	0.2197671
98	0x3e4a3ce8	0.19749796
99	0x3e292d29	0.16521133
100	0x3e0c3e07	0.13695537
101	0x3e1b654e	0.15175363
102	0x3dbfc447	0.09363609
103	0x3d9363f3	0.07196798
104	0x3ca007e3	0.01953501
105	0xbd4fff86	-0.050780796
106	0xbd07ac3e	-0.033123247
107	0xbc9e0d00	-0.019293308
108	0xbb4c1937	-0.003114296
109	0xbcbaee21	-0.022818627
110	0x3c9b2ac5	0.018941293
111	0xbc7d0e0e	-0.015445245
112	0xbd10e6d3	-0.03537638
113	0xbc3f8d97	-0.0116914725
114	0x3d578df7	0.052625623
115	0x3d88c081	0.06677342
116	0x3d60c0fe	0.05487155
117	0x3c840f09	0.01612045
118	0xbd1b4ba8	-0.03791395
119	0xbcc61da1	-0.02418405
120	0x3c2059c2	0.009787025
121	0x3c5b4d4b	0.013385127
122	0x3db9d5f7	0.09074014
123	0x3e05fa55	0.13083775
124	0x3d907999	0.07054443
125	0x3dde025d	0.108402945
126	0x3ded9f2e	0.11602627
127	0x3dba715e	0.09103654
128	0x3d6d1d26	0.057889126
129	0x3cd68c10	0.026189834
130	0xbcf59c7d	-0.029981846
131	0xbd2c1a84	-0.042017475
132	0xbdb5c38f	-0.088751905
133	0xbe135790	-0.14388871
134	0xbde5b4fb	-0.1121616
135	0x3d6e45a9	0.0581719
136	0x3d9e08f6	0.07716553
137	0x3d6d186c	0.05788462
138	0x3cc0dfc7	0.023544205
139	0xbd5be954	-0.053689316
140	0x3d31ef40	0.043441057
141	0x3e0e2065	0.13879545
142	0x3e1ac6d4	0.1511491
143	0x3dac22d6	0.08405082
144	0x3dd4efda	0.103973106
145	0xbbfacbee	-0.007653705
146	0xbdbf25d0	-0.09333384
147	0xbd0c7b56	-0.03429731
148	0xbc44b5c6	-0.012006229
149	0xbc8961b3	-0.01677022
150	0xbd0048d2	-0.031319447
151	0xbb94d923	-0.0045424863
152	0xbda25f4a	-0.07928331
153	0xbd845f97	-0.06463545
154	0xbdc77c35	-0.097404875
155	0xbdc2cbd3	-0.09511533
156	0xbd4cad2c	-0.049969837
157	0xbd3b59d2	-0.045739956
158	0xbd43c0b5	-0.0477912
159	0xbdbbe0f4	-0.09173766
160	0xbda41b5a	-0.080130294
161	0xbddf08ec	-0.108903736
162	0xbdd3c4a0	-0.103402376
163	0x3c9816e8	0.01856561
164	0x3ad63c57	0.0016344887
165	0x3e01c01b	0.12670939
166	0x3dfe98fb	0.124315225
167	0x3c2c9727	0.010534084
168	0x3cd4f6f1	0.025996657
169	0x3d77fab3	0.06054182
170	0x3e0483cc	0.12940902
171	0x3e0d9327	0.13825665
172	0x3dcd6926	0.10029821
173	0x3dd08d8f	0.1018325
174	0x3db3cda7	0.087794594
175	0x3cd10a53	0.025517618
176	0x3c41ca33	0.011827993
177	0xbc8f13f7	-0.017465575
178	0xbbd9a27d	-0.0066416846
179	0xbd97a319	-0.07404155
180	0xbdc14286	-0.094365165
181	0xbe1482cf	-0.14503025
182	0xbe146d25	-0.1449476
183	0xbd91fda8	-0.07128459
184	0xbc437907	-0.011930711
185	0xbcc81366	-0.024423312
186	0xbd8e0e7b	-0.06936356
187	0xbcf39b7c	-0.029737227
188	0xbc9e81c8	-0.019348994
189	0xbd41bd9c	-0.047299966
190	0xbcc2811d	-0.023743207
191	0x3d8967a1	0.06709219
192	0x3d81e6c2	0.06342842
193	0x3dd9a654	0.10627428
194	0x3e00cebf	0.12578867
195	0x3c63a0d6	0.013893327
196	0xbc9ceebd	-0.019156808
197	0x3d8cb7e7	0.06871014
198	0x3e406104	0.18787009
199	0x3e0de1f3	0.13855724
200	0x3e0573ae	0.1303241
201	0x3e218ffe	0.15777585
202	0x3dc0de01	0.09417344
203	0x3d8cefbe	0.06881665
204	0x3c75811c	0.014984395
205	0xbd10a3eb	-0.035312574
206	0xbc924e6a	-0.017859656
207	0xbd7b6d77	-0.06138369
208	0xbcaff0d5	-0.021477142
209	0xbcf1cdf4	-0.029517151
210	0x3d0a025e	0.033693664
211	0xbc365c94	-0.011130471
212	0x3ca4cf33	0.020118332
213	0x3d85b552	0.06528725
214	0xbca2cdcc	-0.019873522
215	0x3c742c5c	0.014903154
216	0x3cd613d8	0.02613251
217	0x3c03e324	0.00804976
218	0x3d22d64d	0.039755154
219	0x3d0f04eb	0.0349168
220	0x3e01006d	0.12597819
221	0x3e2d1d3c	0.16905683
222	0x3dcd28bb	0.10017534
223	0x3d91e5d4	0.07123914
224	0xbcd3c3a4	-0.025850125
225	0x3dc5a733	0.09651031
226	0x3e49cbb0	0.19706607
227	0x3e4e97da	0.20175114
228	0x3e23ca1d	0.15995069
229	0x3e03d8af	0.12875627
230	0x3dc706f2	0.097181216
231	0x3d036674	0.03208013
232	0xbd79e7c6	-0.061012052
233	0xbccde9af	-0.025135843
234	0xbcd62ec7	-0.026145352
235	0xbd3e9cce	-0.04653626
236	0x3d9cabd2	0.076499596
237	0x3dee89f4	0.11647406
238	0x3dc79b4f	0.0974642
239	0x3e0e30c3	0.13885789
240	0x3d86f001	0.06588746
241	0xbc10fee2	-0.008849831
242	0x3cb6a684	0.022296198
243	0xbce08f70	-0.027412146
244	0x3d0349cb	0.032052796
245	0x3d712aaf	0.058878597
246	0x3d87847c	0.06617066
247	0x3dad90bc	0.084748715
248	0x3e2610a2	0.16217282
249	0x3e6636ab	0.22481792
250	0x3d9ab8f0	0.07554805
251	0x3c48a65a	0.012246693
252	0x3d1a0f2e	0.037612133
253	0x3e2b40d4	0.16723949
254	0x3e505a1a	0.20346871
255	0x3e435465	0.19075163

fc1.bias f4 [50]
0	0x3ca0d77b	0.019634
1	0xbd290fbe	-0.04127478
2	0x3dbaeab6	0.09126799
3	0xbd15caf2	-0.036570497
4	0x3de87ff3	0.113525294
5	0x3e303bef	0.17210363
6	0x3ddeb747	0.10874801
7	0x3d0c4d70	0.034253538
8	0xba7e664c	-0.00097045745
9	0x3cc22afe	0.02370214
10	0x3d9d3d7d	0.076777436
11	0x3e28d1af	0.16486238
12	0xbd87feec	-0.06640419
13	0x3df160fe	0.11786078
14	0xbd359175	-0.04432817
15	0x3d9c7a49	0.076405115
16	0x3e574239	0.21021356
17	0x3e468df4	0.19390088
18	0xbe27dfbf	-0.16393946
19	0x3e77962f	0.24178384
20	0xbd27f518	-0.041005224
21	0xbc7e9a26	-0.015539682
22	0x3e9af020	0.30261326
23	0xbc80033f	-0.015626548
24	0xbe388a13	-0.18021421
25	0x3bdc62be	0.006725638
26	0xbe17b0b4	-0.148135
27	0x3e869a29	0.2628949
28	0xbd2f4c47	-0.042797353
29	0xbe38cf08	-0.18047726
30	0x3df98875	0.1218423
31	0x3e0fb69a	0.140345
32	0x3dd2ab74	0.10286608
33	0xbea50f7f	-0.32238385
34	0x3dce9eeb	0.10088905
35	0xbc8509c6	-0.016240012
36	0x3e2b623b	0.1673669
37	0x3e84fcdb	0.25974163
38	0x3c44a9cc	0.012003373
39	0xbe155925	-0.14584787
40	0x3eb7afb9	0.35876253
41	0xbdeb9a00	-0.115039825
42	0x3d592f46	0.0530236
43	0x3e3cc2f0	0.18433738
44	0xbe38a713	-0.18032484
45	0xbe76c2cb	-0.24097745
46	0x3e991ec4	0.29906285
47	0xbd1eeec6	-0.03880193
48	0xbd9d33fb	-0.0767593
49	0x3d9856ad	0.07438407

fc2.weight f4 [10, 50]
0	0xbe93c426	-0.28860587
1	0x3e6eabde	0.2330775
2	0x3e72f285	0.23725326
3	0xbdd9de63	-0.1063812
4	0x3e9b7f39	0.303705
5	0xbd591132	-0.052994914
6	0xbe47016d	-0.19434138
7	0x3e292ccf	0.16521
8	0x3df1aefe	0.11800955
9	0x3e6f8bfb	0.23393242
10	0xbecb6606	-0.39726275
11	0xbe80f1c6	-0.25184458
12	0xbee72d29	-0.45151642
13	0xbd8ed371	-0.06973923
14	0xbdb71047	-0.089386515
15	0x3d980101	0.074220665
16	0xbec30618	-0.38090587
17	0xbe63cc8e	-0.22246
18	0x3d9e39dc	0.077258795
19	0xbed82863	-0.42218313
20	0xbd990b5f	-0.07472872
21	0x3d39b14e	0.045335107
22	0x3e044239	0.12915887
23	0xbec43b79	-0.38326624
24	0xbe2ee4cc	-0.17079467
25	0x3c274a58	0.010210596
26	0xbd8309b2	-0.063983336
27	0x3e0ce2e9	0.13758434
28	0xbe35bdd5	-0.17748196
29	0x3d06f3ca	0.03294734
30	0x3d484a41	0.04889894
31	0xbed02a99	-0.406575
32	0xbf311cc4	-0.6918452
33	0xbd66b3d3	-0.056323837
34	0x3db635b1	0.088969596
35	0x3ebc627b	0.36793885
36	0xbed7dc6c	-0.42160356
37	0xbd7299ba	-0.059228636
38	0x3e22dc03	0.1590424
39	0x3de983a5	0.11402062
40	0xbd3d09ae	-0.04615181
41	0xbd20e300	-0.039278984
42	0xbcdd9661	-0.027049245
43	0xbd05dfee	-0.03268426
44	0x3d45f762	0.048331626
45	0x3dcfc551	0.10145057
46	0xbf3b935f	-0.73271745
47	0x3d82c0f6	0.06384461
48	0x3dd6bc50	0.104851365
49	0xbda7c769	-0.08192331
50	0xbeb389fd	-0.35066214
51	0x3ea88201	0.32911685
52	0x3df382d6	0.11890189
53	0xbd904c71	-0.0704583
54	0x3f027a3b	0.5096776
55	0x3e52654f	0.20546459
56	0xbc60c4f1	-0.0137188295
57	0xbebac51a	-0.36478502
58	0xbd80e820	-0.06294274
59	0x3e6ed86a	0.23324743
60	0x3e317e3d	0.17333312
61	0x3e48744b	0.19575612
62	0xbe03563d	-0.12825866
63	0x3e46aeb0	0.19402575
64	0xbed1dce8	-0.4098885
65	0x3d138b3c	0.036021456
66	0x3e1787df	0.14797924
67	0xbf0051f0	-0.50125027
68	0xbdcb4102	-0.09924509
69	0x3bdf9bb2	0.0068239802
70	0x3d0d9879	0.034569237
71	0x3e4c0d10	0.19926858
72	0x3df2c337	0.118536405
73	0xbd83ab9c	-0.06429216
74	0xbe639aef	-0.22227071
75	0xbd55d4aa	-0.052204765
76	0x3b930ade	0.0044873795
77	0x3cffb138	0.031212434
78	0x3ccd10a9	0.025032358
79	0xbe7d8cfd	-0.24760814
80	0xbecdafb0	-0.401731
81	0x3e839816	0.2570197
82	0x3ef5cc1b	0.48007283
83	0xbeccfd9f	-0.40037248
84	0xbe97ac03	-0.29623422
85	0x3efeb7f4	0.4974972
86	0x3e2b78a5	0.16745241
87	0x3e1b8484	0.1518727
88	0xbead980c	-0.33905065
89	0xbeb7341a	-0.35781938
90	0xbe2a20d2	-0.16614082
91	0x3e0779fe	0.1323013
92	0xbe16a65f	-0.14711903
93	0xbcd19309	-0.025582807
94	0xbeab6d9d	-0.33482066
95	0xbe9fc1c2	-0.31202513
96	0x3e3990ce	0.18121645
97	0xbc9bcc59	-0.019018339
98	0x3d4b3ef0	0.04962057
99	0x3e30910e	0.17242834
100	0xbc911986	-0.017712366
101	0x3dd1dd3f	0.102472775
102	0xbe990043	-0.29883012
103	0xbd1c4ade	-0.038157336
104	0x3e2a47ca	0.16628948
105	0x3c39e5dc	0.011346307
106	0xbea5c843	-0.3237935
107	0xbc7a34d5	-0.015271385
108	0xbe1be56d	-0.15224238
109	0x3de0690b	0.10957535
110	0xbd5606b4	-0.052252486
111	0x3e2f7222	0.17133382
112	0xbc940a80	-0.018071413
113	0xbeb61e0a	-0.35569793
114	0x3e0f8537	0.14015661
115	0xbd1f57c4	-0.03890206
116	0xbc67d9ce	-0.01415105
117	0x3e1fcff3	0.1560667
118	0xbde39db8	-0.11114067
119	0xbe504d36	-0.20341954
120	0x3d3ed591	0.04659039
121	0x3e3b6fc3	0.18304352
122	0xbf032035	-0.5122102
123	0xbe6e74b3	-0.23286705
124	0x3e2e3f77	0.17016397
125	0xbdd08601	-0.10181809
126	0x3e3d411b	0.18481867
127	0x3e20afe6	0.156921
128	0x3db3b951	0.08775581
129	0x3dbf1480	0.09330082
130	0xbda97a2f	-0.08275258
131	0x3b584372	0.0032999185
132	0xbda0db3f	-0.07854318
133	0xbe41010c	-0.18848056
134	0x3db64566	0.088999555
135	0xbeb8920a	-0.3604892
136	0x3f3445f4	0.7041924
137	0xbf102e8b	-0.5632102
138	0x3c4fc7e9	0.01268194
139	0xbdd68b4a	-0.10475786
140	0x3eab91de	0.33509725
141	0x3e0dc22f	0.13843606
142	0xbdc0926b	-0.09402927
143	0x3f005f59	0.5014549
144	0xbe31a9fd	-0.17350002
145	0x3d280c0a	0.041027106
146	0x3f062d89	0.5241323
147	0x3d4e487a	0.050362088
148	0x3e2554ad	0.16145582
149	0xbe33cca0	-0.17558527
150	0x3dee85f7	0.116466455
151	0xbe1e67b6	-0.1546925
152	0xbe3457a3	-0.17611556
153	0xbd41bd10	-0.047299445
154	0xbe8ffbd5	-0.2812182
155	0x3d91a814	0.071121365
156	0xbe599a27	-0.2125021
157	0xbe1cc602	-0.15309909
158	0xbd95fa52	-0.073231354
159	0x3db6e30a	0.08930023
160	0xbd096e12	-0.033552237
161	0x3d8e90bf	0.06961202
162	0x3f1b12fb	0.60575837
163	0x3e13c641	0.14431097
164	0xbd819651	-0.06327499
165	0x3e3ad99d	0.18247075
166	0x3e00cd8a	0.12578407
167	0xbdf56a90	-0.11983216
168	0xbd8b4df0	-0.06801975
169	0xbcdc5f90	-0.026901037
170	0x3db213c1	0.08695174
171	0xbdd75271	-0.10513771
172	0x3e6ce5cb	0.23134534
173	0x3ed4e72a	0.41582614
174	0x3ddf0e26	0.108913705
175	0x3e16bb66	0.14719924
176	0x3ce5fc5a	0.028074432
177	0xbc1e0a50	-0.009646013
178	0x3e265dad	0.16246672
179	0x37b438ec	2.1484178e-05
180	0xbc9bd7e7	-0.019023849
181	0xbd436b97	-0.047710028
182	0xbecebdd9	-0.40379217
183	0x3dd79192	0.10525812
184	0xbe32d624	-0.174645
185	0x3c8c6fea	0.017143209
186	0xbec1cba6	-0.37850684
187	0xbf1178a0	-0.56824684
188	0x3d4a2f22	0.049361356
189	0x3e1587f6	0.14602646
190	0xbd05f917	-0.032708254
191	0x3e757218	0.23969305
192	0xbee3e08f	-0.44507262
193	0xbc4d8c49	-0.012545654
194	0xbe3b1431	-0.18269421
195	0x3dc65cf1	0.09685696
196	0xbe82ee82	-0.25572592
197	0x3dc8b4e2	0.09800126
198	0xbb9b143f	-0.004732638
199	0x3e39d300	0.18146896
200	0x3c5bd1ca	0.013416717
201	0x3ed14d78	0.40879416
202	0x3d1eb166	0.0387434
203	0xbd639a90	-0.055567324
204	0xbdb3880c	-0.08766183
205	0xbea350e9	-0.31897667
206	0x3e439b50	0.19102216
207	0xbe8c8cba	-0.27451116
208	0x3d3eb0b0	0.04655522
209	0xbdf8400f	-0.12121593
210	0x3dd73d69	0.1050976
211	0xbe40800a	-0.18798843
212	0xbea6c47f	-0.3257179
213	0xbe94e8d6	-0.2908389
214	0xbe35586d	-0.17709513
215	0x3e90555d	0.28190127
216	0xbeb42d9a	-0.3519104
217	0x3d4d6854	0.050148323
218	0xbec4c759	-0.3843334
219	0xbeaebbb6	-0.34127587
220	0xbbddebeb	-0.0067725084
221	0xbed8c639	-0.42338732
222	0x3ea3714a	0.3192237
223	0x3da5b0f1	0.080903895
224	0xbe20f5a0	-0.15718699
225	0xbef9f4f3	-0.48819694
226	0x3cb9937c	0.022653334
227	0xbf2fd633	-0.6868622
228	0xbedd01e2	-0.431655
229	0x3e3a46d4	0.18191081
230	0x3d5f4ca6	0.054516457
231	0x3e52e00b	0.20593278
232	0x3e52b066	0.20575103
233	0x3b967287	0.0045912894
234	0x3e824ab9	0.25447634
235	0xbf05a690	-0.5220728
236	0xbc9208b7	-0.017826421
237	0x3e76cb83	0.24101071
238	0xbe46a6ef	-0.19399618
239	0x3d939cb5	0.07207624
240	0x3e216559	0.15761317
241	0xbe82cba1	-0.25545982
242	0x3e9a49b4	0.30134356
243	0xbe97f452	-0.2967859
244	0x3e4999e1	0.19687606
245	0xbf0a0453	-0.5391285
246	0xbdcbedc3	-0.09957459
247	0xbbfa9735	-0.00764742
248	0xbdb9ab1e	-0.09065841
249	0x3ea79b85	0.3273584
250	0x3e54496c	0.20731133
251	0xbe747f2c	-0.23876637
252	0xbe50f332	-0.20405272
253	0xbdad4e8a	-0.08462246
254	0xbe14b91c	-0.14523739
255	0x3e0e8348	0.13917267

fc2.bias f4 [10]
0	0xbd9af62a	-0.07566483
1	0x3e6cb850	0.23117185
2	0xbbe9c225	-0.0071337395
3	0xbe09313d	-0.13397689
4	0x3e701402	0.23445132
5	0x3e923fbe	0.28564256
6	0xbb7f6fec	-0.0038976623
7	0x3e8346f3	0.25640067
8	0xbe9d76c4	-0.30754673
9	0x3c827d3d	0.015928859

exp_avg f4 [50, 784]
0	0x00000000	0.0
1	0x00000000	0.0
2	0x00000000	0.0
3	0x00000000	0.0
4	0xab8109c2	-9.16871e-13
5	0xac9f62c2	-4.530016e-12
6	0xac5955f4	-3.0885268e-12
7	0xb09d7a08	-1.1457937e-09
8	0xb16fc8bd	-3.4893184e-09
9	0xb2e3abd6	-2.650442e-08
10	0xb3cc301e	-9.508243e-08
11	0x307146f7	8.7776136e-10
12	0xb4d44fba	-3.9546086e-07
13	0xb3f0504b	-1.1190476e-07
14	0xb171e8d4	-3.5202463e-09
15	0xb1837b6a	-3.8266323e-09
16	0xb09b0228	-1.1278347e-09
17	0x3525c599	6.175483e-07
18	0x361ec6b5	2.3659497e-06
19	0x35851d8a	9.917869e-07
20	0x80000004	-6e-45
21	0x80000004	-6e-45
22	0x00000004	6e-45
23	0x00000004	6e-45
24	0x00000000	0.0
25	0x00000000	0.0
26	0x00000000	0.0
27	0x00000000	0.0
28	0x00000000	0.0
29	0x00000000	0.0
30	0x00000000	0.0
31	0x1712284f	4.722602e-25
32	0xab1cf528	-5.5762556e-13
33	0xb4fdadaa	-4.725128e-07
34	0xb50ba821	-5.2026195e-07
35	0xb876bc86	-5.8826547e-05
36	0xb8d3bfc1	-0.00010096981
37	0x3808f924	3.2656957e-05
38	0x3802f180	3.121933e-05
39	0x37d38952	2.5217105e-05
40	0xb7509bae	-1.2434013e-05
41	0x3756371d	1.2768226e-05
42	0x38741c2c	5.820037e-05
43	0x385be522	5.2427065e-05
44	0x373e0ab0	1.1327371e-05
45	0x386f7c12	5.709759e-05
46	0x37c37e9b	2.3304767e-05
47	0xb7be9aa1	-2.272177e-05
48	0xb7b390ea	-2.1405944e-05
49	0xb74c1a14	-1.2165419e-05
50	0x2fa4b143	2.9957378e-10
51	0x9bb5b4bb	-3.0060733e-22
52	0x00000004	6e-45
53	0x00000000	0.0
54	0x00000000	0.0
55	0x00000000	0.0
56	0x00000000	0.0
57	0x266d6760	8.236599e-16
58	0x2646669b	6.8834106e-16
59	0xa6dd5ea7	-1.5360611e-15
60	0x37a81d7b	2.0040889e-05
61	0x38a06774	7.648664e-05
62	0x370302da	7.808872e-06
63	0xb80901bb	-3.2664957e-05
64	0x39913419	0.0002769537
65	0x387062b1	5.7312373e-05
66	0x395b916f	0.00020939646
67	0x3983fbf6	0.00025173993
68	0x390f4779	0.00013664168
69	0xb9bf56d5	-0.00036495054
70	0xb94f0fcf	-0.00019746948
71	0x387b58a1	5.9925605e-05
72	0x39b5a674	0.00034647027
73	0x392998d8	0.00016174035
74	0x38cce5de	9.770294e-05
75	0x38689616	5.545289e-05
76	0xb64dc2d7	-3.0660792e-06
77	0x375eeaf4	1.3286935e-05
78	0x364456ff	2.9256914e-06
79	0xb1442c4e	-2.8546938e-09
80	0x00000004	6e-45
81	0xb38b5e0a	-6.4897975e-08
82	0x00000000	0.0
83	0x00000000	0.0
84	0x00000000	0.0
85	0x2ddafb02	2.48952e-11
86	0xb0647f77	-8.3127055e-10
87	0xb30d56c9	-3.290805e-08
88	0x378a55df	1.6490869e-05
89	0x389f83c3	7.606253e-05
90	0x399149dc	0.00027711585
91	0x380bc0a7	3.3319604e-05
92	0x394b63f2	0.00019396821
93	0x3794b037	1.7725031e-05
94	0xb87683b3	-5.8773625e-05
95	0x362fe4ad	2.621014e-06
96	0xb9140bbd	-0.00014118753
97	0xba76087e	-0.00093854207
98	0xb953d087	-0.0002020021
99	0xb855be9b	-5.0960673e-05
100	0xb836bbe5	-4.356717e-05
101	0x397d0715	0.00024130598
102	0xb8dab850	-0.00010429381
103	0x3833944c	4.2815038e-05
104	0x37f70051	2.9444842e-05
105	0x383ef9c2	4.5532135e-05
106	0x36f5d26e	7.326066e-06
107	0x34b0a930	3.2905655e-07
108	0x341831ef	1.4174269e-07
109	0xa9b9e21a	-8.254873e-14
110	0x80000004	-6e-45
111	0x00000000	0.0
112	0x1f1d8bbf	3.336164e-20
113	0x30f3ef97	1.7748673e-09
114	0xb59757ab	-1.1275891e-06
115	0xb7106770	-8.607152e-06
116	0x3705a26c	7.9652345e-06
117	0xb7c2f41c	-2.3240274e-05
118	0x398d1391	0.00026908194
119	0x394b2abb	0.00019375507
120	0x39ac29c3	0.0003283751
121	0x39b91490	0.0003530127
122	0x37a5f28c	1.9782477e-05
123	0xb8cb4976	-9.6934775e-05
124	0xb9d54356	-0.00040676695
125	0xb7a7bb96	-1.9995303e-05
126	0x3a57e591	0.0008235807
127	0x3a120dc7	0.0005571511
128	0x3913f9c3	0.00014112056
129	0xb8b6f713	-8.7244574e-05
130	0xb8c92657	-9.591568e-05
131	0xb7891b80	-1.6344478e-05
132	0x382a8260	4.065258e-05
133	0xb849d809	-4.8123333e-05
134	0xb9aa6954	-0.00032503402
135	0xb9af6799	-0.00033455787
136	0xb8dbba3a	-0.00010477421
137	0x36d5e947	6.3750517e-06
138	0x2db3eebd	2.0455965e-11
139	0x00000004	6e-45
140	0x80000004	-6e-45
141	0xb581c63e	-9.668945e-07
142	0xb752e3ae	-1.2569986e-05
143	0x3806f8ed	3.217992e-05
144	0xb44a8fb8	-1.8865e-07
145	0xb890039f	-6.8671296e-05
146	0xb870611b	-5.7310895e-05
147	0xb8fd26dd	-0.00012071219
148	0xb9ddc7f2	-0.00042301376
149	0xb98ae383	-0.0002649092
150	0x3814313d	3.5331806e-05
151	0x3a60b980	0.00085725635
152	0x3a645a44	0.00087109604
153	0x3a9bacf2	0.0011877103
154	0x3ae0c44f	0.0017148348
155	0x3ad03402	0.001588464
156	0x3a980435	0.0011597933
157	0x3a6ba453	0.0008989025
158	0x39f4858a	0.000466388
159	0x397bcc13	0.00024013249
160	0x37aedfbf	2.0846606e-05
161	0xb991fdc4	-0.00027845625
162	0xb9bbcefc	-0.00035821635
163	0xb9ba3489	-0.00035515826
164	0xb98d5558	-0.00026957202
165	0xb6d82429	-6.4415112e-06
166	0xb5b90761	-1.3785722e-06
167	0x8000ff9a	-9.1693e-41
168	0xb62dbc8c	-2.5888758e-06
169	0x36866868	4.0056657e-06
170	0xb83369c8	-4.2775442e-05
171	0x377b0389	1.4961589e-05
172	0xb874b868	-5.8345875e-05
173	0xb9950030	-0.00028419634
174	0xb9de45de	-0.00042395195
175	0xb9487c78	-0.00019119855
176	0xb9e73ba4	-0.0004410419
177	0xb9c65fe3	-0.00037836944
178	0xb98a9639	-0.00026433336
179	0x39a52c1a	0.0003150411
180	0x3a3603c1	0.00069433084
181	0x3a2cad61	0.0006587115
182	0x3aae7db1	0.0013312605
183	0x3ab07d0e	0.0013465004
184	0x3a677e8c	0.00088308076
185	0x3a41d56a	0.0007394167
186	0x39b26883	0.00034028673
187	0xb911908f	-0.0001388213
188	0xb82de727	-4.146169e-05
189	0x38b7ac44	8.758207e-05
190	0xb97374b8	-0.00023217767
191	0xb9d22ef2	-0.00040089298
192	0xb9a955ab	-0.0003229802
193	0xb621aac1	-2.4090261e-06
194	0xb6af6af9	-5.2278597e-06
195	0xa5e4cf8f	-3.9692342e-16
196	0xb5b9ca24	-1.3842405e-06
197	0xb61cff20	-2.3394314e-06
198	0xb8926d20	-6.9821486e-05
199	0xb9292286	-0.00016129957
200	0xb9bf95e3	-0.00036542033
201	0xba05ad99	-0.00050994154
202	0xb9be4f41	-0.00036298673
203	0x37d6471e	2.5543904e-05
204	0x384c4601	4.8702586e-05
205	0xb9f3f757	-0.00046532854
206	0xba9cb453	-0.0011955596
207	0xba769a33	-0.0009407133
208	0x3918ea30	0.00014583091
209	0x3a6aa39f	0.0008950773
210	0x3a2d2d09	0.0006606137
211	0x39ea77fd	0.00044721356
212	0x3a1216b8	0.00055728434
213	0xb94919b6	-0.00019178432
214	0xba5f76ea	-0.00085244945
215	0xb98285aa	-0.0002489512
216	0xb8550fcf	-5.079788e-05
217	0xb8382f10	-4.391285e-05
218	0xb9baf1c8	-0.00035656826
219	0xba0769e3	-0.00051656197
220	0xb90ecd98	-0.00013618765
221	0x37d7b25b	2.571305e-05
222	0x3781267e	1.5395923e-05
223	0xb3fbc469	-1.1723825e-07
224	0x9d2551d7	-2.1879878e-21
225	0xb6997f94	-4.5746074e-06
226	0x3603ff4a	1.966912e-06
227	0xb7b997f8	-2.2124485e-05
228	0xb9b2488b	-0.00034004854
229	0xb9b5ef26	-0.0003470119
230	0xb8c51cc4	-9.39905e-05
231	0x3911ac1d	0.00013892395
232	0xba030bf8	-0.0004999037
233	0xba9b55fc	-0.0011851187
234	0xbad11798	-0.0015952466
235	0xbaabf661	-0.0013119691
236	0x39ed36f5	0.0004524511
237	0x3a47a63e	0.00076160196
238	0x3a0f6f60	0.0005471613
239	0xb8e62af0	-0.000109752524
240	0xb9edc76f	-0.00045352752
241	0x38af6fd2	8.3654784e-05
242	0xba7c515f	-0.00096251623
243	0xba5f8356	-0.00085263455
244	0xb991cb3c	-0.00027807977
245	0xb92e3e0f	-0.00016617052
246	0xb8fe38d4	-0.00012122249
247	0xb9de2ef8	-0.00042378134
248	0xb94687f1	-0.00018933394
249	0xb91e58a5	-0.00015101077
250	0x36c36f64	5.8244204e-06
251	0xb438807c	-1.7183078e-07
252	0xad62aa61	-1.2884444e-11
253	0xb72a9000	-1.0166317e-05
254	0xb841a45f	-4.616787e-05
255	0xb8391e7b	-4.4135824e-05

exp_avg_sq f4 [50, 784]
0	0x00000000	0.0
1	0x00000000	0.0
2	0x00000000	0.0
3	0x00000000	0.0
4	0x2b769eec	8.7617305e-13
5	0x2cc56a0c	5.6108503e-12
6	0x2f835ca0	2.3894575e-10
7	0x305a8d6e	7.950892e-10
8	0x2f0af5f0	1.2638401e-10
9	0x3028d21e	6.141664e-10
10	0x30a92b67	1.2308704e-09
11	0x305da077	8.0627366e-10
12	0x311adcd4	2.2535476e-09
13	0x3101a8d8	1.8867947e-09
14	0x33036b03	3.059814e-08
15	0x32058b6d	7.773321e-09
16	0x312c81b9	2.5103033e-09
17	0x316d33ea	3.4517549e-09
18	0x303cfac5	6.8750367e-10
19	0x30400a15	6.986352e-10
20	0x2ef24ce4	1.10185444e-10
21	0x2bc80f56	1.4215111e-12
22	0x288520f6	1.478026e-14
23	0x250f6c30	1.2439928e-16
24	0x00000000	0.0
25	0x00000000	0.0
26	0x00000000	0.0
27	0x00000000	0.0
28	0x00000000	0.0
29	0x00000000	0.0
30	0x00000000	0.0
31	0x2f81c338	2.3603675e-10
32	0x322dbafe	1.0112442e-08
33	0x32321887	1.03665405e-08
34	0x32df0216	2.5961565e-08
35	0x33a2eafd	7.586457e-08
36	0x3417412f	1.4086685e-07
37	0x34068537	1.2528186e-07
38	0x34600a27	2.0865319e-07
39	0x347e5058	2.3684822e-07
40	0x3477c523	2.3075386e-07
41	0x34818ace	2.4129116e-07
42	0x34a2bd83	3.031274e-07
43	0x34c12868	3.597845e-07
44	0x3491f5ce	2.71872e-07
45	0x3485cc49	2.4921817e-07
46	0x33ce263d	9.599578e-08
47	0x332a4deb	3.9652075e-08
48	0x331c8472	3.644204e-08
49	0x32385235	1.0728901e-08
50	0x31873840	3.935412e-09
51	0x30056be9	4.853847e-10
52	0x2879163a	1.3827096e-14
53	0x00000000	0.0
54	0x00000000	0.0
55	0x00000000	0.0
56	0x00000000	0.0
57	0x305077f6	7.5840434e-10
58	0x304b9c07	7.40727e-10
59	0x318b0bb7	4.0467643e-09
60	0x335ccbba	5.140803e-08
61	0x342744d9	1.5578134e-07
62	0x34907572	2.6907543e-07
63	0x3500156f	4.7714906e-07
64	0x357fff48	9.5366386e-07
65	0x35b5bdc9	1.3540786e-06
66	0x35f505e4	1.8255637e-06
67	0x360dcb6e	2.112905e-06
68	0x361f3999	2.3726373e-06
69	0x36387d67	2.749113e-06
70	0x363c89f8	2.8094491e-06
71	0x363124f8	2.6396574e-06
72	0x36130c63	2.1911917e-06
73	0x35e5a912	1.7111036e-06
74	0x35864c4d	1.0005984e-06
75	0x351d8dd4	5.8693445e-07
76	0x34a9a9d5	3.1602272e-07
77	0x3423c265	1.5251278e-07
78	0x336c4485	5.501035e-08
79	0x3280482f	1.4933986e-08
80	0x310cabe4	2.047039e-09
81	0x30c720d1	1.4488483e-09
82	0x00000000	0.0
83	0x00000000	0.0
84	0x00000000	0.0
85	0x309b6f5e	1.1309387e-09
86	0x31e52020	6.6684294e-09
87	0x33248b25	3.8310777e-08
88	0x33f46aee	1.1381586e-07
89	0x34aa4665	3.1716186e-07
90	0x35340407	6.7061086e-07
91	0x35b6fde0	1.3633944e-06
92	0x3628ae94	2.5135569e-06
93	0x36786cb4	3.7018153e-06
94	0x36aff1f1	5.243572e-06
95	0x36d2a117	6.277241e-06
96	0x36ef3ea0	7.1300456e-06
97	0x37024862	7.765457e-06
98	0x37076de5	8.072214e-06
99	0x36f0b3e7	7.1735008e-06
100	0x36b9ae4d	5.533721e-06
101	0x368491bb	3.950872e-06
102	0x361de2c8	2.3526827e-06
103	0x35bc227e	1.401713e-06
104	0x354382f5	7.283373e-07
105	0x34a03176	2.983831e-07
106	0x340ad53a	1.2929823e-07
107	0x338bcf39	6.5103855e-08
108	0x32d56cad	2.4845884e-08
109	0x321baaf8	9.061061e-09
110	0x2df70bc1	2.8085869e-11
111	0x00000000	0.0
112	0x2eca05bf	9.186917e-11
113	0x30013957	4.701141e-10
114	0x3263141a	1.321771e-08
115	0x3415e6b3	1.3960634e-07
116	0x34d5420b	3.9722394e-07
117	0x355a3ae3	8.129702e-07
118	0x35bf0084	1.4230759e-06
119	0x363f34f3	2.8492038e-06
120	0x369f3494	4.74469e-06
121	0x36ec2991	7.038187e-06
122	0x37299309	1.0107419e-05
123	0x3752f60e	1.25742645e-05
124	0x37723171	1.44358355e-05
125	0x3779d365	1.4890776e-05
126	0x376e79ba	1.4214247e-05
127	0x375375cd	1.2604008e-05
128	0x3724b9c8	9.818417e-06
129	0x36efa1d3	7.141594e-06
130	0x3692cfc6	4.375327e-06
131	0x362e0e93	2.5936504e-06
132	0x35b4578b	1.3436523e-06
133	0x3544bcb5	7.3290295e-07
134	0x34e50f96	4.2665914e-07
135	0x34605604	2.0892918e-07
136	0x33bd2803	8.8082764e-08
137	0x32cdfd06	2.3980203e-08
138	0x303a0cfd	6.7684863e-10
139	0x2b255600	5.8739125e-13
140	0x2f8b7e68	2.537377e-10
141	0x31f2ee78	7.0702377e-09
142	0x339498dc	6.919592e-08
143	0x34ca5f06	3.769457e-07
144	0x3552ab4c	7.8480366e-07
145	0x35e390f5	1.6955006e-06
146	0x364e328a	3.072581e-06
147	0x36aea5b9	5.2048968e-06
148	0x370bf9d0	8.34321e-06
149	0x374f84e4	1.23691025e-05
150	0x3788855b	1.6274562e-05
151	0x37a55ada	1.9711839e-05
152	0x37c2c415	2.321791e-05
153	0x37d3891b	2.5217005e-05
154	0x37c5c1db	2.3574501e-05
155	0x37a92628	2.0164138e-05
156	0x378799a9	1.6164808e-05
157	0x374f8639	1.2369413e-05
158	0x370fd518	8.573079e-06
159	0x36b77f61	5.468654e-06
160	0x3654a4c1	3.168636e-06
161	0x35ec6b2e	1.7614564e-06
162	0x35839fff	9.806826e-07
163	0x3509c582	5.132389e-07
164	0x3479c570	2.326176e-07
165	0x334bb65f	4.7430486e-08
166	0x30c46e05	1.4292146e-09
167	0x2d166ba8	8.550417e-12
168	0x318aa1aa	4.0347077e-09
169	0x32c29897	2.2653962e-08
170	0x341e5d82	1.4748915e-07
171	0x351e3dfb	5.894978e-07
172	0x35a4d777	1.2281661e-06
173	0x3631cf4b	2.6495716e-06
174	0x369f074e	4.7394196e-06
175	0x370370a7	7.834437e-06
176	0x37511f5a	1.246467e-05
177	0x3791535c	1.7324164e-05
178	0x37bc83b1	2.247267e-05
179	0x37eeeb13	2.8481276e-05
180	0x381080c2	3.445219e-05
181	0x381be016	3.7163576e-05
182	0x38157edf	3.5642526e-05
183	0x3803ad8e	3.139447e-05
184	0x37d5c488	2.5483096e-05
185	0x379ea68d	1.8912624e-05
186	0x3765564f	1.3669559e-05
187	0x371d8bff	9.390525e-06
188	0x36c20627	5.7823668e-06
189	0x3663f4e6	3.3968186e-06
190	0x35fe1fde	1.8933749e-06
191	0x357ea6fb	9.486536e-07
192	0x350743b7	5.0389957e-07
193	0x340309d0	1.2203895e-07
194	0x323d5110	1.1019679e-08
195	0x2db9bc05	2.1115562e-11
196	0x30df0dff	1.6229363e-09
197	0x3308ff28	3.189703e-08
198	0x346978a5	2.1743706e-07
199	0x35386bdc	6.87023e-07
200	0x35d75320	1.6042941e-06
201	0x3658ca8b	3.2304404e-06
202	0x36c3dd4c	5.837215e-06
203	0x37244c34	9.792904e-06
204	0x37798d7d	1.4874499e-05
205	0x37ad46c6	2.0656164e-05
206	0x37dcae31	2.6307158e-05
207	0x380c17d7	3.3400804e-05
208	0x38264ba6	3.9647937e-05
209	0x382ed00e	4.16786e-05
210	0x382c561c	4.108819e-05
211	0x381c0b7a	3.7203987e-05
212	0x3803b2b0	3.139925e-05
213	0x37c8cc3b	2.393696e-05
214	0x37983f19	1.8149194e-05
215	0x3756e7c8	1.280936e-05
216	0x370a73a3	8.252365e-06
217	0x36a61ec7	4.9507685e-06
218	0x363b5d68	2.791954e-06
219	0x35bd521b	1.4105493e-06
220	0x3522c372	6.0634113e-07
221	0x3437b0be	1.7107502e-07
222	0x3294c448	1.7318726e-08
223	0x2f751015	2.2288334e-10
224	0x2fb8d17c	3.3618253e-10
225	0x32aeab08	2.0334042e-08
226	0x34520f69	1.956338e-07
227	0x35417670	7.207045e-07
228	0x35f80b35	1.8480702e-06
229	0x366908b7	3.4724778e-06
230	0x36d08034	6.213808e-06
231	0x372c4067	1.0266994e-05
232	0x3781b5cb	1.5462652e-05
233	0x37b7a567	2.1892321e-05
234	0x37e4ddec	2.7283058e-05
235	0x3807ab0d	3.234581e-05
236	0x3819451f	3.6542417e-05
237	0x381b47b0	3.7021644e-05
238	0x381fbd63	3.8084934e-05
239	0x381c3733	3.7244707e-05
240	0x380ad12c	3.309657e-05
241	0x37e7025f	2.753845e-05
242	0x37aa6b69	2.0315596e-05
243	0x376eed7f	1.4241202e-05
244	0x371d4227	9.3733315e-06
245	0x36bae207	5.569545e-06
246	0x3654224b	3.1610423e-06
247	0x35d481b6	1.5832982e-06
248	0x353ce754	7.0372084e-07
249	0x34943dda	2.761215e-07
250	0x3325565f	3.849561e-08
251	0x304c63a5	7.435637e-10
252	0x30cd5e61	1.4942537e-09
253	0x32ae71c9	2.030801e-08
254	0x3438a033	1.7194616e-07
255	0x353cd4b5	7.0344987e-07

exp_avg f4 [50]
0	0xb9820acf	-0.00024803585
1	0xbb2478e2	-0.0025096466
2	0xbb62f656	-0.003463169
3	0x00000004	6e-45
4	0xbb455522	-0.0030110558
5	0xb9c06033	-0.00036692768
6	0xba374424	-0.000699105
7	0x3a8a7cdc	0.0010565775
8	0x00000004	6e-45
9	0xba9f3cda	-0.0012148872
10	0x3978919f	0.00023705371
11	0x3a1e8620	0.0006047208
12	0x3b3b1efb	0.0028552401
13	0x3b45a808	0.003015997
14	0xba9bef61	-0.0011896902
15	0xbad324c8	-0.0016108984
16	0x3b20a334	0.002451134
17	0xbacae610	-0.0015479941
18	0x3b49a2ac	0.0030767126
19	0xbae980c1	-0.0017814861
20	0x00000004	6e-45
21	0x35ee667c	1.7762209e-06
22	0xb8f97a1d	-0.000118959906
23	0x3aa7f545	0.0012814185
24	0x3a983196	0.0011611457
25	0x3a1135dd	0.0005539337
26	0x39d6c58d	0.00040964448
27	0x3a61fa8a	0.0008620402
28	0x3b438ac2	0.0029837345
29	0xbb3d929d	-0.00289265
30	0xba1933f7	-0.000584423
31	0x3aaa7d8e	0.0013007389
32	0x3a0c4224	0.0005350432
33	0x3a32d917	0.000682251
34	0xbb422169	-0.0029621965
35	0x3b807e3a	0.0039212974
36	0xbb8812c8	-0.0041526295
37	0x3a449f29	0.00075005234
38	0xba88ea9b	-0.0010445894
39	0xbab4c134	-0.0013790489
40	0x388fd1d5	6.8578556e-05
41	0x3a8f41f8	0.0010929694
42	0xbb57f130	-0.0032950155
43	0x3ae8e742	0.0017769116
44	0x38df2fe0	0.00010642386
45	0x3835c58f	4.3337754e-05
46	0xba899985	-0.0010498023
47	0x33afaa8e	8.180096e-08
48	0x3a0d995f	0.0005401577
49	0x3a8d6f19	0.0010790556

exp_avg_sq f4 [50]
0	0x38bb4ff5	8.931748e-05
1	0x3905be55	0.00012754773
2	0x3896d819	7.192809e-05
3	0x326390b7	1.3246043e-08
4	0x38e20b89	0.000107786684
5	0x385a8499	5.209874e-05
6	0x38cefb99	9.869709e-05
7	0x38cbde3f	9.721191e-05
8	0x329a17da	1.7938806e-08
9	0x38c92926	9.5920914e-05
10	0x388389ad	6.272211e-05
11	0x38959aac	7.1336835e-05
12	0x39144c3d	0.00014142781
13	0x3918af0a	0.00014561057
14	0x38859eb9	6.3714986e-05
15	0x390051de	0.00012237529
16	0x38c54006	9.405617e-05
17	0x3854f7da	5.077557e-05
18	0x391381fd	0.00014067437
19	0x388379d2	6.2692576e-05
20	0x318b8457	4.0604777e-09
21	0x3900addc	0.00012271799
22	0x39873275	0.000257868
23	0x389932e6	7.305089e-05
24	0x389b0992	7.3927586e-05
25	0x38a0b0fd	7.662361e-05
26	0x38cf334f	9.880086e-05
27	0x398dfb3d	0.00027080803
28	0x38e47fd2	0.000108956956
29	0x38e45225	0.00010887188
30	0x38743b22	5.8229205e-05
31	0x38564ab9	5.1091167e-05
32	0x37f6a569	2.940251e-05
33	0x3894c4c1	7.093838e-05
34	0x38a6a03a	7.945341e-05
35	0x38bcece9	9.0086665e-05
36	0x3972eb1e	0.00023166506
37	0x39416179	0.00018442226
38	0x387a21a3	5.963597e-05
39	0x38e83648	0.00011072733
40	0x3927bf3a	0.00015997599
41	0x38ed6a68	0.0001132086
42	0x390035d6	0.00012227087
43	0x394a5b97	0.00019298341
44	0x38928cfd	6.9880836e-05
45	0x3855ad1e	5.0944385e-05
46	0x395340fd	0.00020146738
47	0x329da24d	1.8351011e-08
48	0x39105cb5	0.00013767446
49	0x388645a8	6.4025924e-05

exp_avg f4 [10, 50]
0	0x3b205748	0.0024466086
1	0xbb9d724e	-0.004804886
2	0xbb82d592	-0.0039927447
3	0x00000004	6e-45
4	0xbb9e1bcc	-0.004825091
5	0xbc5bd9a0	-0.013418585
6	0x3af46c0f	0.0018647927
7	0xbb53bd75	-0.003230897
8	0x00000004	6e-45
9	0xbb1904f2	-0.0023348895
10	0x3af5ba18	0.0018747477
11	0xbb7ee698	-0.0038894769
12	0x3880ff5b	6.151079e-05
13	0x3ab91546	0.001412072
14	0x3ad01bec	0.0015877462
15	0xbb92fec4	-0.004485937
16	0x3a01e3d0	0.0004954906
17	0x3b8e2455	0.004337827
18	0xbc209e16	-0.009803316
19	0x3a823440	0.0009933785
20	0x00000004	6e-45
21	0x3b5ec414	0.0033991383
22	0x3a5458a7	0.00081003684
23	0x39f4da83	0.0004670211
24	0xbb392cb5	-0.0028255407
25	0xbc38a2c4	-0.011269275
26	0xbb8d18f5	-0.0043059536
27	0xba2ad262	-0.0006516335
28	0xbbd88b8d	-0.0066084326
29	0x3a937a79	0.001125171
30	0x3b52bca6	0.00321559
31	0xbb8cd0d0	-0.0042973533
32	0xba2a21c4	-0.0006490017
33	0xbb806249	-0.0039179665
34	0x3b8d7ab5	0.0043176063
35	0x3be1d72b	0.006892105
36	0x3addfdf3	0.0016936645
37	0x3a0b1aff	0.0005306452
38	0xbc04125f	-0.008061021
39	0xbb1b32b6	-0.002368135
40	0x3b2dddb3	0.0026529848
41	0xbc4b7058	-0.012416922
42	0x3be7b7d7	0.007071476
43	0x3a04c6e4	0.00050650374
44	0x3b87bc1e	0.0041422984
45	0xbbfc0905	-0.007691505
46	0x399d1541	0.0002996121
47	0x2f875834	2.461903e-10
48	0xbb71f6b7	-0.0036920735
49	0xb98a7a80	-0.0002641268
50	0x3b09f81d	0.0021052428
51	0x3b346aa0	0.0027529374
52	0xba2726ac	-0.0006376307
53	0x80000004	-6e-45
54	0xb87849e2	-5.9196616e-05
55	0x3b2a5f47	0.002599673
56	0x3a926975	0.0011170345
57	0x3ad0fc83	0.0015944395
58	0x00000004	6e-45
59	0xbb9d0d06	-0.0047928123
60	0x3987192f	0.0002576797
61	0x3b85304c	0.0040645953
62	0xbbe2d1de	-0.006921991
63	0xb9a16257	-0.00030781582
64	0xba2d43a3	-0.0006609505
65	0x3b1aa0dd	0.0023594417
66	0xba13ac89	-0.0005633315
67	0x3ab05a4c	0.0013454645
68	0x3b31dd06	0.0027139797
69	0x3ab5b512	0.0013863167
70	0x00000004	6e-45
71	0xbafd5c95	-0.001932996
72	0x39de8a62	0.00042446243
73	0x3b592e7c	0.003313928
74	0xb99e5235	-0.00030197357
75	0x3a963f51	0.0011462962
76	0x3b8fc653	0.0043876558
77	0xbbc8115d	-0.0061055855
78	0x3b981db7	0.004642214
79	0xbb1a4caa	-0.002354423
80	0x39d26c10	0.00040134834
81	0x3a69f4e4	0.0008924736
82	0xbc02863d	-0.007966575
83	0x385de89b	5.2907137e-05
84	0x3a07294a	0.0005155994
85	0x3a365709	0.0006955718
86	0xbaa93eca	-0.0012912389
87	0x3b59b252	0.003321786
88	0xbae4782a	-0.0017430831
89	0xbad4bdd1	-0.0016230886
90	0x3a9b9b2f	0.001187181
91	0x3b6c2d50	0.003603775
92	0x3a77ae66	0.00094482896
93	0x3bcf6a1d	0.0063297884
94	0x3a326637	0.00068053923
95	0xbb45be5a	-0.0030173273
96	0x3a8e573b	0.0010859737
97	0xb44361e3	-1.8196401e-07
98	0x3b50822b	0.0031815867
99	0x3a0ad23a	0.00052956084
100	0x3a8ccfca	0.0010743078
101	0x3b851c01	0.004062176
102	0x3bd3fc90	0.006469317
103	0x80000004	-6e-45
104	0xbbefab3d	-0.0073141144
105	0x3c18b0a4	0.009319458
106	0xba3d6a23	-0.00072255934
107	0x3bc36430	0.005962871
108	0x00000004	6e-45
109	0xbb78d806	-0.0037970557
110	0x3b8efce0	0.004363641
111	0x3c5b36ae	0.013379736
112	0x3bd17bca	0.0063929306
113	0x3ba12c7f	0.0049186344
114	0xb9f8cbe5	-0.0004745416
115	0x3a163014	0.000572921
116	0x3ac737cb	0.0015199123
117	0xbbc534d9	-0.006018263
118	0x3c0636d6	0.008191785
119	0x3bbe320a	0.005804305
120	0x00000004	6e-45
121	0x3bb1e986	0.0054294495
122	0x39bc4301	0.00035908076
123	0x3b26ea5d	0.0025469281
124	0x3b9bc6a4	0.0047539044
125	0x3c115372	0.008869993
126	0x3ba0bcbc	0.0049053114
127	0x3b5023fa	0.0031759725
128	0x3c036874	0.008020509
129	0x3a4c863f	0.00078019866
130	0x3b1b3299	0.0023681282
131	0xbac3f331	-0.0014949796
132	0x395e118d	0.00021178108
133	0x3b880164	0.0041505564
134	0xbb287ab3	-0.00257079
135	0x3be138c1	0.0068732207
136	0xbc7544b4	-0.014969993
137	0x3c15e615	0.009149094
138	0x3bd39c4e	0.006457842
139	0xbab4400e	-0.0013752
140	0x3b79d06d	0.0038118616
141	0x3c1638f1	0.009168849
142	0xbc18f673	-0.009336102
143	0x3c680151	0.01416047
144	0xba8b9f96	-0.0010652419
145	0x3b0284c5	0.0019915563
146	0x3c052439	0.008126312
147	0x32d12b3a	2.435046e-08
148	0x3b8e568c	0.0043438133
149	0x39de8c10	0.00042447494
150	0x3c25115e	0.010074941
151	0xb8f69951	-0.000117587515
152	0x3b4188ab	0.0029530923
153	0x00000004	6e-45
154	0x3c2b21a3	0.010445031
155	0x3bf1edab	0.0073830686
156	0x3c75c830	0.015001342
157	0x3c378bc9	0.011202761
158	0x00000004	6e-45
159	0x3b929d3d	0.0044743107
160	0xbb9a450f	-0.0047079395
161	0x3c184201	0.00929308
162	0xbc0f3c74	-0.0087424405
163	0x3a9ed75d	0.0012118627
164	0xbb0cc8a4	-0.0021481896
165	0x3b70b315	0.0036727835
166	0x3b87713e	0.0041333726
167	0x3b213ea6	0.0024603992
168	0x3c293bb3	0.010329175
169	0x3b6b286c	0.0035882248
170	0x00000004	6e-45
171	0x3bbacb9f	0.005700543
172	0xbbbbf932	-0.0057364935
173	0xbc8162cf	-0.015794186
174	0x3c15c637	0.009141496
175	0x3c23ebb7	0.010004929
176	0x3c4d4cb3	0.012530494
177	0x3bf95ac7	0.0076096985
178	0x3c312a99	0.010813379
179	0x3b2e15e0	0.0026563331
180	0x3c758baa	0.014986912
181	0x3bfa1816	0.007632266
182	0x39db422c	0.00041820237
183	0x3c8af877	0.01696418
184	0xba4415f3	-0.00074800773
185	0xbbcc42ee	-0.0062335646
186	0xba90795c	-0.0011022496
187	0x3b5717f0	0.0032820664
188	0x3b93d053	0.004510918
189	0x3c070a9f	0.008242278
190	0x3bbbbdc4	0.005729409
191	0x3bb8eb3e	0.0056432774
192	0x3c32b641	0.0109077105
193	0x3b5ba8cf	0.0033517366
194	0x3c74f71d	0.0149514945
195	0x3bf36d1a	0.0074287774
196	0x39c654f2	0.00037828792
197	0x32b01c69	2.0502016e-08
198	0x3c12a1ec	0.008949738
199	0xba9099f7	-0.0011032213
200	0xbac86366	-0.0015288412
201	0xbc035f54	-0.008018333
202	0xbc2f8f27	-0.0107152825
203	0x00000004	6e-45
204	0xbb0c7c97	-0.0021436566
205	0x3a5f8a56	0.00085273886
206	0xbcdd4aac	-0.027013145
207	0xbc26a70c	-0.010171663
208	0x80000004	-6e-45
209	0xb9ce905f	-0.00039398947
210	0xbb968688	-0.004593674
211	0x3b44e59d	0.0030044087
212	0xba8ca5f0	-0.0010730606
213	0xbb001386	-0.0019542887
214	0xba0ea9b0	-0.00054421555
215	0xbbbb632a	-0.0057186084
216	0xbb6b3013	-0.0035886809
217	0xbcaa6f83	-0.020805126
218	0xbbd2204a	-0.0064125406
219	0xba89f8de	-0.0010526439
220	0x80000004	-6e-45
221	0xbb21d6dc	-0.0024694717
222	0xbba9c85b	-0.005181355
223	0x3a57a952	0.000822683
224	0xbb7fc8b8	-0.003902955
225	0xb841f3f5	-4.624199e-05
226	0xbc0da5a8	-0.008645453
227	0x3919172a	0.00014599846
228	0x39c0bbff	0.00036761162
229	0xbc26b20e	-0.0101742875
230	0xbcda26e0	-0.026629865
231	0x3afb9ede	0.0019197126
232	0x3aae8bfe	0.0013316867
233	0xbcb4fd2d	-0.02209338
234	0xbc26d336	-0.010182193
235	0xbbe3dd58	-0.0069538765
236	0xbb8dd527	-0.0043283883
237	0xbb14be1c	-0.0022696322
238	0xbb93de14	-0.0045125578
239	0xbc5acc63	-0.013354394
240	0xbc194f59	-0.009357297
241	0x3ad424b2	0.0016185252
242	0xbcc4e2d5	-0.024033943
243	0x3bc09229	0.0058767986
244	0xbcc7c7d7	-0.024387283
245	0x39a6299d	0.00031692992
246	0xb989f3ae	-0.00026312232
247	0x30d44828	1.5445538e-09
248	0xbadaf7ee	-0.0016705969
249	0xbb81563e	-0.0039470484
250	0xbc8da24e	-0.017289307
251	0x3ba4dcb2	0.0050311917
252	0xbadcaab1	-0.0016835538
253	0x80000004	-6e-45
254	0x3a05d693	0.00051055214
255	0x3b05c499	0.002041137

exp_avg_sq f4 [10, 50]
0	0x3932fabf	0.00017068813
1	0x3b290d06	0.0025795116
2	0x3b0ae69a	0.0021194578
3	0x300e807b	5.184188e-10
4	0x3a843506	0.0010086603
5	0x3acf2bf6	0.0015805948
6	0x3b1bb382	0.0023758118
7	0x3b56c554	0.0032771425
8	0x318da1ba	4.1220263e-09
9	0x3a0da41e	0.00054031785
10	0x38c9f4ee	9.6300486e-05
11	0x39c6814a	0.0003786183
12	0x38816b53	6.17119e-05
13	0x38d78e22	0.00010278473
14	0x3a1e0ab8	0.0006028819
15	0x3a88e4a2	0.0010444114
16	0x39f70f07	0.00047122707
17	0x3a9d8808	0.001201869
18	0x3af866c7	0.0018951528
19	0x39560ac1	0.00020412637
20	0x3127162e	2.4314306e-09
21	0x39845441	0.00025239776
22	0x3867cf40	5.526771e-05
23	0x38bd5e20	9.0297544e-05
24	0x3ad813e6	0.0016485422
25	0x3a9b45f5	0.001184641
26	0x3ae1aa6b	0.0017216926
27	0x39daa3b0	0.00041702157
28	0x3a215322	0.00061540504
29	0x3b19d75f	0.0023474318
30	0x3bb13634	0.005408073
31	0x390812ee	0.00012977023
32	0x363bd261	2.7987628e-06
33	0x3b836531	0.0040098657
34	0x3aea3376	0.001786812
35	0x3a92a984	0.0011189436
36	0x3940eefa	0.00018399573
37	0x3925f30f	0.00015826173
38	0x3b572fba	0.0032834844
39	0x3b0e9ae2	0.0021759798
40	0x3a31ae36	0.00067779736
41	0x3aa91e20	0.0012902655
42	0x3b1e2312	0.002412979
43	0x3a711dd2	0.0009197864
44	0x3b636c8a	0.0034702145
45	0x3b0b9256	0.002129694
46	0x390b0632	0.00013258381
47	0x2ffdfd07	4.620022e-10
48	0x3a076a80	0.0005165711
49	0x390eeda9	0.0001363071
50	0x38c04ba4	9.1693626e-05
51	0x390763b8	0.00012911751
52	0x37a2f005	1.9423673e-05
53	0x31b05143	5.1315125e-09
54	0x39bdbb87	0.00036188608
55	0x3afe57ec	0.0019404865
56	0x3a593bff	0.0008286833
57	0x399d86a5	0.00030045692
58	0x32f2c167	2.8260457e-08
59	0x39c1d786	0.00036972406
60	0x39daa610	0.00041703926
61	0x3aa6edb1	0.0012735632
62	0x389c4965	7.4523305e-05
63	0x39d951f7	0.00041450534
64	0x39257ace	0.00015781375
65	0x39c3741f	0.00037279815
66	0x3a5367f3	0.0008064501
67	0x38912f8e	6.9229965e-05
68	0x3a10147e	0.00054962176
69	0x39ac68c1	0.00032884444
70	0x304942f9	7.321855e-10
71	0x39248f67	0.0001569368
72	0x38dfb88a	0.00010667842
73	0x395136a6	0.00019952151
74	0x3aa4571e	0.001253817
75	0x3a59261f	0.00082835736
76	0x3ab029c3	0.001344018
77	0x3915aa94	0.00014273293
78	0x3a86e4fd	0.0010291632
79	0x3a189ce1	0.00058217166
80	0x39cc88a4	0.00039011717
81	0x3a4c816b	0.0007801267
82	0x39843752	0.0002521822
83	0x3a18fe9a	0.00058362784
84	0x391f8506	0.00015212977
85	0x3a91a131	0.0011110661
86	0x38e1321e	0.00010738171
87	0x3ac7fbbb	0.0015257517
88	0x3a006d0c	0.0004899062
89	0x3963acc7	0.00021712772
90	0x3911e6ae	0.00013914212
91	0x3b05c60d	0.0020412237
92	0x393f9390	0.00018270151
93	0x39699b19	0.0002227839
94	0x39d35adb	0.0004031275
95	0x3a4bbf3b	0.0007772331
96	0x3a0c22e1	0.00053457735
97	0x324da075	1.1969054e-08
98	0x399826f2	0.00029020716
99	0x39480c7d	0.00019078139
100	0x3a7caa18	0.0009638383
101	0x3b6f9d46	0.0036562248
102	0x3aa5d81b	0.0012652905
103	0x312d7a29	2.5244253e-09
104	0x3ad5b8aa	0.0016305645
105	0x3bf0cc4a	0.007348572
106	0x3b80904e	0.0039234525
107	0x3b9db55d	0.00481288
108	0x3065d576	8.361306e-10
109	0x3a902c1e	0.0010999476
110	0x3a8c89a5	0.0010722174
111	0x3b67e857	0.0035386288
112	0x3a203712	0.0006111722
113	0x3985380a	0.0002540949
114	0x3abac70d	0.0014249996
115	0x3b8dd71b	0.004328621
116	0x3b3bac91	0.0028636793
117	0x3aa87275	0.0012851494
118	0x3b5c5542	0.0033620154
119	0x3a3604db	0.00069434725
120	0x30e17ec9	1.6406939e-09
121	0x39b76fe1	0.00034987836
122	0x39495a8e	0.00019202588
123	0x39c645db	0.0003781755
124	0x3c0ce4a6	0.008599436
125	0x3bb937a2	0.005652384
126	0x3c04d18c	0.0081066005
127	0x3b0d29f3	0.0021539896
128	0x3b6dfb06	0.0036312952
129	0x3bad63be	0.005291431
130	0x3bfb5bbd	0.007670848
131	0x3ad7e063	0.0016470071
132	0x386a8cce	5.5921082e-05
133	0x3be0eddc	0.0068642925
134	0x3b2a9eb4	0.0026034536
135	0x3afe0922	0.0019381384
136	0x3a86238f	0.0010233986
137	0x3a902ee2	0.00110003
138	0x3beb7edb	0.007186753
139	0x3b8f71c2	0.0043775747
140	0x3ad7de76	0.0016469497
141	0x3c00cc63	0.00786123
142	0x3b32593b	0.002721383
143	0x3b56ca1c	0.0032774275
144	0x3b934471	0.004494243
145	0x3c161cb8	0.0091621205
146	0x3b191304	0.0023357281
147	0x2fe36041	4.1359452e-10
148	0x3b2aa4ad	0.0026038096
149	0x39d399c5	0.00040359623
150	0x3aee8af5	0.0018199371
151	0x3b0e2209	0.0021687767
152	0x3a26282b	0.0006338383
153	0x2ede5cc8	1.01118725e-10
154	0x3a93bd4b	0.0011271624
155	0x3c0fe9c8	0.008783765
156	0x3ba52038	0.005039241
157	0x3b72258a	0.0036948645
158	0x312d50f4	2.522083e-09
159	0x3a6f1c1d	0.00091213157
160	0x3b0945fd	0.0020946257
161	0x3b545390	0.003239844
162	0x3aabb58c	0.001310037
163	0x3a1520dd	0.0005688796
164	0x3a7e06a3	0.000969032
165	0x3bf99452	0.007616558
166	0x3b80d3db	0.003931505
167	0x3a3257c4	0.0006803239
168	0x3b4c80e7	0.0031204761
169	0x3a15ad84	0.0005709755
170	0x30b00bfc	1.2809092e-09
171	0x3988c2ed	0.00026085172
172	0x3a4742d8	0.0007601208
173	0x3aa53b07	0.0012606092
174	0x3c4fa9e9	0.012674787
175	0x3bd95ac0	0.0066331327
176	0x3c360e1a	0.0111117605
177	0x3b38cab7	0.0028197
178	0x3b8c10cf	0.0042744647
179	0x3bc9ff63	0.0061644777
180	0x3c05b4b5	0.00816076
181	0x3b387e16	0.0028151325
182	0x38935d2e	7.026862e-05
183	0x3c1a2d67	0.009410239
184	0x3afc93a2	0.0019270072
185	0x3b38d489	0.0028202853
186	0x39bcefec	0.0003603691
187	0x3a8f7e75	0.0010947721
188	0x3bdf6051	0.0068169017
189	0x3bda1fd8	0.006656628
190	0x39da4379	0.0004163047
191	0x3c2b0d3e	0.010440169
192	0x3b104a1c	0.002201683
193	0x3b0ac667	0.0021175386
194	0x3b9c7cb9	0.0047756103
195	0x3c2dd93b	0.010610874
196	0x3a95831d	0.0011406873
197	0x2f883d2f	2.478173e-10
198	0x3b0beecb	0.0021352048
199	0x3a8bdb1d	0.0010670159
200	0x3a03cdff	0.0005027949
201	0x3a2c1f9b	0.0006565989
202	0x3a2a0f1b	0.0006487236
203	0x30ffad4e	1.8602948e-09
204	0x399264ed	0.00027922486
205	0x3a0f347b	0.0005462837
206	0x3bb13f1d	0.005409135
207	0x3a9c7046	0.0011935316
208	0x31763239	3.582626e-09
209	0x3912b492	0.00013990913
210	0x39b8a1c8	0.0003521575
211	0x399ee611	0.0003030752
212	0x38d15922	9.982499e-05
213	0x39dbd711	0.00041931172
214	0x3996373b	0.0002865138
215	0x3a407eed	0.0007343132
216	0x398e918c	0.00027192791
217	0x3b477355	0.0030433733
218	0x3a900543	0.0010987896
219	0x39a871f9	0.00032128373
220	0x3212d722	8.547234e-09
221	0x39969801	0.0002872348
222	0x3a020622	0.00049600203
223	0x3a08288a	0.0005194029
224	0x3a915136	0.0011086825
225	0x3948df4a	0.00019156668
226	0x3af65be4	0.0018795696
227	0x37a73d19	1.9936402e-05
228	0x39ad20c1	0.00033021535
229	0x3b117e6b	0.0022200595
230	0x3b9bf1e1	0.004759059
231	0x39a0787e	0.00030607352
232	0x380c6f6a	3.3482364e-05
233	0x3b935779	0.0044965115
234	0x3afeb783	0.0019433353
235	0x3a40d085	0.00073552906
236	0x3a0ceec2	0.0005376154
237	0x3ab62c95	0.0013898785
238	0x3a3633c8	0.0006950465
239	0x3aa9eb21	0.0012963751
240	0x3b3c8528	0.002876589
241	0x3a200b67	0.00061052147
242	0x3bc1ad7f	0.005910575
243	0x398fed20	0.00027451757
244	0x3bbda50d	0.005787498
245	0x3948abe6	0.00019137523
246	0x37dfac3b	2.6663873e-05
247	0x2fe9f605	4.255726e-10
248	0x390f85c3	0.00013687373
249	0x3a063ff3	0.00051212235
250	0x3aeb2dc8	0.0017942721
251	0x3b13b43e	0.0022537853
252	0x3a53b930	0.00080766063
253	0x31652b8a	3.3348635e-09
254	0x3a971552	0.001152674
255	0x3c0693c4	0.008213941

exp_avg f4 [10]
0	0xb853d275	-5.0502324e-05
1	0x3a8b8ec1	0.0010647402
2	0x3aa6f019	0.001273635
3	0x3b7a79fe	0.0038219686
4	0xbbb25bbe	-0.0054430654
5	0xbb8d4a7c	-0.0043118577
6	0xbb2c047f	-0.0026247797
7	0x39aed635	0.00033347463
8	0x39db3547	0.0004181063
9	0x3bb4e0ad	0.0055199475

exp_avg_sq f4 [10]
0	0x396113ac	0.00021465
1	0x3916e9be	0.0001439219
2	0x3a171a34	0.00057640974
3	0x3a327975	0.00068082596
4	0x398f84ad	0.00027373937
5	0x3a3f64f3	0.00073011144
6	0x3a17ecbc	0.0005795469
7	0x39d55cc0	0.0004069563
8	0x3a06ce2c	0.00051424163
9	0x39f334f7	0.00046388034
