tb_logs/MNIST_Model/version_0/checkpoints/epoch=2-step=2346.ckpt (torch, 483890 bytes, 12 tensors)

fc1.weight f4 [50, 784]
-0.008184843 0.0054724216 -0.006311264 -0.023409773 -0.018199638 0.0040377886 0.044819195 0.019064933
0.03652579 0.018622106 -0.044109687 -0.114031464 0.029563533 -0.005905103 -0.061460853 0.013077301
0.04594582 -0.016344894 -0.059282057 0.00062915136 0.0218893 0.07897606 0.0014225743 0.0023851022
-0.0048399903 -0.014424121 -0.030753877 -0.0124491975 0.019978538 0.018741298 0.026252061 -0.012907498
0.03732667 0.07127787 -0.009734739 -0.0034970478 0.053717252 0.057190996 0.097521976 0.086494446
0.14564572 0.10655431 0.08403805 0.15369873 0.17711978 0.10373256 0.05541334 0.07399099
0.03696393 0.058565643 0.07389009 0.015541443 0.047501612 0.048085056 -0.031192169 -0.02014018
0.012506004 -0.021469684 -0.047100082 -0.03710097 -0.04996625 0.04313955 -0.018927515 -0.009892936
0.03813977 0.06806848 0.07038224 0.057509046 0.058172915 0.046753343 0.09654218 0.13167259
0.13594566 0.01310477 0.0013897091 -0.037000325 -0.12516555 -0.15061341 -0.09905385 -0.117557414
-0.14143056 -0.015625613 -0.04861028 0.008422315 0.0071931705 0.020821024 -0.10447844 -0.11336534
-0.14542723 -0.10611374 -0.11177164 -0.054933373 -0.06582726 -0.047655497 -0.022691244 -0.046285074
0.00848802 -0.008114797 0.01394521 -0.022820286 -0.007968456 -0.036434043 -0.11713312 -0.12062934
-0.16930528 -0.10954327 -0.123323224 -0.073678926 -0.22179188 -0.090011485 -0.01677806 -0.01889458
-0.01827075 0.008304602 0.030597175 -0.008761213 -0.0045656515 -0.101120636 -0.11555115 -0.154739
-0.105160415 -0.058046002 0.01407952 0.0138503695 0.066805996 0.085329816 0.039402194 0.030694228
0.009845893 -0.04190495 -0.12236834 -0.072144635 -0.1249908 -0.12356333 -0.06074833 0.04984463
-0.011905284 -0.022631472 0.011817709 -0.05709722 0.04000657 0.0940618 0.11320955 0.1042073
0.055811737 -0.0455762 -0.06498013 -0.13072172 -0.18839517 -0.1425435 -0.12615126 -0.037816145
-0.04733787 -0.01975683 -0.04579496 -0.09647234 -0.10823919 -0.13629015 -0.096977904 -0.025787827
-0.077801876 -0.071348876 0.023383401 0.096575245 0.09643924 0.075723566 0.119386904 -0.020028165
0.07904457 0.050128676 0.0509786 0.13874906 0.08892992 -0.023730999 -0.13008007 -0.10936921
-0.10462886 -0.1541508 -0.113120995 -0.10113748 -0.07668353 -0.08338935 -0.08948753 -0.11863476
-0.09814445 -0.06457957 -0.03508452 0.0123696355 -0.018879332 -0.018850598 0.06989998 0.12668718
0.15861933 0.0860482 0.18495727 0.07638192 0.079975374 0.14431745 0.18083291 0.17132379
0.080777 -0.015377325 -0.040386777 -0.04262406 -0.012669119 -0.039296668 -0.023201698 -0.0045845173
-0.0018460882 0.007449213 0.015022018 -0.0850013 -0.11195595 -0.078387305 -0.015614459 0.05115412
0.057336222 0.07439127 0.053945385 0.044405248 0.11411328 0.14958063 0.06339034 -0.0064981948
0.08057698 0.12684907 0.20161723 0.22450937 0.086557105 -0.0063244305 0.04708825 0.018958224
0.041262664 0.020293122 0.04989954 0.065090604 0.15711498 0.13443734 0.08850572 -0.011858577
-0.13001166 -0.17110074 -0.10906407 -0.079485185 0.026718095 0.10664556 0.1022565 0.110021465
0.17857805 0.1749148 0.034542184 0.019851612 -0.031050075 0.06837235 0.26734748 0.21569079
00000000: b819 06bc 0052 b33b b8ce cebb dac5 bfbc
00000010: 6817 95bc 6d4f 843b 5594 373d 102e 9c3c
00000020: 119c 153d 638d 983c 5cac 34bd 5489 e9bd
00000030: 392f f23c 987f c1bb 60be 7bbd 2d42 563c
00000040: af31 3c3d bae5 85bc bed1 72bd a2ed 243a
00000050: 3051 b33c 33be a13d ac75 ba3a 604f 1c3b
00000060: c898 9ebb 2653 6cbc 8eef fbbc b8f7 4bbc
00000070: 08aa a33c 5a87 993c 900e d73c f879 53bc
00000080: dae3 183d 22fa 913d 747e 1fbc ba2e 65bb
00000090: 9f06 5c3d 1b41 6a3d 9ab9 c73d 0024 b13d
000000a0: 2724 153e 2539 da3d 241c ac3d 3363 1d3e
000000b0: e35e 353e bd71 d43d 19f9 623d 9788 973d
000000c0: 7d67 173d 87e2 6f3d b053 973d 89a1 7e3c
000000d0: 0d91 423d d6f4 443d b886 ffbc 05fd a4bc
000000e0: fce5 4c3c 31e1 afbc 04ec 40bd 30f7 17bd
000000f0: 69a9 4cbd 19b3 303d e00d 9bbc fb15 22bc
00000100: 7338 1c3d 7d67 8b3d 9024 903d 9b8e 6b3d
00000110: b946 6e3d 6f80 3f3d e8b7 c53d 2ed5 063e
00000120: 5735 0b3e 64b5 563c e626 b63a a78d 17bd
00000130: 662b 00be 673a 1abe bfdc cabd f1c1 f0bd
00000140: 2cd3 10be 4901 80bc 931b 47bd c0fd 093c
00000150: b0b4 eb3b da90 aa3c cbf8 d5bd 162c e8bd
00000160: e0ea 14be 2952 d9bd 88e8 e4bd d101 61bd
00000170: 71d0 86bd 6932 43bd fde2 b9bc 6b95 3dbd
00000180: 5611 0b3c edf3 04bc 737a 643c 9cf1 babc
00000190: 208e 02bc dd3b 15bd 7de3 efbd 840c f7bd
000001a0: 5d5e 2dbe 3958 e0bd e390 fcbd fae4 96bd
000001b0: 691d 63be f157 b8bd 2472 89bc cec8 9abc
000001c0: 8aac 95bc 0610 083c eda6 fa3c 318b 0fbc
000001d0: 769b 95bb 5618 cfbd 15a6 ecbd e773 1ebe
000001e0: 585e d7bd a5c1 6dbd c9ad 663c a9ec 623c
000001f0: 95d1 883d 66c1 ae3d 3264 213d 7672 fb3c
00000200: ab50 213c 86a4 2bbd 419c fabd 91c0 93bd
00000210: 2dfb ffbd c50e fdbd 3ed3 78bd e229 4c3d
00000220: 610e 43bc a365 b9bc 109f 413c c6de 69bd
00000230: eedd 233d 79a3 c03d 69da e73d a36a d53d
00000240: d99a 643d 1cae 3abd 4d14 85bd eadb 05be
00000250: aaea 40be ecf6 11be cc2d 01be 1ae5 1abd
00000260: 5be5 41bd 13d9 a1bc 7f93 3bbd 4a93 c5bd
00000270: 82ac ddbd a58f 0bbe 5a9c c6bd fe40 d3bc
00000280: 9756 9fbd 5c1f 92bd 8c8e bf3c 3ec9 c53d
00000290: f081 c53d f514 9b3d 1f81 f43d 1b12 a4bc
000002a0: 1fe2 a13d ba53 4d3d f0ce 503d 3c14 0e3e
000002b0: e420 b63d 8367 c2bc b633 05be f7fc dfbd
000002c0: a847 d6bd b5d9 1dbe fbab e7bd 2b21 cfbd
000002d0: 410c 9dbd 09c8 aabd 3d45 b7bd c8f6 f2bd
000002e0: f5ff c8bd 4b42 84bd c9b4 0fbd 03aa 4a3c
000002f0: d4a8 9abc 926c 9abc b927 8f3d 49ba 013e
00000300: 1b6d 223e 0a3a b03d 7065 3d3e 206e 9c3d
00000310: 21ca a33d f4c7 133e 432c 393e 816f 2f3e
00000320: 696e a53d 2df1 7bbc 9b6c 25bd 9196 2ebd
00000330: 2392 4fbc 8bf5 20bd 7d11 bebc b839 96bb
00000340: 71f8 f1ba 8718 f43b e91e 763c 2915 aebd
00000350: 2949 e5bd 8689 a0bd cad3 7fbc fc86 513d
00000360: 63d9 6a3d 735a 983d d6f5 5c3d 47e2 353d
00000370: 39b4 e93d aa2b 193e cbd2 813d cfee d4bb
00000380: 8b05 a53d b9e4 013e bf74 4e3e c9e5 653e
00000390: da44 b13d 2b3d cfbb 9cdf 403d 474e 9b3c
000003a0: 0a03 293d c33d a63c 7663 4c3d 394e 853d
000003b0: c0e2 203e f1a9 093e 7d42 b53d 7a4a 42bc
000003c0: c721 05be 0835 2fbe fc5c dfbd 21c9 a2bd
000003d0: e8df da3c fd68 da3d db6b d13d ef52 e13d
000003e0: 2add 363e de1c 333e 1b7c 0d3d d99f a23c
000003f0: ba5c febc cd06 8c3d c5e1 883e 0cde 5c3e

fc1.bias f4 [50]
0.30950606 0.23776118 0.01964085 -0.26535925 0.05557529 -0.04456296 -0.06441962 0.21187209
0.08565688 -0.24876516 -0.18871525 -0.026864072 0.0089937905 0.018524364 0.15345569 0.07899439
0.2708656 0.27558237 -0.2433415 -0.1496694 0.15224046 -0.020317059 -0.09847543 -0.30220354
-0.0853032 -0.08688036 0.1602309 0.061221007 0.116905116 0.004921865 0.23148057 0.051143583
0.15388753 0.1789532 -0.21245484 -0.023419138 0.07176941 0.112151265 0.043053232 0.16008851
-0.06810446 -0.1861964 0.03580225 0.051120706 0.14936134 0.025454553 0.03883266 -0.17688319
-0.16247278 0.113521256
00000000: 9477 9e3e ab77 733e d9e5 a03c 2bdd 87be
00000010: eaa2 633d a687 36bd 6fee 83bd fff4 583e
00000020: e06c af3d 4bbc 7ebe 923e 41be 0b12 dcbc
00000030: b15a 133c 68c0 973c 7d23 1d3e d0c7 a13d
00000040: e5ae 8a3e 2219 8d3e 842e 79be ef42 19be
00000050: ece4 1b3e f66f a6bc 7cad c9bd 6cba 9abe
00000060: 72b3 aebd 55ee b1bd 9213 243e e1c2 7a3d
00000070: f36b ef3d 9947 a13b 3e09 6d3e ef7b 513d
00000080: b194 1d3e 823f 373e c38d 59be 7ed9 bfbc
00000090: d7fb 923d 90af e53d 9658 303d 3eee 233e
000000a0: 5a7a 8bbd 45aa 3ebe 61a5 123d f263 513d
000000b0: 2ef2 183e 1186 d03c ff0e 1f3d de20 35be
000000c0: 445f 26be d57d e83d

fc2.weight f4 [10, 50]
-0.21671258 0.020243777 0.076898575 0.21809901 -0.36469126 -0.014736618 -0.32744652 0.13506767
-0.09123534 -0.19907898 -0.024071801 0.073252335 0.106390506 0.02498382 -0.66577774 -0.2531749
-0.31331506 0.0009959213 -0.27751732 0.08484426 -0.051681973 -0.08390823 0.28077593 0.19410531
0.18521988 0.069539905 0.060742494 0.1552106 0.041573223 0.064354636 0.014496607 -0.26429126
-0.19021784 -0.14915876 0.11803888 0.03654148 0.15923484 0.11810746 -0.26086578 -0.20309094
0.16149858 0.037615225 -0.27053395 -0.29963547 0.19610722 0.21375349 -0.1925966 -0.015498382
-0.0067582275 -0.62600106 0.17281207 -0.43404523 0.3257367 -0.33427292 -0.054891635 0.10646142
0.092287906 -0.36778763 0.021696566 -0.14454243 -0.018017262 0.11617894 0.30649856 -0.12225273
-0.3268585 -0.04227959 0.46113697 0.61528146 0.04220569 -0.10201276 -0.23189688 -0.3330596
-0.13644911 -0.2689691 -0.13442332 -0.413392 -0.3148521 0.2142741 0.20255786 0.17075272
-0.32087007 0.12378325 0.26388022 0.17811692 -0.22820817 -0.2853449 0.1199788 -0.12448964
0.051761918 0.1724397 -0.32907358 -0.31379667 0.07059356 0.093118764 0.10713425 0.14652808
-0.05280148 -0.37490797 -0.28548744 0.21810979 -0.15375336 -0.28530622 0.2047495 -0.033720054
-0.13407867 -0.14308558 0.2820431 -0.30878356 0.18251501 -0.047137633 0.25542134 0.20014514
0.0611897 0.057494722 0.76123756 0.33778316 0.173476 -0.2382877 -0.11053636 0.049053982
0.21997511 -0.21279742 0.011713845 0.03565625 0.071296416 0.014488737 -0.2074312 -0.065512754
-0.18154772 -0.29930207 -0.04111187 0.17196645 -0.23174472 -0.17705765 0.16879316 0.33192608
-0.057766087 0.19281356 -0.10546487 -0.18611255 0.056277785 -0.19420469 -0.02194449 -0.013137617
0.03506598 -0.011974515 0.24883758 -0.19944312 -0.0316923 0.27061656 -0.4714391 0.0018956756
-0.31327417 0.04947303 0.09164433 0.120499685 -0.011114915 0.13642985 -0.04884564 0.029176164
-0.0050577056 0.09053858 -0.18350235 -0.0065398803 -0.24572381 -0.28010875 -0.73913705 -0.42142507
0.15157321 0.014371555 -0.49176392 0.061033335 -0.121424206 0.031047229 -0.2506384 0.15885022
-0.15481701 0.21101774 -0.15451863 -0.18625213 0.036584087 0.16788922 -0.07016881 0.18159744
0.085125454 0.149192 0.21841158 0.0043733646 0.1862978 0.1850591 -0.012312487 -0.109129496
0.16522482 0.09921534 0.15526627 -0.26451772 -0.09224744 0.014203874 -0.26249442 0.1469126
0.18715294 0.107872054 0.17257021 -0.13033816 -0.2545993 0.05665105 0.039806027 0.24740528
-0.091113895 -0.30786446 -0.20968916 -0.3412365 -0.089260064 0.081223816 -0.4435623 0.01804214
-0.17132995 0.24352361 -0.045998804 -0.20436294 0.2614581 0.20208044 0.23890567 -0.061412476
0.089282624 -0.19969751 0.15857078 -0.3593475 0.23226377 0.07914271 -0.0865824 -0.29043737
0.17211646 0.26676106 -0.36768216 -0.5797989 0.3291787 0.17753021 -0.5445692 -0.49319765
-0.18261303 0.24081022 0.07820436 -0.17095992 -0.4019649 -0.33542025 0.20812218 -0.06670125
0.21334107 -0.3795539 0.58923084 0.11255208 -0.10894822 0.08715696 0.038868308 0.058494512
00000000: e7e9 5dbe 47d6 a53c 007d 9d3d 5955 5f3e
00000010: d0b8 babe db71 71bc 12a7 a7be 2e4f 0a3e
00000020: 98d9 babd 5cdb 4bbe 3a32 c5bc 5205 963d
00000030: 44e3 d93d deaa cc3c 6970 2abf 24a0 81be
00000040: d56a a0be 9389 823a c016 8ebe d4c2 ad3d
00000050: 7ab0 53bd 14d8 abbd ddc1 8f3e 8bc3 463e
00000060: 48aa 3d3e f06a 8e3d 1fcd 783d 87ef 1e3e
00000070: af48 2a3d 5dcc 833d 2d83 6d3c 2f51 87be
00000080: 77c8 42be 13bd 18be 5ebe f13d 85ac 153d
00000090: 750e 233e 53e2 f13d 3390 85be 12f7 4fbe
000000a0: e25f 253e 6c12 1a3d 6d83 8abe d269 99be
000000b0: 55d0 483e 32e2 5a3e 0b38 45be edec 7dbc
000000c0: 1f74 ddbb 9b41 20bf a6f5 303e 2d3b debe
000000d0: f6c6 a63e d225 abbe 0dd6 60bd 7208 da3d
000000e0: 7101 bd3d a94e bcbe ffbc b13c ee02 14be
000000f0: f098 93bc 39ef ed3d 61ed 9c3e a45f fabd
00000100: ff59 a7be 5d2d 2dbd 251a ec3e 1683 1d3f
00000110: e0df 2c3d 11ec d0bd 6076 6dbe ca86 aabe
00000120: 51b9 0bbe 51b6 89be 44a6 09be 1ea8 d3be
00000130: 4b34 a1be ab6a 5b3e 546b 4f3e cdd9 2e3e
00000140: 1549 a4be 1382 fd3d 4f1b 873e 4864 363e
00000150: 67af 69be ba18 92be 72b7 f53d 6df4 febd
00000160: 4e04 543d 0894 303e 557c a8be f5a9 a0be
00000170: 5b93 903d 0db5 be3d 3469 db3d 750b 163e
00000180: 5d46 58bd f0f3 bfbe 692b 92be 2c58 5f3e
00000190: 8571 1dbe a813 92be daa9 513e 0a1e 0abd
000001a0: eb4b 09be 0785 12be f467 903e e118 9ebe
000001b0: 37e5 3a3e 6413 41bd 96c6 823e d9f2 4c3e
000001c0: 0da2 7a3d 967f 6b3d 77e0 423f eaf1 ac3e
000001d0: b1a3 313e b101 74be e360 e2bd d4ec 483d
000001e0: 2841 613e 91e7 59be 6deb 3f3c 4a0c 123d
000001f0: db03 923d 2b62 6d3c d868 54be 8d2b 86bd
00000200: a5e7 39be 1f3e 99be ec64 28bd f917 303e
00000210: 7d4e 6dbe 9a4e 35be 1dd8 2c3e 37f2 a93e
00000220: 229c 6cbd eb70 453e f7fd d7bd 4a94 3ebe
00000230: 8983 663d 98dd 46be eec4 b3bc 293f 57bc
00000240: 58a1 0f3d c230 44bc 47cf 7e3e d13a 4cbe
00000250: c9cf 01bd 418e 8a3e 7760 f1be 5178 f83a
00000260: 7965 a0be 3ba4 4a3d 06b0 bb3d 8ac8 f63d
00000270: 551b 36bc 44b4 0b3e 5e12 48bd da02 ef3c
00000280: 1cbb a5bb 4b6c b93d 0ae8 3bbe 7e4c d6bb
00000290: 069f 7bbe 6a6a 8fbe 1638 3dbf 07c5 d7be
000002a0: 0236 1b3e ac76 6b3c 7bc8 fbbe 17fe 793d
000002b0: 41ad f8bd c256 fe3c ad53 80be a2a9 223e
000002c0: 5a88 1ebe 0915 583e 223a 1ebe e1b8 3ebe
000002d0: 32d9 153d 27eb 2b3e aab4 8fbd aef4 393e
000002e0: 4156 ae3d cac5 183e 49a7 5f3e 714e 8f3b
000002f0: dac4 3e3e 2280 3d3e 50ba 49bc 497f dfbd
00000300: b230 293e 6a31 cb3d 1ffe 1e3e de6e 87be
00000310: 3aec bcbd 5eb7 683c ab65 86be 4270 163e
00000320: 05a5 3f3e 06ec dc3d 3fb6 303e 5e77 05be
00000330: d75a 82be ee0a 683d a50b 233d cf57 7d3e
00000340: ec99 babd 69a0 9dbe c1b8 56be 8db6 aebe
00000350: fbcd b6bd ac58 a63d 991a e3be 1ccd 933c
00000360: 1e71 2fbe 415e 793e 3e69 3cbd 8544 51be
00000370: d6dd 853e 2dee 4e3e b0a3 743e a68b 7bbd
00000380: cfd9 b63d 817d 4cbe 6160 223e 65fc b7be
00000390: 8ed6 6d3e 9315 a23d 1d52 b1bd 35b4 94be
000003a0: 4c3f 303e e894 883e d640 bcbe b36d 14bf
000003b0: 1c8a a83e 7bca 353e e368 0bbf 6784 fcbe
000003c0: e9fe 3abe f496 763e 9c29 a03d 1e10 2fbe
000003d0: 58ce cdbe 34bc abbe fb1d 553e aa9a 88bd
000003e0: 1576 5a3e e454 c2be d5d7 163f b481 e63d
000003f0: 3f20 dfbd 597f b23d 6034 1f3d f197 6f3d

fc2.bias f4 [10]
-0.07998646 0.06316628 -0.055910457 -0.12780164 0.045971137 0.16686386 -0.11640601 0.23156774
-0.23661305 0.043574806
00000000: f1cf a3bd 535d 813d 5d02 65bd 6fde 02be
00000010: 3b4c 3c3d 5cde 2a3e 4666 eebd 1820 6d3e
00000020: b14a 72be 7f7b 323d

exp_avg f4 [50, 784]
0.0 0.0 0.0 0.0 -6e-45 -6e-45 4.2006003e-15 2.2612263e-14
-2.688744e-14 7.392412e-09 4.616488e-08 2.535789e-07 1.2950776e-06 -1.238213e-05 -1.32511395e-05 -9.96127e-06
2.0395748e-07 1.7055077e-09 5.873399e-12 1.9121755e-12 5.9426596e-13 1.4985175e-35 -6e-45 0.0
0.0 0.0 0.0 0.0 0.0 0.0 0.0 0.0
-5.353165e-11 -4.378233e-10 1.7252437e-07 1.6210906e-06 1.9773665e-06 6.8499835e-06 3.532392e-05 6.186305e-05
2.9756751e-05 1.9558853e-05 3.6722184e-05 -3.6557594e-05 -0.000110643385 -4.0132843e-05 -5.2623627e-06 2.50751e-06
-6.5575823e-06 -3.7979695e-05 -4.0092615e-05 -1.0733036e-05 -6e-45 -6e-45 0.0 0.0
0.0 6e-45 6e-45 -1.2871063e-09 -1.3592851e-06 -5.462886e-06 9.364154e-05 0.00026928418
0.00014688628 0.000134335 0.0004421067 0.00017419978 6.6157176e-05 -0.0007962839 -0.0009098145 -0.0010786788
-0.0010252515 -0.0005349269 -5.04789e-06 0.00036660436 9.425993e-05 -1.1299606e-05 -3.756678e-05 -1.0625417e-05
1.2685994e-21 1.5693523e-37 1.8760085e-37 0.0 0.0 6e-45 3.5521836e-08 2.8316612e-05
5.9959693e-05 0.00010260534 0.00024028959 0.00046831692 1.0579831e-05 -0.00089363847 -0.0011550293 -0.0011955613
-0.0013410402 -0.0014290836 -0.0019701747 -0.0016354718 -0.0011805344 -0.0010098997 -0.00057711825 -0.00095199497
-0.00019102466 3.1156746e-05 -2.2705867e-06 -2.9154688e-08 5.189343e-10 -9.993248e-21 1.7573214e-37 0.0
0.0 1.5215582e-10 -1.0083236e-07 8.695462e-05 8.768706e-05 0.00017988413 0.0001446889 0.00034488915
-0.0001464244 -0.0014599485 -0.0017202703 -0.0013032032 -0.0014593219 -0.001158654 -0.0013710037 -0.0006486839
0.0011582846 0.0024212014 0.0026991735 0.0012182333 0.00011794708 0.0003852076 9.4162955e-05 -7.333047e-05
3.800049e-05 1.698478e-05 7.067815e-32 3.712744e-32 -1.4809716e-17 1.1054302e-07 0.0001299163 0.0001616075
0.00012357667 0.0002311657 0.00012411119 0.00012417129 -0.000544543 -0.00011432225 0.00079680345 0.0005450024
0.000723017 0.0004945589 0.00078945194 0.0012482004 0.0032808827 0.004217064 0.0038269295 0.0027113627
0.0023133296 0.0013046063 0.0001443895 9.623626e-05 4.452456e-05 -2.1260473e-06 1.9698916e-06 -1.7424814e-21
-2.413904e-11 6.802369e-05 0.00016330386 9.289258e-05 6.9980975e-05 3.9266117e-05 8.238691e-05 0.00037962708
0.0011901037 0.0015161738 0.0010211897 0.00082690787 0.0019560622 0.0028680079 0.004571116 0.004295939
0.0041513923 0.0045823134 0.004343808 0.0031723927 0.0034422663 0.0015120913 -0.00014889202 -0.00036894373
-0.00032548612 -0.000158574 1.24997105e-05 -2.2065682e-07 -1.6919569e-06 9.770471e-05 0.00010975327 -6.9828275e-06
-0.000105369494 1.2728633e-05 0.00053288665 0.0005417027 0.00107834 0.0021004216 0.0012949448 0.0019862638
0.0027857912 0.0044908966 0.005739347 0.005186306 0.0041308133 0.0029545606 0.0017683397 0.002152798
0.003526396 0.002344467 0.0003896803 -0.00017600825 -0.0002764323 -0.00029169608 2.5845618e-06 -5.7339918e-08
-1.2517545e-06 -8.675035e-06 -3.009163e-05 -0.00012772116 0.0002707932 0.00060614577 0.0015586336 0.0017532624
0.0012904035 0.00088759925 0.00073205 0.002606892 0.0036486515 0.0031957112 0.004572866 0.004186084
0.0029952035 0.0027053375 0.0014173399 0.001476306 0.0034848019 0.0014426465 0.00054640864 0.00024467742
-0.00015182416 -0.00017924461 1.152226e-05 4.6969873e-07 -1.2914105e-34 -2.4522392e-06 -7.811814e-05 -0.0001775018
00000000: 0000 0000 0000 0000 0000 0000 0000 0000
00000010: 0400 0080 0400 0080 b357 9727 54ac cb28
00000020: 372e f2a8 5800 fe31 d346 4633 9e23 8834
00000030: 87d2 ad35 d8bc 4fb7 3651 5eb7 541f 27b7
00000040: 68ff 5a34 3867 ea30 e0a6 ce2c b18e 062c
00000050: 6045 272b 8759 9f05 0400 0080 0000 0000
00000060: 0000 0000 0000 0000 0000 0000 0000 0000
00000070: 0000 0000 0000 0000 0000 0000 0000 0000
00000080: 486f 6bae 27b2 f0af 233f 3934 4094 d935
00000090: e6b2 0436 e9d8 e536 c528 1438 79bc 8138
000000a0: 239e f937 5112 a437 2506 1a38 6b55 19b8
000000b0: 3709 e8b8 5054 28b8 5a93 b0b6 b246 2836
000000c0: 3409 dcb6 634c 1fb8 1e29 28b8 0a12 34b7
000000d0: 0400 0080 0400 0080 0000 0000 0000 0000
000000e0: 0000 0000 0400 0000 0400 0000 07e6 b0b0
000000f0: ae70 b6b5 d54d b7b6 6b61 c438 b62e 8d39
00000100: 7c05 1a39 47dc 0c39 8fca e739 66a9 3639
00000110: ddbd 8a38 b5bd 50ba 9e80 6eba 7462 8dba
00000120: bb61 86ba 563a 0cba 0c61 a9b6 ce34 c039
00000130: 6aad c538 7093 3db7 0691 1db8 d243 32b7
00000140: 90b4 bf1c f29b 5502 5b59 7f02 0000 0000
00000150: 0000 0000 0400 0000 ac90 1833 7689 ed37
00000160: 3b7d 7b38 d32d d738 3ff6 7b39 6f88 f539
00000170: 0780 3137 1043 6aba 5a64 97ba 61b4 9cba
00000180: d8c5 afba 1750 bbba 0c1e 01bb 545d d6ba
00000190: 29bc 9aba 9c5e 84ba c049 17ba 4d8f 79ba
000001a0: cb4d 48b9 4dae 0238 6260 18b6 d66f fab2
000001b0: c1a4 0e30 62c4 3c9e b731 6f02 0000 0000
000001c0: 0000 0000 0e4c 272f 2d89 d8b3 685b b638
000001d0: a2e4 b738 479f 3c39 a1b7 1739 3dd2 b439
000001e0: 8089 19b9 be5b bfba b17a e1ba 3ed0 aaba
000001f0: b846 bfba fadd 97ba 40b3 b3ba 710c 2aba
00000200: 95d1 973a 05ad 1e3b 9ee4 303b 20ad 9f3a
00000210: 5b5a f738 b0f5 c939 5a79 c538 ffc8 99b8
00000220: b762 1f38 8a7a 8e37 b07d b70b d5c6 400b
00000230: 7498 88a3 ab63 ed33 243a 0839 2f75 2939
00000240: 5c94 0139 1265 7239 d823 0239 fa33 0239
00000250: aabf 0eba 4ac0 efb8 93e0 503a 7ede 0e3a
00000260: d988 3d3a 49a5 013a 39f3 4e3a a89a a33a
00000270: 1404 573b 4c2f 8a3b 39cd 7a3b 1eb1 313b
00000280: 3b9b 173b 53ff aa3a 4367 1739 73d2 c938
00000290: e2bf 3a38 37ad 0eb6 7b32 0436 7ea8 039d
000002a0: 4954 d4ad f1a7 8e38 8c3c 2b39 53cf c238
000002b0: c0c2 9238 acb1 2438 23c7 ac38 af08 c739
000002c0: 41fd 9b3a 5aba c63a 71d9 853a d9c4 583a
000002d0: 4731 003b 30f5 3b3b 4dc9 953b f3c4 8c3b
000002e0: 6708 883b 3b27 963b 8156 8e3b ebe7 4f3b
000002f0: a597 613b 5d31 c63a e61f 1cb9 ca6e c1b9
00000300: 02a6 aab9 e246 26b9 d9b5 5137 afed 6cb4
00000310: 3217 e3b5 d1e6 cc38 572b e638 084e eab6
00000320: d1f9 dcb8 108d 5537 6bb1 0b3a 0e01 0e3a
00000330: 1657 8d3a 3aa7 093b 23bb a93a fa2b 023b
00000340: d291 363b 5f28 933b 2211 bc3b e3f1 a93b
00000350: c65b 873b 4da1 413b a2c7 e73a f515 0d3b
00000360: 1b1b 673b a1a5 193b 014e cc39 db8e 38b9
00000370: 1eee 90b9 c9ee 98b9 6f72 2d36 e845 76b3
00000380: f501 a8b5 fe8a 11b7 496d fcb7 e3ec 05b9
00000390: 40f9 8d39 c1e5 1e3a 114b cc3a b9cd e53a
000003a0: c222 a93a c7ad 683a 0be7 3f3a 64d8 2a3b
000003b0: 371e 6f3b 236f 513b fbd7 953b 6b2b 893b
000003c0: 2d4b 443b 084c 313b 09c6 b93a 9c80 c13a
000003d0: 4661 643b 2f17 bd3a dd3c 0f3a 0c48 8039
000003e0: fd32 1fb9 9cf3 3bb9 bb4f 4137 e72a fc34
000003f0: 6ca8 2b87 2691 24b6 5bd3 a3b8 c71f 3ab9

exp_avg_sq f4 [50, 784]
0.0 0.0 0.0 0.0 3.1915192e-14 1.1348768e-11 1.10915235e-10 3.4531098e-09
3.0009426e-09 2.7026343e-09 4.574788e-10 1.1556728e-09 2.0040452e-09 6.737044e-09 4.823498e-08 6.717335e-08
3.8481506e-08 7.103645e-09 7.703675e-10 1.0854454e-09 1.4303755e-09 4.290417e-11 2.0018708e-13 0.0
0.0 0.0 0.0 0.0 0.0 0.0 0.0 0.0
3.991872e-09 1.2290994e-08 4.9683983e-08 2.6634348e-07 3.1308497e-07 3.477623e-07 3.8879915e-07 5.731652e-07
6.06332e-07 8.657431e-07 8.388398e-07 6.6540383e-07 5.797506e-07 4.563231e-07 2.764254e-07 1.7722904e-07
6.979818e-08 2.9957782e-08 1.1680022e-08 6.4599703e-10 5.793381e-15 2.3516256e-13 0.0 0.0
0.0 1.0869464e-11 2.131578e-10 2.0200444e-09 5.6855335e-08 2.1070252e-07 4.4507348e-07 8.1398457e-07
1.5184842e-06 2.4022168e-06 3.5215871e-06 4.4147196e-06 5.2129344e-06 6.0783796e-06 6.2597765e-06 6.0197954e-06
5.3179256e-06 4.5081006e-06 2.7575254e-06 1.7756105e-06 7.269371e-07 3.6382005e-07 1.7197992e-07 8.120881e-08
3.2996474e-09 9.852592e-10 6.347139e-10 0.0 0.0 9.651466e-12 1.661065e-09 2.1681808e-08
2.1298142e-07 4.3329834e-07 1.0480579e-06 2.255842e-06 3.538247e-06 5.4466796e-06 9.305421e-06 1.3601286e-05
1.7489378e-05 2.0853207e-05 2.2843811e-05 2.0315876e-05 1.7551114e-05 1.3296658e-05 8.815822e-06 5.1000156e-06
3.097533e-06 1.8760389e-06 8.3969195e-07 4.218565e-07 9.2054826e-08 3.963934e-09 3.1399976e-09 0.0
0.0 2.185554e-08 1.735076e-07 3.3734932e-07 8.311505e-07 1.1475848e-06 2.726613e-06 4.8584343e-06
7.764058e-06 1.1866103e-05 1.967744e-05 2.9722065e-05 3.7626098e-05 4.3549626e-05 4.5283487e-05 4.3953165e-05
3.9069597e-05 3.0184197e-05 2.1604332e-05 1.5235447e-05 9.4059e-06 5.802223e-06 3.0299993e-06 1.610896e-06
5.9913225e-07 1.4531733e-07 6.079574e-08 3.6548127e-09 2.3978686e-10 2.3481409e-08 3.1636677e-07 1.0376741e-06
2.0423531e-06 3.7089585e-06 6.4013125e-06 9.5303185e-06 1.4857926e-05 2.3404182e-05 3.638444e-05 4.7910016e-05
5.7013625e-05 6.492516e-05 6.691383e-05 6.347446e-05 5.944178e-05 5.058467e-05 3.846017e-05 3.0119296e-05
2.220486e-05 1.38336e-05 7.6776705e-06 4.1630624e-06 1.9284018e-06 6.4737463e-07 1.0684831e-07 2.4500693e-09
2.622208e-09 2.1300045e-07 8.656147e-07 2.108905e-06 3.7390942e-06 6.690838e-06 1.1213046e-05 1.7789798e-05
2.8070686e-05 3.9968607e-05 5.325442e-05 6.761269e-05 7.874207e-05 8.597849e-05 8.8285655e-05 8.07288e-05
7.119063e-05 5.968769e-05 5.0073035e-05 4.071739e-05 3.332017e-05 2.2203114e-05 1.3371522e-05 8.030706e-06
3.630759e-06 1.3160554e-06 1.7216333e-07 2.9273508e-08 2.8292668e-09 3.6358713e-07 1.4784483e-06 3.7433997e-06
6.614343e-06 1.0292477e-05 1.6850901e-05 2.6524818e-05 3.8757527e-05 5.4647095e-05 6.948586e-05 8.220305e-05
9.246831e-05 9.746316e-05 9.777401e-05 8.777178e-05 7.395105e-05 5.9735612e-05 4.8686165e-05 4.10593e-05
3.5413865e-05 2.609645e-05 1.6188842e-05 1.0199297e-05 5.668272e-06 1.9276451e-06 2.7289465e-07 1.0978475e-08
1.1483634e-09 4.2658394e-07 1.9772826e-06 5.0233944e-06 8.588106e-06 1.2931963e-05 1.96638e-05 3.0800173e-05
4.4489912e-05 6.109046e-05 7.4251286e-05 8.378407e-05 9.360234e-05 9.8254764e-05 9.478285e-05 8.571531e-05
6.8790476e-05 5.405785e-05 4.2481883e-05 3.6378508e-05 3.0049418e-05 2.2552224e-05 1.46859875e-05 8.989264e-06
5.2784135e-06 1.952709e-06 3.149058e-07 1.9178831e-08 1.9031545e-09 2.316911e-07 1.6462136e-06 4.7906924e-06
00000000: 0000 0000 0000 0000 0000 0000 0000 0000
00000010: b6bb 0f29 4fa6 472d bae7 f32e c04b 6d31
00000020: 2439 4e31 3fb9 3931 6b80 fb2f 9fd5 9e30
00000030: 89b7 0931 aa7b e731 ec2a 4f33 f140 9033
00000040: dd46 2533 5214 f431 cbc1 5330 b72e 9530
00000050: dd96 c430 cdb1 3c2e ff63 612a 0000 0000
00000060: 0000 0000 0000 0000 0000 0000 0000 0000
00000070: 0000 0000 0000 0000 0000 0000 0000 0000
00000080: e128 8931 5d28 5332 1e64 5533 f8fd 8e34
00000090: 1216 a834 16b4 ba34 26bc d034 9ddb 1935
000000a0: d1c2 2235 6a65 6835 a22c 6135 349e 3235
000000b0: 28a0 1b35 92fc f434 9e67 9434 594c 3e34
000000c0: f5e3 9533 eeaa 0033 48a9 4832 0092 3130
000000d0: 82ba d027 7f62 842a 0000 0000 0000 0000
000000e0: 0000 0000 b737 3f2d 965e 6a2f ffd0 0a31
000000f0: 1a31 7433 783d 6234 6ff2 ee34 9880 5a35
00000100: b8ce cb35 c535 2136 6854 6c36 2722 9436
00000110: c4ea ae36 e2f4 cb36 120b d236 a6fd c936
00000120: a270 b236 4a44 9736 ed0d 3936 8351 ee35
00000130: bd22 4335 0c53 c334 7ba9 3834 0465 ae33
00000140: 03c0 6231 ba69 8730 0578 2e30 0000 0000
00000150: 0000 0000 57ca 292d 874b e430 cd3e ba32
00000160: e3af 6434 12a0 e834 ffaa 8c35 1263 1736
00000170: 9f72 6d36 9fc2 b636 7b1e 1c37 1431 6437
00000180: 27b6 9237 eced ae37 b6a0 bf37 036c aa37
00000190: bb3a 9337 b614 5f37 abe7 1337 cd20 ab36
000001a0: 36df 4f36 35cc fb35 3167 6135 847b e234
000001b0: adaf c533 2233 8831 6cc7 5731 0000 0000
000001c0: 0000 0000 d7bc bb32 684d 3a34 f01c b534
000001d0: 3a1c 5f35 b706 9a35 dbfa 3636 a205 a336
000001e0: 6042 0237 8614 4737 fb10 a537 a653 f937
000001f0: b7d0 1d38 0ea9 3638 c6ee 3d38 5a5a 3838
00000200: a9de 2338 1234 fd37 f33a b537 bf9b 7f37
00000210: 08ce 1d37 b7b0 c236 fe56 4b36 f735 d835
00000220: 0ed4 2035 8608 1c34 d08e 8233 2528 7b31
00000230: 00d3 832f 2ab4 c932 1ed9 a934 3646 8b35
00000240: 5c0f 0936 6ce7 7836 dbca d636 68e4 1f37
00000250: 4e46 7937 1954 c437 7f9b 1838 fdf2 4838
00000260: ea21 6f38 6e28 8838 1754 8c38 971d 8538
00000270: 2051 7938 e02a 5438 4b50 2138 b2a8 fc37
00000280: 9344 ba37 dc16 6837 58cf 0037 6fb0 8b36
00000290: b169 0136 3fc7 2d35 7b74 e533 135e 2831
000002a0: 5f32 3431 1eb5 6434 975c 6835 b686 0d36
000002b0: 26ed 7a36 dc81 e036 aa1f 3c37 4d3b 9537
000002c0: 5779 eb37 f7a3 2738 805d 5f38 49cb 8d38
000002d0: 5422 a538 5a4f b438 0026 b938 f24c a938
000002e0: 2e4c 9538 2b59 7a38 8305 5238 f7c7 2a38
000002f0: 43c1 0b38 d340 ba37 4056 6037 9fbb 0637
00000300: f7a7 7336 52a3 b035 e5db 3834 2075 fb32
00000310: fd6c 4231 0933 c334 196f c635 1e37 7b36
00000320: c6f0 dd36 daad 2c37 095b 8d37 9d81 de37
00000330: 948f 2238 df34 6538 f0b8 9138 6d64 ac38
00000340: 8ceb c138 2365 cc38 060c cd38 1e12 b838
00000350: 2b16 9b38 a08c 7a38 5f34 4c38 1637 2c38
00000360: 5989 1438 b3e9 da37 46cd 8737 a61d 2b37
00000370: 1632 be36 b15c 0136 5b82 9234 d89b 3c32
00000380: 72d4 9d30 4005 e534 75b1 0436 a18e a836
00000390: a215 1037 5cf6 5837 b0f3 a437 6f2f 0138
000003a0: ae9a 3a38 b11d 8038 5bb7 9b38 3bb5 af38
000003b0: 604c c438 200e ce38 28c6 c638 0fc2 b338
000003c0: 9b43 9038 2dbc 6238 932e 3238 2095 1838
000003d0: a212 fc37 882e bd37 d663 7637 98d0 1637
000003e0: 3a1d b136 490b 0336 5310 a934 b2be a432
000003f0: a6c8 0231 c4c6 7834 78f3 dc35 bcbf a036

exp_avg f4 [50]
0.005172226 0.003975714 -0.004755797 0.0010340587 0.00014804037 0.0030390031 -0.0078006904 0.0035089112
0.0008970293 0.0005997059 -0.003032077 0.0017872051 -0.005323173 6e-45 -0.00065133744 -0.005651828
0.003092577 -0.0005756552 -0.0015699317 0.00061410945 0.00041419428 0.00093932444 0.0025941448 -0.0010573461
-2.5497893e-05 0.001083255 0.0042316136 0.0029549834 0.0025272716 -0.0067834123 -0.0028474303 -0.0015336218
-0.0029639055 -0.0020327258 0.0011460662 -0.0039844974 0.004034866 -0.005922992 -0.002034714 0.000362195
-0.0028271426 0.0039225533 -0.001048043 -0.0014956523 -0.0010152975 -0.0013398709 0.0023016832 0.0010426161
-0.004206843 2.7295851e-05
00000000: c77b a93b b546 823b 84d6 9bbb 4189 873a
00000010: 493b 1b39 032a 473b ef9c ffbb c3f5 653b
00000020: 9e26 6b3a 9535 1d3a d0b5 46bb a740 ea3a
00000030: 036e aebb 0400 0000 84be 2aba f832 b9bb
00000040: d5ac 4a3b 91e7 16ba 2bc6 cdba 30fc 203a
00000050: 3728 d939 ff3c 763a 8702 2a3b a696 8aba
00000060: 4fe4 d5b7 02fc 8d3a 59a9 8a3b 65a8 413b
00000070: 95a0 253b 6347 debb f49b 3abb cf03 c9ba
00000080: 153e 42bb 7b37 05bb 9a37 963a 6390 82bb
00000090: e936 843b a815 c2bb d658 05bb fde4 bd39
000000a0: 9547 39bb c388 803b 7d5e 89ba c309 c4ba
000000b0: bb13 85ba 9b9e afba d6d7 163b 64a8 883a
000000c0: 8fd9 89bb 65f9 e437

exp_avg_sq f4 [50]
0.0002258805 7.837689e-05 0.000108443404 6.9244605e-05 6.610447e-05 7.3007206e-05 0.00012545506 0.00015236536
7.601338e-05 5.0544175e-05 5.8351983e-05 9.585702e-05 0.00010361399 4.7335247e-09 0.00035055494 7.84273e-05
0.00027315458 0.00013757098 0.00015070316 5.263843e-05 9.9721976e-05 7.027277e-05 9.9466444e-05 4.5293295e-05
7.73128e-05 6.29311e-05 9.072734e-05 7.665799e-05 9.166764e-05 6.8848625e-05 0.000100382946 7.3230935e-05
6.811461e-05 5.3702814e-05 5.8239275e-05 7.652142e-05 0.00012878126 7.991812e-05 0.00012792935 0.00012482874
6.9127826e-05 0.00011681521 8.020291e-05 9.204332e-05 0.00011384723 0.000103624836 6.669611e-05 6.003848e-05
8.492561e-05 9.108823e-05
00000000: 56da 6c39 465e a438 1c6c e338 6a37 9138
00000010: 91a1 8a38 721b 9938 968c 0339 44c4 1f39
00000020: 5f69 9f38 65ff 5338 f7be 7438 d906 c938
00000030: 564b d938 86a4 a231 b0ca b739 5679 a438
00000040: 3036 8f39 ee40 1039 1206 1e39 15c8 5c38
00000050: d421 d138 685f 9338 a498 d038 4ef9 3d38
00000060: fe22 a238 e1f9 8338 df44 be38 72c3 a038
00000070: b13d c038 d362 9038 af84 d238 8f93 9938
00000080: c1d8 8e38 f53e 6138 f245 7438 207a a038
00000090: 7509 0739 b799 a738 c624 0639 76e4 0239
000000a0: b8f8 9038 b0fa f438 9c32 a838 6207 c138
000000b0: 44c1 ee38 2951 d938 34df 8b38 d4d1 7b38
000000c0: 171a b238 9f06 bf38

exp_avg f4 [10, 50]
0.0014199386 0.009964751 0.00674335 0.0252882 0.008820043 0.0087712025 0.002371629 -0.0011254913
0.0042247768 0.01230181 0.008846015 0.0056682667 0.0031014807 6e-45 0.001510219 0.014551286
-0.0038741333 0.00049339415 -0.0010523377 -0.00033826707 0.009657046 0.008751326 0.015312099 0.015462257
0.0115189245 0.016202493 0.0065445267 0.007298468 0.0056100846 -0.0014974237 0.007946932 0.014720055
0.00083420664 0.0004981244 0.0074727037 0.009965616 0.002535395 0.0024218874 -0.0006219984 -0.00020098263
0.014436283 0.015289386 0.0038597407 0.008979359 0.0114327045 0.020269921 0.00073615514 0.009477238
0.00031330978 0.0055941204 0.002676473 0.0013652426 -0.0017519192 -0.0006274854 -0.0006560866 -0.004557979
0.0005693709 0.0010420325 -0.00094674435 -0.0012539278 0.0009800286 0.0003157154 0.00090360496 6e-45
-0.0004133807 -6.93491e-05 -0.0069662523 -0.00028861302 -0.004550948 -0.0002328725 -0.0008324456 -0.00022373995
-0.00083279057 -0.0015125821 -0.00033872845 0.0018803669 0.00034076767 -0.002848235 0.00065524434 -0.0003611832
0.0019599155 -0.0014817287 -0.0028048928 -0.0014902977 0.0012656932 0.0014743019 -0.0045567 0.0021956356
0.0021979308 -0.002245377 0.0014601734 -0.0016499427 -0.0052901604 0.002097596 0.0009454885 0.0013408248
-0.00136568 0.00045102678 5.4308104e-05 0.0017215608 -0.00077657873 -0.019783707 -0.011245277 -0.07409634
-0.034335513 -0.04016968 -0.007674273 2.2673677e-05 -0.012081429 -0.04100929 -0.0208356 -0.04653354
-0.0063532386 6e-45 -0.010987852 -0.01906768 -0.019133473 0.0024438608 -0.015356855 -0.026446747
-0.011200652 -0.024001852 -0.034923717 -0.053940315 -0.019373793 -0.045334008 -0.013729488 -0.044349086
-0.008585054 0.0037469293 -0.008541475 -0.053439986 0.0015037465 0.00047938895 -0.03759653 -0.04290452
-0.02276272 -0.0081552975 0.0030134502 -0.011189069 -0.025961835 -0.039662637 -0.026788352 -0.019120337
-0.033608984 -0.03979944 0.0009288068 -0.018988032 -0.004873296 -0.03383748 0.006502329 0.00093356805
0.00043109639 -0.011404505 -0.0031430766 -0.021097323 0.001982128 -0.006708098 -0.0009101703 -0.010654295
0.008821268 0.0026601506 0.0029281836 6e-45 0.0059944317 0.0014415542 -0.0058250143 -0.0060264845
-0.022342203 0.0020729022 -0.0026343456 -0.0060600634 -0.010422868 -0.012792557 -0.0010247866 0.006347635
0.0012419625 -0.014682602 -0.0028718412 0.0014485697 0.008074669 -0.010937297 0.00087634625 -0.005227649
0.0046021743 -0.01675658 -0.019944306 0.0051850686 0.0011185183 0.004999593 0.009379041 -0.016821092
-0.014316454 -0.0095677 -0.013699967 0.008063614 0.00020556536 0.000107392596 -7.700203e-05 -0.0062108375
0.0015974478 0.012991664 0.004850908 0.01091728 0.0033473535 0.008921497 8.560705e-06 0.0045107976
0.0037453338 0.0034863541 -0.0032164205 -0.000603961 -0.0037682655 6e-45 0.00918494 0.0012344816
0.0016456258 0.00053048716 0.0024489174 0.0005380133 0.01109915 0.012661916 0.008676789 0.0041436343
0.0070574083 0.005048833 0.011960313 0.0030321705 0.0032695506 -0.00057947804 0.0064709154 0.0042547425
0.0013028976 -0.001584235 0.00021842834 0.00350364 0.005331395 0.0007253661 0.0034354927 0.0018142761
0.0025230097 0.017009791 0.008847544 -0.0014434664 0.0028257982 0.0027354325 0.0031260678 0.005697013
0.0077187624 0.00042127658 0.01653792 0.012307755 0.011450359 0.06133861 0.041354906 0.051276542
00000000: 3c1d ba3a 3243 233c 52f7 dc3b 3329 cf3c
00000010: f181 103c 17b5 0f3c 556d 1b3b 3985 93ba
00000020: ff6f 8a3b 888d 493c e0ee 103c debc b93b
00000030: 3642 4b3b 0400 0000 8af2 c53a 8468 6e3c
00000040: 2ce5 7dbb 1f57 013a 98ee 89ba 7059 b1b9
00000050: 9638 1e3c b961 0f3c 99df 7a3c 6855 7d3c
00000060: dfb9 3c3c 17bb 843c 7873 d63b fd27 ef3b
00000070: cdd4 b73b 3445 c4ba d933 023c 632c 713c
00000080: a9ae 5a3a 9094 023a 95dd f43b d346 233c
00000090: df28 263b 87b8 1e3b 9b0d 23ba ddbe 52b9
000000a0: 2986 6c3c 5580 7a3c b4f3 7c3b 291e 133c
000000b0: 3d50 3b3c 1b0d a63c 89fa 403a 6b46 1b3c
000000c0: ba43 a439 e24e b73b c467 2f3b f1f1 b23a
000000d0: a7a0 e5ba d57d 24ba 3afd 2bba 195b 95bb
000000e0: d641 153a cf94 883a f02e 78ba d65a a4ba
000000f0: 4e74 803a 9b86 a539 e7df 6c3a 0400 0000
00000100: 05bb d8b9 846f 91b8 2945 e4bb fc50 97b9
00000110: 1e20 95bb 3c2f 74b9 7b38 5aba bc9b 6ab9
00000120: a14f 5aba d541 c6ba 5d97 b1b9 a576 f63a
00000130: 10a9 b239 74a9 3abb b4c4 2b3a 305d bdb9
00000140: ed71 003b 9136 c2ba 4bd2 37bb 1856 c3ba
00000150: 9ee5 a53a 5d3d c13a 5f50 95bb a7e4 0f3b
00000160: 290b 103b 2d27 13bb 4a63 bf3a e442 d8ba
00000170: 1559 adbb d277 093b a9da 773a 9dbe af3a
00000180: 9e00 b3ba ca77 ec39 e2c8 6338 ffa5 e13a
00000190: 5193 4bba 7111 a2bc 1c3e 38bc d2bf 97bd
000001a0: 65a3 0cbd f688 24bd 7878 fbbb 5a33 be37
000001b0: 30f1 45bc 5bf9 27bd 6caf aabc f499 3ebd
000001c0: d42e d0bb 0400 0000 6406 34bc d333 9cbc
000001d0: cdbd 9cbc 2e29 203b 519b 7bbc d9a6 d8bc
000001e0: f182 37bc 889f c4bc 2c0c 0fbd 85f0 5cbd
000001f0: cab5 9ebc 27b0 39bd a5f1 60bc 63a7 35bd
00000200: 54a8 0cbc 0b8f 753b 8bf1 0bbc e3e3 5abd
00000210: 5c19 c53a 7f56 fb39 d2fe 19bd a6bc 2fbd
00000220: e278 babc cc9d 05bc 4e7d 453b 5b52 37bc
00000230: eaad d4bc 4a75 22bd 3f73 dbbc 41a2 9cbc
00000240: 93a9 09bd bd04 23bd 2b7b 733a ca8c 9bbc
00000250: 2bb0 9fbb 2b99 0abd 7d11 d53b b1ba 743a
00000260: c704 e239 f6d9 3abc 13fc 4dbb 4bd4 acbc
00000270: 97e6 013b 9bcf dbbb 7f98 6eba 5a8f 2ebc
00000280: 1487 103c ec55 2e3b c5e6 3f3b 0400 0000
00000290: f06c c43b 88f2 bc3a c3df bebb d179 c5bb
000002a0: ff06 b7bc 87d9 073b fca4 2cbb 7f93 c6bb
000002b0: adc4 2abc df97 51bc 2252 86ba d2ff cf3b
000002c0: 59c9 a23a 4c8f 70bc 8035 3cbb efdd bd3a
000002d0: 9e4b 043c 5932 33bc 9aba 653a b34c abbb
000002e0: d6cd 963b 1845 89bc 3e62 a3bc 82e7 a93b
000002f0: 3f9b 923a a0d3 a33b 8daa 193c 63cc 89bc
00000300: 8f8f 6abc d8c1 1cbc d475 60bc 401d 043c
00000310: 088d 5739 f637 e138 267c a1b8 4884 cbbb
00000320: 7461 d13a fdda 543c 5ef4 9e3b 64de 323c
00000330: 465f 5b3b 782b 123c f39f 0f37 50cf 933b
00000340: 4674 753b 517b 643b 95ca 52bb 2353 1eba
00000350: 01f5 76bb 0400 0000 6e7c 163c 54ce a13a
00000360: 0ab2 d73a 6410 0b3a 047e 203b 7609 0d3a
00000370: 36d9 353c ed73 4f3c 1729 0e3c 53c7 873b
00000380: d541 e73b ae70 a53b 30f5 433c 61b7 463b
00000390: f545 563b 1de8 17ba f909 d43b 5e6b 8b3b
000003a0: fdc5 aa3a 1ba6 cfba e909 6539 539d 653b
000003b0: fcb2 ae3b 7f26 3e3a 0126 613b 01cd ed3a
000003c0: 1459 253b 1e58 8b3c 4af5 103c b232 bdba
000003d0: 0731 393b f144 333b b7de 4c3b 02ae ba3b
000003e0: aced fc3b c9de dc39 887a 873c 77a6 493c
000003f0: 499a 3b3c 323e 7b3d c363 293d 5a07 523d

exp_avg_sq f4 [10, 50]
0.00010875509 0.002276584 0.00083314284 0.004812694 0.00063814275 0.0013500719 0.00027751646 0.00015408407
0.0005051886 0.0015996033 0.00094411906 0.0012201187 0.00031919952 1.6972907e-11 0.00042267365 0.00034030428
0.0002921782 9.9281606e-05 0.00016646268 0.0012791848 0.0014145185 0.0021295054 0.0027065447 0.0039025308
0.0020550888 0.0043519526 0.0021761784 0.001165639 0.00034503578 0.00020384525 0.002249081 0.0009610132
7.078298e-05 0.000104053295 0.0017501022 0.0008269064 0.0011376706 0.0012036616 0.00022052975 0.00036657398
0.0025877883 0.0024267645 0.0011566139 0.00054486096 0.0006172551 0.002543908 0.00032802258 0.0018562693
0.00088112213 0.00013317777 0.00071579893 0.00014285366 6.670238e-05 0.0004927387 0.0011441113 0.00066615734
0.00030544895 5.8209385e-05 0.00012797886 0.0016046951 0.0006594123 0.00075940305 0.00060460984 7.4093155e-11
0.00019462947 0.0001149928 0.0008304201 0.0006506462 0.0008819167 0.00044897266 3.8748538e-05 0.0002862936
0.00012678491 0.00021727245 0.00015285831 0.0005965073 0.0001293395 0.00066389376 0.00016473029 0.0005015644
4.4504475e-05 0.0016629318 0.00050800026 0.00013812086 0.00055452844 0.00020309756 0.00026436232 6.347299e-05
0.00013097041 0.0007156633 0.00012541702 0.00024200305 0.00090084923 0.0006804885 8.4783955e-05 0.00052276114
8.8650435e-05 0.00030160294 8.582413e-05 0.00038727117 0.0009567292 0.002553064 0.0010424143 0.007348217
0.0030810162 0.0034394388 0.0016804304 0.00022607503 0.0015108034 0.0062045795 0.0034306461 0.005683432
0.0007616646 9.598849e-11 0.003977871 0.00081100385 0.0027240876 0.00035904773 0.0020671093 0.0040864903
0.0015590822 0.003051442 0.0031364027 0.006216734 0.0025941534 0.00762978 0.0022633595 0.0046231896
0.0005337152 0.0004815221 0.0017311957 0.006087419 0.0003526627 0.0003434131 0.005576141 0.004094667
0.0028602772 0.0016148475 0.00028912447 0.0015048154 0.002683815 0.003240683 0.0036835517 0.0025491768
0.0014235127 0.0034913288 0.0009193638 0.0025626104 0.00086861884 0.0025577056 0.000791755 0.0032447372
0.000762303 0.008684803 0.0052923243 0.0060941516 0.0016829339 0.0008649882 0.0015614224 0.008623472
0.002800082 0.005586537 0.00071442075 7.589625e-11 0.0016726111 0.00023112562 0.0013525778 0.00039763347
0.0043888055 0.0040340573 0.0006425882 0.0048333313 0.0033557336 0.0073893606 0.0020400584 0.00800741
0.0019616294 0.0069939084 0.0007653613 0.0008636979 0.00065940607 0.008413839 0.0005879113 0.000831491
0.005330735 0.0056164307 0.005071613 0.0011330333 0.00032134049 0.002180886 0.0015027407 0.0047151037
0.006077161 0.0033447125 0.0023801252 0.0026117994 0.000493817 0.0031370458 0.0008263917 0.002930278
0.0010446741 0.0038201625 0.0006443667 0.0023740514 0.0015697936 0.0023442823 0.00032486743 0.0008702437
0.00027964293 0.001824552 0.00038283918 0.00011919101 0.00028580124 9.7462795e-11 0.000988374 0.0016471484
0.0006002872 0.00048771754 0.00061494735 0.00017833944 0.0047846027 0.004719703 0.0019138262 0.0010457536
0.0014906697 0.0026107347 0.0035526424 0.00022671968 0.00090455316 0.0008846818 0.0023704818 0.0009489759
0.00039182266 0.00050718966 0.0002532714 5.671336e-05 0.0010648757 0.0005684221 0.0003199688 0.0003335191
0.0013071566 0.0043956633 0.00289093 0.00051025377 6.072128e-05 0.00096637645 0.0011223651 0.002361822
0.0024508254 1.6879241e-05 0.0016376943 0.003936643 0.0007613111 0.008528174 0.0044424315 0.0056246864
00000000: 7213 e438 be32 153b 4567 5a3a ceb3 9d3b
00000010: 0949 273a e5f4 b03a a17f 9139 a191 2139
00000020: a26e 043a c8a9 d13a c27e 773a 64ec 9f3a
00000030: 3c5a a739 974b 952d 4c9a dd39 de6a b239
00000040: 7f2f 9939 6835 d038 7c8c 2e39 52aa a73a
00000050: 5d67 b93a 2c8f 0b3b 4960 313b 9ac1 7f3b
00000060: abae 063b d39a 8e3b 379e 0e3b 5bc8 983a
00000070: ebe5 b439 4bbf 5539 5165 133b 81ec 7b3a
00000080: 5371 9438 3037 da38 af63 e53a c0c4 583a
00000090: e41d 953a 2ec4 9d3a 013e 6739 ba30 c039
000000a0: e297 293b 5a0a 1f3b 8699 973a 00d5 0e3a
000000b0: 4acf 213a b2b7 263b 72fa ab39 104e f33a
000000c0: 1bfb 663a a3a5 0b39 74a4 3b3a fdca 1539
000000d0: 91e2 8b38 222b 013a 01f6 953a 10a1 2e3a
000000e0: aa24 a039 da25 7438 1032 0639 a254 d23a
000000f0: 69dc 2c3a ad12 473a ae7e 1e3a bdee a22e
00000100: 7315 4c39 4a28 f138 8db0 593a 2190 2a3a
00000110: 6e30 673a 1764 eb39 ed85 2238 ad19 9639
00000120: 91f1 0439 a1d3 6339 9748 2039 ed5e 1c3a
00000130: 4f9f 0739 2809 2e3a 73bb 2c39 6b7b 033a
00000140: 51aa 3a38 bbf6 d93a 522b 053a 89d4 1039
00000150: c65d 113a 96f6 5439 1c9a 8a39 cd1c 8538
00000160: 1a55 0939 5a9b 3b3a 6082 0339 33c2 7d39
00000170: f826 6c3a cf62 323a 0ace b138 e809 093a
00000180: d7e9 b938 7620 9e39 7bfc b338 a80a cb39
00000190: 03cd 7a3a 4e51 273b 9fa1 883a 50c9 f03b
000001a0: e0ea 493b 3568 613b e341 dc3a 8e0e 6d39
000001b0: 2606 c63a c94f cb3b b1d4 603b 153c ba3b
000001c0: 72aa 473a b714 d32e cd58 823b 8c99 543a
000001d0: 9b86 323b 923e bc39 5778 073b f7e7 853b
000001e0: 1e5a cc3a b4fa 473b 1b8c 4d3b bfb5 cb3b
000001f0: ac02 2a3b 3c03 fa3b df54 143b 207e 973b
00000200: 05e9 0b3a cd74 fc39 4ae9 e23a f978 c73b
00000210: 96e5 b839 200c b439 10b8 b63b 8e2c 863b
00000220: 7d73 3b3b 4aa9 d33a a195 9739 3a3d c53a
00000230: f2e2 2f3b a461 543b be67 713b 1710 273b
00000240: 2995 ba3a c7ce 643b 7601 713a 78f1 273b
00000250: 06b4 633a 2e9f 273b c78d 4f3a a8a5 543b
00000260: 4ad5 473a b44a 0e3c 3c6b ad3b 73b1 c73b
00000270: e495 dc3a 60c0 623a a4a8 cc3a 7749 0d3c
00000280: 9581 373b 450f b73b f747 3b3a cae5 a62e
00000290: 843b db3a 505a 7239 fb48 b13a 7679 d039
000002a0: f8cf 8f3b 2030 843b 5d73 283a ec60 9e3b
000002b0: deeb 5b3b 7322 f23b 80b2 053b 8331 033c
000002c0: ae8e 003b 282d e53b 87a2 483a c969 623a
000002d0: fedb 2c3a 33da 093c 0f1e 1a3a 6bf8 593a
000002e0: 72ad ae3b 090a b83b c62f a63b 4a82 943a
000002f0: 9779 a839 32ed 0e3b 9cf7 c43a 2881 9a3b
00000300: ec22 c73b f732 5b3b e0fb 1b3b b92a 2b3b
00000310: 7f73 013a e596 4d3b 35a2 583a e809 403b
00000320: 72ed 883a b15b 7a3b b8ea 283a f995 1b3b
00000330: 88c1 cd3a 88a2 193b f852 aa39 1121 643a
00000340: 0a9d 9239 ce25 ef3a ceb7 c839 30f6 f938
00000350: 98d7 9539 ad52 d62e 548c 813a 21e5 d73a
00000360: 985c 1d3a 57b4 ff39 6b34 213a a100 3b39
00000370: 28c8 9c3b bda7 9a3b 5ad9 fa3a ab11 893a
00000380: 9362 c33a dc18 2b3b 73d3 683b 9abb 6d39
00000390: 891f 6d3a fee9 673a 165a 1b3b b2c4 783a
000003a0: 8c6d cd39 ecf4 043a 83c9 8439 82df 6d38
000003b0: 4d93 8b3a 2902 153a 7cc1 a739 2ddc ae39
000003c0: e654 ab3a 7f09 903b c275 3d3b 8dc2 053a
000003d0: faae 7e38 6d54 7d3a 531c 933a ccc8 1a3b
000003e0: 079e 203b e597 8d37 e7a7 d63a f4fe 803b
000003f0: b992 473a c1b9 0b3c d191 913b 4a4f b83b

exp_avg f4 [10]
0.0036409886 -0.00019703161 -0.011771586 -0.00067715143 0.0021294586 0.013830917 -0.008844297 0.0014899165
0.002195143 -0.0017963528
00000000: a79d 6e3b 459a 4eb9 9cdd 40bc dd82 31ba
00000010: 638e 0b3b 129b 623c ace7 10bc 4d49 c33a
00000020: 63dc 0f3b 9973 ebba

exp_avg_sq f4 [10]
0.00024991288 0.00012924834 0.0005409986 0.0006049222 0.00031480216 0.00068550516 0.00056483754 0.000392207
0.00055686355 0.0004677456
00000000: bd06 8339 d686 0739 cdd1 0d3a a493 1e3a
00000010: 080c a539 79b3 333a 9b11 143a 22a1 cd39
00000020: 7bfa 113a c03b f539
