lightning_logs/version_0/checkpoints/epoch=2-step=2346.ckpt (torch, 484018 bytes, 12 tensors)

fc1.weight f4 [50, 784]
00000000: f450 7f3c 4a7d 8bbc 4444 363c 9831 193c
00000010: 2ae8 b9bc 0824 b8bb 3e67 b83c dc3e b5bb
00000020: e455 433c 38e4 febb aadf c33c 00d6 ddbb
00000030: 6927 6c3c a771 2d3d eb4c f4ba 384d 813c
00000040: ee72 51bc 8053 72bc 5cc5 73bc dc04 73bc
00000050: a0a4 413c 6425 6d3c a063 863c 641b 6a3c
00000060: 503d 4cbb f07d 3e3c 4868 d33b 91eb 0c3d
00000070: 2e74 7ebc 3c13 0cbc 96d0 fc3c 8321 ccbc
00000080: 545b 92bc 910a dbbc 8ff0 5dba d499 5d3c
00000090: 4047 95bc fff9 94bd 1e1c d1bd b0eb 8ebb
000000a0: 54b5 85bd 60eb 0abd 6076 d0bb cd97 763d
000000b0: 6db7 9e3d ab3e c33c c0de b0bc afc8 b5bd
000000c0: ad91 c2bd 5f5e 0dbc 0879 1dbc e189 703c
000000d0: a496 7a3c c5f1 093d 164a bc3c 5207 a13c
000000e0: d3fb f8bc 43f3 d2bc 9924 353c 5306 8c3d
000000f0: b7be fabd 47b3 0b3c ac81 75bd 223c d1bb
00000100: 0ea2 e73c c79a ce3d 4887 ab3d 1256 903d
00000110: 5c0e 093e 0e02 d63d d0f0 ad3d e9df 0a3e
00000120: fd07 1a3e e4b7 0e3e 2f47 ca3d a0d0 f23c
00000130: f4dd 2cbb cb26 cb3c f0b4 99bd 761d 77bd
00000140: 4332 be3c 7e78 cf3c a0e9 c73a eaf6 3ebc
00000150: 9333 e5bc dab6 cbbc bc1b d7bc ae1e 253e
00000160: f623 093e 22cc 6c3d 61b4 b93c 4947 0b3d
00000170: 18a4 993d fcee 413e 67ef 153e 6b61 043e
00000180: 8f6a 2f3e df15 0e3e 93bd a53d c5c4 103e
00000190: 3678 e03d a239 b93c f728 d23d ab1a c63d
000001a0: 565f 7f3d 8875 533d 7fc6 123d 4668 b03b
000001b0: f170 693c 1f10 bf3d c959 a13d 70ef ea3b
000001c0: 5478 4f3c 019b 0ebd 430a 46bd 8002 7d3c
000001d0: 039c 07bd 5528 e23d c186 0e3e ae8d c33d
000001e0: 397e 963d e009 123e b8af 0c3e f225 da3d
000001f0: d461 0e3e 0761 6d3d 137c 1f3e d7a8 d73d
00000200: e862 0c3e 783e 053e 7f7c 013e 4574 f63d
00000210: 1e74 773c 8c70 543c cda6 b13c 7384 40bd
00000220: 7e11 8b3d 98a5 fe3d 80e1 823d bb0f a2bd
00000230: 9e61 9bbc f051 69bb f463 a93b 7a2d bd3d
00000240: 47ee f63b 716a 343d e46a 223d 435b 913d
00000250: 35dd a03d aef4 6c3d 7c76 6e3c 738a 953c
00000260: 1f8e 463d 86ea 5cbc 3fb0 173d 2dda 123d
00000270: 6882 c73d 3e10 6e3d e5c4 5c3d 4e52 993d
00000280: 5e14 8b3d f43a 873c 62b8 823b 99c8 4c3d
00000290: 06a7 083e 3990 423e 0dce 943d 7afd c63c
000002a0: 16e2 05bd b4cb 543d a77b cabc 03fc cbbc
000002b0: bb8e 753d f9ad e13d 4b59 623d 8a84 893d
000002c0: 2c16 9f3d b3ac 863d 925d f4ba 8231 49bd
000002d0: 5369 95bc af54 63bd 7376 ddbd f259 9cbd
000002e0: a5dc 98bd f781 88bd b81a 73bd 47b9 09bd
000002f0: 45c2 e43b 5b56 06bd 460c afbc 733d aa3d
00000300: 6d21 3c3e a652 953e 913b c83d 21b4 a03d
00000310: a0c2 03bb ba60 173e 551a 35bd e47a c1bb
00000320: f288 343e c51d 063e 231d b43d 0e0f 493d
00000330: 6e0f 123d f547 c3bc ec77 893c 8a41 b5bb
00000340: a69d b9bd b240 f7bd 2093 ddbd 8c5f 1fbe
00000350: 6184 37be 81a0 dabd 58be dabd 2d8e bebc
00000360: 52ce 04bd 4da7 9dbd f5a5 0b3d 62ee 0c3c
00000370: 4a23 e83d 778e 7e3e f7b3 1d3e 0f91 913d
00000380: 00b4 b138 6e33 ebbc 9f3b b9bd 567a 4e3d
00000390: 01db 2e3e 90a7 f63d 3b17 173d 3f4a 393d
000003a0: db4f ccbc 161a 43bc b5db c8bb f03b 1dbd
000003b0: b0b4 5abc e112 d7bc 51cb 84bd 5a5c f6bd
000003c0: 3242 c0bd eb0a 42bd 314d 63bd add1 6bbc
000003d0: 2eed 703b 234c 4abd 6792 8d3c 96a7 df3d
000003e0: c395 0f3e cd1a 603e 5112 403e fb43 e83d
000003f0: 031e d0bc 693e 63bd 3bb2 513c 9d47 653d
0.015583266 -0.017027516 0.011124674 0.009350203 -0.022693712 -0.0056195296 0.022510167 -0.005531175
0.011922333 -0.0077786706 0.023910362 -0.0067698956 0.014413693 0.042344715 -0.0018638646 0.015783891
-0.012783749 -0.014790416 -0.014878597 -0.0148327015 0.011819035 0.014474247 0.016404927 0.014288757
-0.0031164475 0.0116267055 0.0064516403 0.03440434 -0.015530629 -0.008549508 0.03086118 -0.024918323
-0.017865814 -0.026738437 -0.0008466327 0.013525445 -0.018222451 -0.072742455 -0.10210441 -0.0043615922
-0.06528726 -0.033915877 -0.0063617676 0.060203362 0.077498294 0.023833593 -0.02159059 -0.08876168
-0.09500442 -0.008628457 -0.009611376 0.01468131 0.015294705 0.033677835 0.022984546 0.01965681
-0.030393517 -0.025750762 0.011056089 0.06837144 -0.12243407 0.00852663 -0.059938118 -0.006385342
0.028275516 0.10088115 0.08375412 0.070476666 0.13384384 0.10449611 0.08493197 0.13561977
0.1504211 0.13937336 0.098768584 0.029640496 -0.0026377412 0.024798771 -0.07505214 -0.06033083
0.023217326 0.02532601 0.0015252121 -0.011655549 -0.027978694 -0.024867464 -0.026258342 0.16124985
0.13392624 0.057811864 0.02266902 0.03400353 0.075020015 0.18938822 0.14642106 0.12927787
0.17130493 0.1387553 0.08092799 0.14137562 0.109604284 0.02261049 0.1026172 0.09673055
0.06234678 0.05162576 0.035833832 0.005383524 0.014248119 0.09329247 0.07878453 0.0071696565
0.012662966 -0.034815792 -0.04834963 0.015442491 -0.03310777 0.11042849 0.13918592 0.09548508
0.07348294 0.1426158 0.13738906 0.10651769 0.13904506 0.05795386 0.15574674 0.105302505
0.13709605 0.13012111 0.12645148 0.120338954 0.015103368 0.012966286 0.021685982 -0.047001313
0.06790446 0.12433928 0.06390667 -0.079131566 -0.018967446 -0.0035601817 0.005169386 0.092371896
0.007535729 0.044046823 0.03965272 0.07097485 0.07854692 0.057850532 0.014554616 0.018254494
0.04847538 -0.013483649 0.037033316 0.0358526 0.0974167 0.05812096 0.05389871 0.074864015
0.06790994 0.016507603 0.0039892653 0.049995992 0.13344964 0.19000329 0.072658636 0.024290789
-0.032686315 0.05195208 -0.024717165 -0.024900442 0.05995057 0.11019511 0.055260938 0.06714733
0.07767901 0.065759085 -0.0018643609 -0.04911948 -0.018238699 -0.055500682 -0.10813608 -0.07634343
-0.074639596 -0.06665414 -0.059351653 -0.03362396 0.0069811665 -0.0327972 -0.021368157 0.08312502
0.18372126 0.29164618 0.097769864 0.07846857 -0.002010502 0.14782992 -0.044214565 -0.0059045423
0.17630365 0.13097294 0.0879462 0.049086623 0.035659246 -0.023838023 0.016780816 -0.0055314945
-0.09063272 -0.120728865 -0.108190775 -0.15563792 -0.17921592 -0.10675145 -0.106808364 -0.023261154
-0.032423325 -0.07697926 0.034093816 0.008601757 0.11334856 0.24859034 0.15400682 0.07107746
8.473545e-05 -0.028711047 -0.09044575 0.050409637 0.17075731 0.12043679 0.03688739 0.045236822
-0.024940422 -0.011908075 -0.0061297067 -0.03838724 -0.013348743 -0.02625412 -0.06484092 -0.120293334
-0.09387626 -0.047373693 -0.055493537 -0.014393252 0.0036762464 -0.049389016 0.017281724 0.10920636
0.14021973 0.21885224 0.18756987 0.11341091 -0.025404936 -0.05547944 0.012798841 0.0559765

fc1.bias f4 [50]
00000000: faec 6c3b 89cb 9a3d 5f55 183e ebf3 8b3d
00000010: 14d0 83be 25cd 373e 21a4 303e 5d7b 83be
00000020: cfde fb3d e85b b1bd 775f 043e 8846 653e
00000030: 25dd ffbd 4c9a 373d eb31 dc3d db18 8cbc
00000040: cd3a 413e ed49 963d b817 4dba 1689 873e
00000050: 8ae9 8e3d 6c40 343c 6d95 363e 4a64 93bc
00000060: 7a29 b1bd 64cf cc3a 7551 6cbd afda ef3d
00000070: bfd1 853d ec6b 543e f616 273b 9b7a f63c
00000080: e649 1b3e d4ef 55bb d79e 17be 79d1 043d
00000090: 9798 a83c f08e 4c3e 6f0b 2c3e 9259 4e3d
000000a0: 324b 213e 68c8 113e e1d7 e03d 24b2 16bd
000000b0: 8e2f 173d 2d70 88be e2ea 1cbd b740 adbd
000000c0: c573 123d e2f1 033e
0.0036151991 0.075583525 0.14876316 0.06833633 -0.2574469 0.1794935 0.1725011 -0.25680056
0.12298357 -0.08660108 0.12927042 0.22390187 -0.12493352 0.044824883 0.107517086 -0.017101696
0.18870087 0.07338319 -0.0007823664 0.26471776 0.06978138 0.0110016875 0.17830439 -0.017992157
-0.08650489 0.0015625772 -0.05769487 0.117116325 0.065341465 0.20744294 0.0025495864 0.03008776
0.15164909 -0.003264417 -0.14806686 0.03242633 0.020580573 0.19976401 0.16801237 0.05037839
0.15751341 0.14236605 0.10978676 -0.036790982 0.036910586 -0.26648083 -0.03830994 -0.08459609
0.035754938 0.1288524

fc2.weight f4 [10, 50]
00000000: 6f3a 87be 93dd eb3d 06b5 253e 11e3 24bd
00000010: 92b3 e43d c4cd 8cbe a9cb 21bc 76b1 6c3e
00000020: 28f0 0ebd 25f3 bbbd 504f 613e aa9c 343e
00000030: 6218 233e b158 133e 4798 c0be 7629 9c3d
00000040: 7af4 a3bd 3dad 66bb 942a 3b3e b042 b0be
00000050: 6f38 04bf f71d 73be dc13 213d 5dd5 8ebe
00000060: c672 0a3e 485c 6d3e 3c19 03be dc45 8cbe
00000070: 1398 bcbe c645 1bbd fad2 9bbe ae1f acbe
00000080: dc9a e6bc c9ea 3a3c 6227 24be e05c 873e
00000090: dc3f 843e a687 f43a 1f7c c6be d72d fa3d
000000a0: 6263 eabd bfcb 2c3e 1e8e 68be f96c 4e3e
000000b0: 65c6 1ebb da44 b53d 0080 373e 5b35 8bbe
000000c0: 1ebe 1cbc 07a0 b93c 2f7e 9d3d b28a d73b
000000d0: a93a 3fbe 7cae c3be aeb5 93be c531 c2be
000000e0: 9571 a9be 954d adbd 7617 903e 5a03 3ebd
000000f0: 6a36 463e 545d 993e a71c dcbe e36c c53d
00000100: f3d4 853e 8b96 01be 8a34 16be b8d3 56be
00000110: 0707 b7bd 8ab8 2d3e 7813 553e 4121 b33e
00000120: a506 02bd 6cb5 12be 8ed9 1cbe 0ff4 a13e
00000130: 2a50 233e 22d7 b0be f907 613e 733b 0abe
00000140: 1424 d93d 6bb4 7fbe e174 863e afd7 c83d
00000150: 1b18 e8bb 9056 07be 7846 31be 6948 1d3d
00000160: 6697 123e c5ec a9be 5a8c 753e 350b c8be
00000170: 2047 8a3d 72fd c0bd 5395 d83d 9759 d8bd
00000180: 1093 4bbe eecb bdbe ebfa c3bd 0f53 adbe
00000190: ec58 723e a527 133d edf2 293e abcd 563e
000001a0: 2b9a 063e 916f 20be 6c0c 2ebe 8c60 56bc
000001b0: 9ab6 f4be 51a4 473d 3eae 20bd 282c fdbe
000001c0: c0f6 3f3d de71 733e 2921 043e 8ffa 85bb
000001d0: 3541 dc3e 0a4e 793e a302 f43c e3ef 0c3e
000001e0: fa25 67be eb51 cf3d cb81 0c3c c0a5 0bbe
000001f0: a5cd 83bd 1426 eb3d b088 debd 2ca6 c03e
00000200: 1473 d4bd 983c 2cbe 40ae 66bc ab13 7f3e
00000210: 9303 b9bc ca7d d23d db20 68bd 9f97 333d
00000220: 5691 fbbd c718 89be 377f 05be 0f9e 32be
00000230: 5735 a63e 409f 46bc d8e8 1e3e a7e7 733c
00000240: 8a7c 35bf 62fa 793e 5b86 d2bd fba4 34be
00000250: 98cc 13bf 4c4e 15be 26a2 0c3e 0b23 5ebe
00000260: 99dd 05be efb1 47be dc65 1d3e 4b79 473e
00000270: 91aa 55bd dcb4 f23d 406e 8fbe 6ca8 d4be
00000280: 7980 5f3b 63c0 bebe 2f29 1cbd f755 5a3e
00000290: 80b7 513e efe1 22be 9b84 f0bd 680d 78be
000002a0: b689 f33d ce42 84be 2e2b 2f3e 8139 bd3e
000002b0: a7e5 aabe 841e 703e 0dea 383e a588 2dbe
000002c0: c8ac 5dbe 81d4 89be 669d 84be 34d8 173e
000002d0: ea57 d43c d0f4 243e c021 8ebd 2f80 02bd
000002e0: 1283 103e 5aa8 81be 641e 52be a191 6b3e
000002f0: b01a c5bd 40e8 c5bb 3592 ed3d e5a4 e73d
00000300: 98b5 633d 9ea1 11be efbb 833e 9f27 4d3e
00000310: ca7d 9eba c7af 763d f5a7 06be 7a08 53be
00000320: f632 9b3c ba60 3f3e b115 ea3c be9b e43d
00000330: 7486 153e b02e b63d 93bd 533e 0749 333c
00000340: 7ef5 443e 594f e6bd b771 76be 4626 f8be
00000350: cbee 96be f9cd b9be bdee 38be 9dba c0bd
00000360: 15fc 21be bb0b 0d3e bbf3 e9be a8db 123e
00000370: 172a 523d 2bda 863e 400a 633d a9d9 18bd
00000380: 98b3 e5be c465 26be 7aae 883d ec75 be3d
00000390: 5b14 603e 28f6 483e 005c 8cbe f6fa 21bf
000003a0: c43e 8ebe d127 653d 355b 8dbe efde 66be
000003b0: 06d8 91be ffd2 043e 629d 9b3e b11f b63d
000003c0: c29c 6abe 311c 083e 0695 87be 9f35 f7bd
000003d0: 9dc1 753e f2a6 19be be54 c8be a98c 4d3e
000003e0: 2c21 52be 07c1 e4bc efdf a33d ab83 1cbe
000003f0: d10a 4abe 3f8b dabd 3e9a 36be 5480 863e
-0.2641177 0.11516871 0.16182336 -0.04025561 0.11167063 -0.27500737 -0.0098752165 0.23114571
-0.034897 -0.091772355 0.22002912 0.17637888 0.1592727 0.14389302 -0.37616178 0.076250955
-0.080056146 -0.0035198473 0.18277961 -0.3442588 -0.5164861 -0.237419 0.03932558 -0.27897158
0.13520345 0.23179734 -0.12802595 -0.27397048 -0.36834773 -0.037908338 -0.304344 -0.3361792
-0.028150015 0.011408516 -0.16030648 0.26438046 0.2582997 0.0018656149 -0.38766572 0.122157745
-0.11444737 0.16874598 -0.22710463 0.20158757 -0.002422714 0.08851023 0.17919922 -0.27189144
-0.009566812 0.022659315 0.07690083 0.006577813 -0.18674721 -0.3821906 -0.28849548 -0.37928596
-0.3309447 -0.08462063 0.281429 -0.046389915 0.19356695 0.29954016 -0.4299061 0.09639909
0.2613903 -0.12655084 -0.1466848 -0.20979202 -0.08936887 0.16964927 0.20808208 0.34986308
-0.031744618 -0.1432702 -0.15317366 0.31631514 0.15948549 -0.34539133 0.21975698 -0.1349924
0.106025845 -0.24971168 0.26261047 0.098067634 -0.0070829517 -0.13216615 -0.17312038 0.038399134
0.14315566 -0.33188453 0.23979321 -0.3907105 0.06751847 -0.09423341 0.10575356 -0.10563963
-0.19880319 -0.37069649 -0.09569343 -0.3385243 0.23666734 0.03592648 0.16596575 0.20976894
0.13144748 -0.15667559 -0.16996926 -0.013084542 -0.47795564 0.04874069 -0.03922867 -0.4944775
0.04686618 0.23773906 0.12903275 -0.004088707 0.430185 0.24346176 0.029786414 0.13763385
-0.2257308 0.101230465 0.008575867 -0.13637447 -0.06435708 0.11481872 -0.10865915 0.3762678
-0.10373512 -0.1681999 -0.01407963 0.24909846 -0.022584712 0.102778986 -0.05667196 0.04384577
-0.1228358 -0.26776716 -0.1303681 -0.17443107 0.3246257 -0.012122929 0.1551851 0.014886773
-0.70893157 0.2441192 -0.102795325 -0.1764106 -0.5773406 -0.14580649 0.1373373 -0.21693055
-0.13072814 -0.1950147 0.15370888 0.19479863 -0.052164618 0.118509024 -0.28013802 -0.41534746
0.0034103675 -0.37256154 -0.038125213 0.21321855 0.20480156 -0.159065 -0.117440425 -0.24223864
0.11891501 -0.25832218 0.17106315 0.36957934 -0.33378336 0.23449141 0.18058033 -0.16946657
-0.21647942 -0.2691994 -0.25901335 0.14828569 0.025920827 0.16109014 -0.06940031 -0.031860527
0.141125 -0.25323755 -0.20519406 0.23004772 -0.09624231 -0.0060396492 0.116001524 0.11310748
0.055593103 -0.14221808 0.2572932 0.20034645 -0.0012091931 0.060226228 -0.13150008 -0.20608702
0.018945199 0.18689242 0.028574796 0.11162518 0.14602071 0.08895624 0.20677786 0.010942704
0.19234273 -0.11245603 -0.24066816 -0.484667 -0.2947906 -0.36289957 -0.18059821 -0.09410594
-0.15818818 0.13774006 -0.45693764 0.14341605 0.05130967 0.26338324 0.055429697 -0.037316952
-0.44863582 -0.16249758 0.06673904 0.092998356 0.21882765 0.19625151 -0.2741394 -0.6327356
-0.2778226 0.055946175 -0.27608648 -0.2254598 -0.28485125 0.12971114 0.3039351 0.088927634
-0.22911361 0.13292004 -0.26480883 -0.12070774 0.23999639 -0.15005091 -0.39127153 0.20073189
-0.20520467 -0.027924074 0.08001696 -0.15284602 -0.19730689 -0.1067109 -0.17832276 0.26269782

fc2.bias f4 [10]
00000000: f3be 66be 2f6b b63c ff22 4c3d 71cd 17be
00000010: 67dd 273e f475 a03d b006 533d e8a2 f93b
00000020: 3909 a5bd 76ca d53d
-0.22533779 0.022267906 0.049838062 -0.14824463 0.16393052 0.07834998 0.05152005 0.007618297
-0.080584 0.10439007

exp_avg f4 [50, 784]
00000000: 0000 0000 0000 0000 0000 0000 0000 0000
00000010: 0000 0000 0000 0000 0000 0000 0000 0000
00000020: 0000 0000 0000 0000 0000 0000 0000 0000
00000030: 1a28 6296 daa7 9898 daa7 9898 7d8a 4b96
00000040: 0000 0000 0000 0000 0000 0000 0000 0000
00000050: 0000 0000 0000 0000 0000 0000 0000 0000
00000060: 0000 0000 0000 0000 0000 0000 0000 0000
00000070: 0000 0000 0000 0000 0000 0000 0000 0000
00000080: 6587 2909 0e9a 610e a637 e321 6ba8 1f2d
00000090: e72a 9c2e 0433 9d34 d86c 1035 f43d 7f33
000000a0: 966d 6431 6f4e ec32 6475 75b5 69f0 14b7
000000b0: 8f5e 26b5 4a1c 7f31 adfb 0832 82b9 9232
000000c0: 7dbe e8b3 960d 10b6 c266 35b6 499c 6cb4
000000d0: 0000 0000 0000 0000 0000 0000 0000 0000
000000e0: 0000 0000 0000 0000 42a6 8893 222a cc9c
000000f0: 6042 0f34 6907 d3ac dfbf 09b1 26c0 a030
00000100: 90a2 16b7 be53 8fb7 5a85 8136 a5a2 2437
00000110: e8cc 8936 9e27 6737 6ab9 d637 73aa fc37
00000120: c7c3 f737 9543 5b37 c048 9736 7392 2f35
00000130: 4ec9 88b5 d833 2bb5 d0a7 51b6 01df aab5
00000140: 4f7e 8724 ba54 5f98 0000 0000 0000 0000
00000150: 0000 0000 0000 0000 8e93 791a 0864 459e
00000160: e603 96ae 2109 84b7 be1d eeb6 1ed5 c9b4
00000170: 6b2f 35b7 39f1 98b6 fc9d 2d37 aab7 55b7
00000180: 0e99 27b8 d110 dcb7 d763 c8b6 a695 a239
00000190: 35cb 4339 0330 0d38 888d 7238 ca4b a638
000001a0: 07b1 7638 9a23 6537 b9dd 3736 f98d 0c36
000001b0: ae86 1336 80ed 9335 eca8 0180 0000 0000
000001c0: 0000 0000 906c 4082 c48a 3926 248c a230
000001d0: d656 6a33 4feb 9fb7 d216 65b7 7d76 9834
000001e0: 3c56 74b5 482d 39b7 80ba ecb8 65d2 05b9
000001f0: bc70 1fb9 e89e 48b9 764c 3739 56dc c139
00000200: 7946 7539 f8c8 8a38 ad78 1bb8 ccb0 4637
00000210: f63d cc38 bc80 8438 3859 b537 0412 0938
00000220: c178 a638 92b2 0b38 7e25 4eb1 72e3 4f27
00000230: 0000 0000 0000 0000 a863 7725 4698 0231
00000240: bd88 1cb5 44ef d334 36fa fbb6 b844 ef36
00000250: 694b 1c38 d1a1 e838 8815 7239 84d4 173a
00000260: 5d7b 133a ad5a 353a a3f3 453a 9a7a 663a
00000270: 1297 393a 51f1 f637 166a ba38 c360 b638
00000280: b413 4d38 21f6 3e39 810d dd38 166f 0c39
00000290: 13a2 b038 43bf 0238 8d00 be35 2780 9f27
000002a0: 0000 0000 8fed 0ca4 fc40 222b ebf5 5531
000002b0: e916 3cb7 6eb4 b6b8 bc97 0db8 0430 5138
000002c0: b66b 8138 d0bc 6e3a 1dfd 923a b6d2 8f3a
000002d0: 3301 583a 04b4 913a 9269 9b3a 5d20 a63a
000002e0: 0cf7 833a 92b0 6039 fbec aeb7 3e92 4337
000002f0: 6329 43b8 4fe2 ff39 1e54 f439 cbdf 6239
00000300: 2136 ad38 b74d 4f37 c75c df36 a014 68b5
00000310: 0000 0000 7d5e 8da5 0ba8 9231 31b4 0ab5
00000320: 2f32 02b8 69cf d9b8 d09c 6038 ac13 2139
00000330: 75ad 1e3a 99b8 bd3a 5071 c13a 6222 2d3a
00000340: 818d 503a 8dbe 843a dfef b83a 5b77 aa3a
00000350: aa42 453a b4d4 c439 5742 aa39 ba6a b239
00000360: 2dbd d239 e3f5 fa39 52b8 063a dadb 113a
00000370: 0969 7d39 ab81 9038 a278 e434 3458 8db5
00000380: 0000 0000 3c2b 8a27 0325 31b3 7a7f 01b6
00000390: 53f9 1ab7 943a 9e38 00c6 a639 211e 0c3a
000003a0: dbaf 8b3a 5b53 c23a 5e3b ac3a e843 e139
000003b0: b08c 053a de97 143a f61f 3a3a 4a4b 823a
000003c0: 53ce 903a c17a 083a 9293 193a 108d 7f39
000003d0: 301f 3137 ee0c 9839 9958 b939 bd69 e239
000003e0: 690f 9439 a7e0 f838 db62 4ab6 186d e1af
000003f0: 0000 0000 e773 692f b318 8db3 148d 41b6
0.0 0.0 0.0 0.0 0.0 0.0 0.0 0.0
0.0 0.0 0.0 0.0 -1.8268788e-25 -3.9460566e-24 -3.9460566e-24 -1.6441909e-25
0.0 0.0 0.0 0.0 0.0 0.0 0.0 0.0
0.0 0.0 0.0 0.0 0.0 0.0 0.0 0.0
2.0406297e-33 2.7807566e-30 1.5396848e-18 9.0755e-12 7.10168e-11 2.9280648e-07 5.380257e-07 5.942816e-08
3.324066e-09 2.7509683e-08 -9.144044e-07 -8.877462e-06 -6.197742e-07 3.7123464e-09 7.973466e-09 1.7080996e-08
-1.08379915e-07 -2.146558e-06 -2.7030915e-06 -2.2036069e-07 0.0 0.0 0.0 0.0
0.0 0.0 -3.449517e-27 -1.3510479e-21 1.334206e-07 -5.9978034e-12 -2.004519e-09 1.1696144e-09
-8.978546e-06 -1.7085924e-05 3.8600238e-06 9.81303e-06 4.1067724e-06 1.3777897e-05 2.5597128e-05 3.0120113e-05
2.953586e-05 1.3069152e-05 4.50862e-06 6.540569e-07 -1.0191377e-06 -6.3777907e-07 -3.1241107e-06 -1.273089e-06
5.876089e-17 -2.886485e-24 0.0 0.0 0.0 0.0 5.1611187e-23 -1.0449779e-20
-6.821903e-11 -1.5739877e-05 -7.096415e-06 -3.759423e-07 -1.0799481e-05 -4.558035e-06 1.0348387e-05 -1.2738552e-05
-3.9958446e-05 -2.6233874e-05 -5.9720874e-06 0.00031010545 0.0001867235 3.3661734e-05 5.7829107e-05 7.929614e-05
5.881584e-05 1.3657753e-05 2.7398185e-06 2.0944265e-06 2.19831e-06 1.1021475e-06 -1.52433e-40 0.0
0.0 -1.4137088e-37 6.437283e-16 1.1826882e-09 5.4561347e-08 -1.9063851e-05 -1.3654777e-05 2.8398418e-07
-9.102257e-07 -1.1037402e-05 -0.00011288095 -0.00012762246 -0.00015205418 -0.00019132684 0.00017480724 0.00036975992
0.00023391274 6.617786e-05 -3.7067268e-05 1.1842883e-05 9.739019e-05 6.318229e-05 2.1618427e-05 3.2680124e-05
7.937989e-05 3.330649e-05 -2.9998257e-09 2.885032e-15 0.0 0.0 2.14576e-16 1.9004047e-09
-5.831351e-07 3.94759e-07 -7.5095113e-06 7.130755e-06 3.726353e-05 0.00011092763 0.0002308694 0.000579186
0.00056259875 0.0006918114 0.00075512583 0.0008792073 0.0007079701 2.9437857e-05 8.888931e-05 8.6964596e-05
4.889416e-05 0.00018211502 0.000105406165 0.00013392823 8.422523e-05 3.117254e-05 1.4156263e-06 4.427031e-15
0.0 -3.055888e-17 5.7644146e-13 3.1135368e-09 -1.1211007e-05 -8.712044e-05 -3.3758333e-05 4.98742e-05
6.171262e-05 0.0009107115 0.001121435 0.0010972831 0.0008239925 0.0011116271 0.0011857024 0.001267444
0.0010068133 0.00021428082 -2.0852769e-05 1.1656955e-05 -4.6530167e-05 0.00048806003 0.0004660198 0.00021636409
8.259365e-05 1.2356256e-05 6.6567186e-06 -8.645675e-07 0.0 -2.452363e-16 4.2682635e-09 -5.167122e-07
-3.1041152e-05 -0.000103859995 5.3551805e-05 0.00015361485 0.0006053069 0.001447457 0.0014758501 0.00066045497
0.0007955656 0.0010127589 0.0014109573 0.0013005541 0.00075248873 0.0003754251 0.00032474354 0.00034030323
0.00040195268 0.00047866916 0.000513916 0.00055640715 0.00024167089 6.8906076e-05 4.255608e-07 -1.0530989e-06
0.0 3.834957e-15 -4.1244686e-08 -1.92967e-06 -9.237166e-06 7.544938e-05 0.0003180951 0.0005345066
0.0010657267 0.0014825867 0.0013140251 0.00042965938 0.00050945114 0.0005668382 0.00071000995 0.0009940651
0.0011047818 0.000520628 0.00058584765 0.00024371245 1.05572835e-05 0.00029001333 0.0003535196 0.0004318486
0.0002824024 0.00011867406 -3.0157887e-06 -4.1004777e-10 0.0 2.1232403e-10 -6.570317e-08 -2.884136e-06

exp_avg_sq f4 [50, 784]
00000000: 0000 0000 0000 0000 0000 0000 0000 0000
00000010: 0000 0000 0000 0000 0000 0000 0000 0000
00000020: 0000 0000 0000 0000 0000 0000 0000 0000
00000030: 96b0 a626 6ae5 172b 6ae5 172b d404 8726
00000040: 0000 0000 0000 0000 0000 0000 0000 0000
00000050: 0000 0000 0000 0000 0000 0000 0000 0000
00000060: 0000 0000 0000 0000 0000 0000 0000 0000
00000070: 0000 0000 0000 0000 0000 0000 0000 0000
00000080: ed4c e324 ad38 8726 a8e8 c92b 6438 092d
00000090: 8d34 182f b7c4 de2e 3162 012e a3e3 802f
000000a0: cc60 3430 0740 0b2f 5858 1d31 862c 1332
000000b0: edf6 8f32 91ef 6931 949d d32f 4abe d22e
000000c0: 6b59 4c2d 1cf5 922d 67ce c72c ba7a 2729
000000d0: 0000 0000 0000 0000 0000 0000 0000 0000
000000e0: 0000 0000 0000 0000 6724 5821 eabc 742a
000000f0: 95ae 8428 3a83 8f2a bfd8 ae2d 3809 5f2f
00000100: 8ac3 f930 4970 6132 52c4 6932 d2d4 4732
00000110: 90b0 ca32 da80 4e33 0e3c 6033 b1a2 8a33
00000120: d96f 4233 bc7c 0d33 881d 1e33 a431 9332
00000130: b9ac ed31 bebb 1731 180b 2230 1cd3 032f
00000140: d6fd fa30 afe7 4f30 0000 0000 0000 0000
00000150: 0000 0000 0000 0000 4b27 6128 52c9 702d
00000160: 23e7 f82e 895c b12f 07f0 2d31 6f88 ca31
00000170: 6aef e532 0d14 4633 e6fa c633 28bf 4734
00000180: ca33 b034 2482 f234 2222 0535 527d 0435
00000190: 6fac 0435 988d 0435 648d b134 17b8 8634
000001a0: bef2 1c34 2f29 7a33 ef39 df32 80fa 6c32
000001b0: 27e0 f131 576d c230 c560 0c2e 0000 0000
000001c0: 0000 0000 5009 4e23 0012 3e2a 060f 342d
000001d0: aca7 e22f 2e10 cc31 f39c fb32 eb8f 0634
000001e0: c091 8834 d49f cd34 d6ea 3935 642a 9535
000001f0: 9bd5 d935 79e5 1236 d62c 3236 4989 4036
00000200: a298 2b36 8ce4 0b36 cca1 c235 2ea7 9235
00000210: 09c6 4035 d3b4 e434 fe93 9934 a0ac 0734
00000220: 6e70 4e33 adb8 3232 b6c6 3730 0981 c32e
00000230: 0000 0000 0000 0000 2ca2 8b2d 9fbd 872f
00000240: b93e d531 6f72 f333 68e8 9b34 0fd5 fb34
00000250: 8caf 7b35 e540 d735 942b 3b36 897b 9f36
00000260: 2a04 db36 babc 0a37 efe3 1937 ff29 1937
00000270: 173d 0e37 b487 ee36 23f1 b036 8d60 6036
00000280: aa1a 1636 e672 a835 216f 1935 a470 9634
00000290: c3a6 0034 fc9c 6e32 be70 d630 01e2 c72f
000002a0: 0000 0000 af10 ea2a 5a73 f52f 6242 9431
000002b0: 3951 1033 63e9 8534 0c9f 4d35 901e da35
000002c0: ba5f 2d36 9f7d 8f36 d215 e936 f763 2537
000002d0: 8099 4f37 c849 7337 91e3 8037 701b 8637
000002e0: 359f 8037 336b 5f37 548e 3637 7010 0537
000002f0: 75af a436 09a9 3d36 55f8 c935 603b 2a35
00000300: 415d 5234 07a5 0733 f03e 1232 f0b1 1031
00000310: 0000 0000 19af a330 996d 5131 4a6e 6b32
00000320: ec1e ce33 a25b 1535 a53f dd35 e828 3636
00000330: 9201 9a36 5129 f536 025b 2f37 4cf3 6437
00000340: 49be 8237 446e 8b37 df73 9637 af58 a137
00000350: c712 9d37 0042 8737 8f67 6a37 6d4c 3a37
00000360: 779f f636 938e 9736 eab7 3636 69da b235
00000370: 0046 0735 39e9 b433 6180 4032 652f 1f30
00000380: 0000 0000 4442 c62e f408 af31 164e cf32
00000390: a455 3e34 8aa1 8035 aa87 1d36 bcfb 8436
000003a0: 9612 dd36 b573 1937 7fa9 5037 7f96 7137
000003b0: 1c19 8137 5d3d 8837 c899 8837 8a1c 8937
000003c0: 79cf 8737 8b76 8337 c4a5 7d37 172c 5237
000003d0: b1e9 1837 13a8 bd36 0fc8 6836 86f0 f835
000003e0: 40e0 2235 1f92 2134 a463 2032 5909 8630
000003f0: 0000 0000 6ec4 532e 5ef6 c731 a135 5233
0.0 0.0 0.0 0.0 0.0 0.0 0.0 0.0
0.0 0.0 0.0 0.0 1.1566428e-15 5.396435e-13 5.396435e-13 9.368815e-16
0.0 0.0 0.0 0.0 0.0 0.0 0.0 0.0
0.0 0.0 0.0 0.0 0.0 0.0 0.0 0.0
9.8575875e-17 9.382869e-16 1.4346484e-12 7.80007e-12 1.3842989e-10 1.0130335e-10 2.9418416e-11 2.344481e-10
6.5621175e-10 1.2664723e-10 2.2896725e-09 8.56665e-09 1.675968e-08 3.404214e-09 3.8492642e-10 9.5834965e-11
1.1615912e-11 1.6707129e-11 5.6788354e-12 3.7187897e-14 0.0 0.0 0.0 0.0
0.0 0.0 7.3231825e-19 2.1737096e-13 1.4730657e-14 2.549296e-13 1.9877764e-11 2.0285007e-10
1.817271e-09 1.3122254e-08 1.3607023e-08 1.1631714e-08 2.3596186e-08 4.8080302e-08 5.2208684e-08 6.455719e-08
4.527087e-08 3.2942566e-08 3.68141e-08 1.7135626e-08 6.917244e-09 2.208011e-09 5.895102e-10 1.1989382e-10
1.8262039e-09 7.5635403e-10 0.0 0.0 0.0 0.0 1.2498529e-14 1.3687123e-11
1.13187924e-10 3.2261863e-10 2.5311253e-09 5.8944845e-09 2.6767982e-08 4.6118704e-08 9.265732e-08 1.8602861e-07
3.2820236e-07 4.5170702e-07 4.959603e-07 4.9356197e-07 4.9424756e-07 4.937988e-07 3.3071694e-07 2.5093388e-07
1.4616941e-07 5.8245117e-08 2.5986962e-08 1.3793965e-08 7.0395063e-09 1.4146434e-09 3.1918263e-11 0.0
0.0 1.1169254e-17 1.6881635e-13 1.0235151e-11 4.1228299e-10 5.939021e-09 2.9291618e-08 1.253208e-07
2.543802e-07 3.8300516e-07 6.92596e-07 1.1113702e-06 1.6229927e-06 2.1889266e-06 2.6550165e-06 2.869014e-06
2.556983e-06 2.0845646e-06 1.4501215e-06 1.0926503e-06 7.181375e-07 4.2599876e-07 2.860615e-07 1.2635655e-07
4.8065367e-08 1.0402954e-08 6.68574e-10 8.8904946e-11 0.0 0.0 1.587449e-11 2.469109e-10
6.2062466e-09 1.13363846e-07 2.9040098e-07 4.6907414e-07 9.376024e-07 1.6037635e-06 2.7890537e-06 4.7529506e-06
6.5271934e-06 8.269382e-06 9.172581e-06 9.129289e-06 8.478083e-06 7.1087507e-06 5.2732807e-06 3.34348e-06
2.2367262e-06 1.2550415e-06 5.7158655e-07 2.8021634e-07 1.1981597e-07 1.3889117e-08 1.5602593e-09 3.6358475e-10
0.0 4.1578327e-13 4.4647203e-10 4.3149138e-09 3.3601484e-08 2.4942992e-07 7.6599895e-07 1.625116e-06
2.583473e-06 4.2763563e-06 6.9464813e-06 9.858041e-06 1.2373901e-05 1.4501107e-05 1.5364758e-05 1.5986821e-05
1.5332926e-05 1.3316795e-05 1.0881184e-05 7.931245e-06 4.9080068e-06 2.8261586e-06 1.5047941e-06 6.3416337e-07
1.95917e-07 3.158223e-08 8.512629e-09 2.1055904e-09 0.0 1.1909577e-09 3.0475802e-09 1.3703877e-08
9.598247e-08 5.564017e-07 1.6484306e-06 2.7143924e-06 4.5897405e-06 7.306379e-06 1.0452002e-05 1.3646506e-05
1.5585816e-05 1.6621438e-05 1.793535e-05 1.9233992e-05 1.8724602e-05 1.6123988e-05 1.39715985e-05 1.1104258e-05
7.3499355e-06 4.5167485e-06 2.7227165e-06 1.3325599e-06 5.039328e-07 8.424326e-08 1.1205061e-08 5.7911215e-10
0.0 9.015769e-11 5.094188e-09 2.4133481e-08 1.7726285e-07 9.583757e-07 2.347379e-06 3.9632123e-06
6.588477e-06 9.146451e-06 1.243723e-05 1.43997595e-05 1.538969e-05 1.6241038e-05 1.6284073e-05 1.6344962e-05
1.6189866e-05 1.5671618e-05 1.511857e-05 1.2527241e-05 9.1143165e-06 5.6522053e-06 3.4687143e-06 1.8547441e-06
6.067603e-07 1.5047452e-07 9.335881e-09 9.75244e-10 0.0 4.815031e-11 5.819671e-09 4.894321e-08

exp_avg f4 [50]
00000000: 68bf b43a 3fa1 2aba 24d7 d5b9 977f 96ba
00000010: 2cd7 b9ba 6988 85b9 e893 80ba 0b9d 83ba
00000020: 8d61 0dbb 5b85 3dba 13ab ef3a 5044 8e3a
00000030: 29dd 0cba b47d 443a facb 013b 5903 74b8
00000040: d33e 74b9 bc40 88ba ef85 763a 80bb be39
00000050: ba1a b73a 1be4 10b8 7adc 0e39 4ef5 e239
00000060: b466 fdb9 12fc 85ba cb68 c4ba baa4 ebba
00000070: d28b 01b9 8cf9 ec39 8e93 d93a 0654 203b
00000080: 3354 423a d5b5 aab8 1b70 9039 5576 27ba
00000090: 5bdc 8f39 be2a be3a b6f2 8338 10a1 6cba
000000a0: cd0e e03a a862 f339 8d65 343a 5916 9cba
000000b0: 0fe5 30b9 094f 02ba 7746 dd39 fed5 7dba
000000c0: 3d8d 93ba 9fd9 d5b9
0.0013789954 -0.0006509013 -0.00040786818 -0.0011482117 -0.0014178506 -0.0002546937 -0.0009809704 -0.0010041309
-0.0021573037 -0.00072296493 0.0018285237 0.0010854099 -0.00053735316 0.0007495538 0.0019805417 -5.817725e-05
-0.00023293057 -0.0010395269 0.0009404113 0.00036379322 0.0013969757 -3.4544715e-05 0.00013624309 0.00043288845
-0.0004833244 -0.0010222218 -0.0014984844 -0.001797817 -0.00012354486 0.00045199355 0.0016599761 0.0024464144
0.00074130594 -8.1401005e-05 0.00027549345 -0.0006388177 0.00027439263 0.0014508588 6.291775e-05 -0.0009026686
0.0017094255 0.00046422076 0.00068815873 -0.0011908516 -0.00016869999 -0.00049708836 0.00042204905 -0.00096830714
-0.0011257302 -0.00040788666

exp_avg_sq f4 [50]
00000000: 9684 1e38 b6d6 cf37 0869 fa37 ee68 e437
00000010: a52c 3038 c0aa e737 579b 4838 76e9 ee37
00000020: 68c8 3238 93c0 3c38 e27c 4e38 a173 7038
00000030: 138b 4638 e7f5 e937 4d6e 0938 19cf 3938
00000040: 29dd 7038 c84b 6f38 45fa cc37 a5f8 ae37
00000050: ff15 f937 3d2e f537 a417 c437 af36 de37
00000060: 8647 c837 ebe4 1538 c7e2 1d38 9e98 2e38
00000070: 438f 1c38 c3ff 0e38 8311 d937 5f73 2538
00000080: 9359 c437 1cf2 f737 19c5 1438 464d 0c38
00000090: 1c1f e537 6195 9838 95de 0338 b482 c137
000000a0: 9c2e 5138 cc08 4138 4b0f 1738 0c17 eb37
000000b0: 9164 7638 74e2 3538 c6a7 3c38 e614 1738
000000c0: 5801 3638 85b6 1c38
3.7793616e-05 2.4776306e-05 2.9851231e-05 2.722858e-05 4.200325e-05 2.7616858e-05 4.7828387e-05 2.8480525e-05
4.262515e-05 4.500204e-05 4.9230533e-05 5.7328147e-05 4.73364e-05 2.7890272e-05 3.276607e-05 4.4300312e-05
5.742643e-05 5.7052617e-05 2.4435236e-05 2.08582e-05 2.9693356e-05 2.9227807e-05 2.337603e-05 2.6489926e-05
2.3875164e-05 3.5737565e-05 3.764292e-05 4.162697e-05 3.732672e-05 3.4093635e-05 2.587657e-05 3.9446513e-05
2.3406732e-05 2.9557435e-05 3.546951e-05 3.3450568e-05 2.7313414e-05 7.275749e-05 3.144013e-05 2.3068256e-05
4.987289e-05 4.602298e-05 3.6015448e-05 2.8024915e-05 5.874463e-05 4.3364664e-05 4.4978944e-05 3.602067e-05
4.3393433e-05 3.7363283e-05

exp_avg f4 [10, 50]
00000000: 01d0 12bb e62e a0ba f934 97bb fca6 cc38
00000010: a54e adbb fdf0 92ba 0729 a1ba 1bce eabb
00000020: 1acd 0cba 9722 ceb9 9b1f 0abb b424 73bb
00000030: 2dcb f9bb c376 d6ba 46e9 1cba 6daf b5bb
00000040: 48ca 8338 b5b3 88bb c7d4 d8bb a577 99b9
00000050: 01f0 3f3a 1f65 3ab7 9b9f ad3a d55f 47bb
00000060: 67be c0bb 258d 8cbb 7200 bc38 eed9 8839
00000070: 319b 2fb9 8f13 2dba 4967 8dbb 4043 2e39
00000080: 0144 09bb 7d10 28bb b83d 05bb 7668 eebb
00000090: 4311 b9bb 8d59 86bb b6e1 37ba 31f8 e2bb
000000a0: 5ced 51b8 029d 07bc cb89 083a 23e3 50bb
000000b0: e3a1 a5b9 63e2 84ba 92e0 18bc 4fe8 8abb
000000c0: 5905 1539 37b4 dabb 3369 053c 7401 1a38
000000d0: b8a8 42b7 c922 ae3a c5ff a63b 0530 a13a
000000e0: aa91 cd3a d04d 763b 807d 483a 1821 303b
000000f0: 0c65 ae39 59a2 823b dd9f 373b d747 853b
00000100: 1201 173c e4ab c73a f7fe 233b 4f83 973b
00000110: 0426 fc3a c508 7d3b 161b 813b ff12 9b3a
00000120: 7a7c 9d3a 8c91 863b f7ab 643b 2538 353b
00000130: 0c62 b03b 2540 d93a b47f a73b 4099 7a3a
00000140: 8ea8 133c 850b 753b 2d61 b93b 1675 ba3b
00000150: 9ae9 a03b ac7e 263b 77c1 b039 98a7 073a
00000160: d955 483b 190c 823b 9ab9 ab3b 0c91 2a3b
00000170: b1fb 623b 314b 63b8 9872 823b 0bd7 433b
00000180: 0295 fd3a 6fdd bd3b 617a a939 ba01 d73a
00000190: d63a 7eba cb37 cab9 54b0 23ba 8b7a 273b
000001a0: 4f15 f33a 1ab9 c83b 5d39 973b 2e29 6c3a
000001b0: d5c6 653b 2660 e03a b784 9e39 d1e0 16b7
000001c0: 7495 803a 7026 45bb 2d47 40bb fd8d 273a
000001d0: fb8c 9fbb 3931 443b a9a4 a13a 0dd7 e83a
000001e0: 06ac eeb9 8789 beb9 9e83 8c3b 3e2c 693b
000001f0: 43de 143a 2fb0 deb9 6e61 3e3b 9e2a 313b
00000200: 87f0 133b b2d9 d83a a2f3 0cba 59f1 a9ba
00000210: 69e4 fa3a f463 e738 9305 1338 7558 1b3b
00000220: c3d0 293a eaa3 f13a d0f0 ca3a 824c 573b
00000230: c2bc 9cbb 91af 6cba d7a1 433a 9973 9e3a
00000240: 6322 b239 2ad8 d1ba 4bd8 383b 347a cd3b
00000250: 4970 843b 3f59 2d3b d05d 76ba 17e3 013b
00000260: 308f 5a3b c025 ab39 08a4 443a 3fc7 31bb
00000270: d132 e5b8 a762 6d39 e2bf 8c3b 430f 6138
00000280: 399a 9ab9 a76f b3bb ac22 843b 9504 133b
00000290: ea3d 09ba df49 cd3a e01d 883b 9bd7 493b
000002a0: c155 613b 2851 d7ba e12c baba b104 0fbb
000002b0: 937d a33b 7760 b139 c95b 87bb 631a 3d3a
000002c0: f528 c23a 8a34 343a 1b4c 1fbb bfc3 0c3a
000002d0: 8fec 88ba 3b3d 7a39 f696 673b 95ce 9339
000002e0: 12d8 653b 0c48 543b 0b8b 18ba 65c8 2b3a
000002f0: 5595 6a3a e642 193a 1d0e 1f3a 08f0 4cbb
00000300: 3820 043b 4e4f 913a 7e2a c5bb 9c9f 853a
00000310: 68a6 c43a 9b2f b33a 23cc 593b ea82 6a3a
00000320: 8cc5 31bb 40b6 b5ba f529 bbb9 bd1e 9cbb
00000330: c7f5 67bb 8608 d1bb 3574 73bb f46d b6ba
00000340: 199c 0abb 8679 90bb 2179 cf3a 1f66 233a
00000350: 26c5 20bb 16cd 563a 206a a1b9 1821 03bb
00000360: 7dca 4b3a da72 b1bb d012 523a 45dd 14bc
00000370: a33f 58ba 7a61 f7ba faf3 e8bb af47 cabb
00000380: 8b3b 3d3b f25f 7d3a 35c2 15bc 0dde b5bb
00000390: 848d 99bb 9752 fbba c620 a6bb 77ac 01ba
000003a0: 9653 6abb f109 2eba 7d31 73bb 4227 8239
000003b0: 6f02 a9ba 3ef7 4cbb 03cb 38bb f690 29bb
000003c0: ca41 c1ba 3124 373a 34b7 a7bb 2b17 5c3a
000003d0: b43d 88bb 4ce1 b7ba 5d36 a9ba cca7 20bc
000003e0: 1d77 53bb 21fd 62bb 1f43 af3b 3744 6d3b
000003f0: 2b36 df3a ed8e 813b b8c4 5e3c 4ecd 783b
-0.0022401812 -0.0012221008 -0.004614469 9.758581e-05 -0.005288916 -0.0011210736 -0.0012295552 -0.007165683
-0.00053711387 -0.00039317153 -0.0021075967 -0.0037100734 -0.0076230974 -0.0016362298 -0.0005985688 -0.005544594
6.2842446e-05 -0.0041718134 -0.006617162 -0.00029271576 0.0007321835 -1.1110008e-05 0.0013246419 -0.003042211
-0.0058820727 -0.0042892867 8.9646215e-05 0.00026102312 -0.00016747114 -0.0006602341 -0.004315291 0.00016618986
-0.0020945075 -0.0025644593 -0.0020330977 -0.0072756363 -0.0056478097 -0.0041000308 -0.00070145295 -0.0069265594
-5.005054e-05 -0.00827718 0.0005208521 -0.0031873665 -0.00031591867 -0.0010138269 -0.0093308855 -0.004239119
0.0001421174 -0.0066743153 0.008142757 3.6717815e-05 -1.1602584e-05 0.0013285513 0.005096408 0.0012297636
0.001568367 0.0037583 0.00076480955 0.0026875194 0.00033263152 0.0039866385 0.002801887 0.004067402
0.009216564 0.0015233723 0.0025023797 0.0046238075 0.0019237404 0.0038609963 0.0039399965 0.0011831223
0.0012015246 0.004106706 0.0034892538 0.0027651873 0.005382782 0.0016574903 0.005111659 0.0009559579
0.009012355 0.00373909 0.005657336 0.0056902273 0.00491066 0.0025405092 0.00033713478 0.0005174815
0.0030568747 0.0039687273 0.0052406313 0.0026026396 0.0034634883 -5.4191045e-05 0.003980946 0.0029882814
0.0019346776 0.005794219 0.0003232537 0.0016403713 -0.00096980983 -0.0003857001 -0.00062442315 0.002555522
0.0018545779 0.0061255815 0.0046149925 0.0009008822 0.003506114 0.0017118498 0.0003023499 -8.993041e-06
0.0009810166 -0.0030082725 -0.00293393 0.00063917023 -0.004869101 0.0029936566 0.0012332398 0.0017764285
-0.00045523065 -0.0003634209 0.004288151 0.003557935 0.00056788715 -0.00042474407 0.0029049772 0.0027033458
0.0022573785 0.001654437 -0.000537688 -0.0012965604 0.0019141558 0.00011033556 3.5052723e-05 0.0023703848
0.00064779463 0.0018435691 0.0015483145 0.0032851999 -0.004783244 -0.0009028847 0.00074627757 0.0012088894
0.00033976426 -0.0016009856 0.0028205093 0.0062706713 0.0040417057 0.00264509 -0.00093981344 0.0019819194
0.0033349507 0.00032643788 0.0007501249 -0.0027126817 -0.00010929036 0.00022638832 0.004295335 5.3658394e-05
-0.00029488074 -0.0054759565 0.0040324535 0.002243315 -0.0005235361 0.0015662274 0.004153952 0.0030798677
0.0034383389 -0.0016427385 -0.0014204049 -0.0021822865 0.004989335 0.00033831943 -0.0041308147 0.000721371
0.0014813232 0.0006874284 -0.0024306837 0.00053697446 -0.0010446477 0.00023864668 0.0035337782 0.0002819194
0.0035071415 0.0032391576 -0.0005819059 0.00065529934 0.0008948644 0.00058464555 0.00060674717 -0.0031271
0.0020160805 0.0011086257 -0.0060170284 0.0010194662 0.0015003206 0.0013670804 0.0033233247 0.00089458993
-0.0027125804 -0.0013863519 -0.0003569868 -0.0047644065 -0.0035394297 -0.00637919 -0.0037148122 -0.0013918267
-0.002115017 -0.004409018 0.0015828946 0.0006233174 -0.0024531572 0.00081940123 -0.00030787382 -0.002000874
0.00077740086 -0.0054153027 0.00080136675 -0.009085958 -0.00082492287 -0.0018873655 -0.0071091624 -0.006173096
0.0028874602 0.0009665481 -0.009140541 -0.005550152 -0.0046860594 -0.0019174394 -0.005069825 -0.0004946659
-0.0035755388 -0.00066390546 -0.0037108355 0.00024824782 -0.0012894402 -0.0031275298 -0.0028197176 -0.0025873757
-0.0014744338 0.0006986289 -0.005118275 0.0008395786 -0.004157746 -0.0014028936 -0.0012909878 -0.009805631
-0.0032267042 -0.003463574 0.0053485776 0.003620399 0.0017029693 0.0039538057 0.013596706 0.0037964168

exp_avg_sq f4 [10, 50]
00000000: 1996 9c39 cc57 f439 3b47 443a 8b14 9a39
00000010: 1b34 ab3a aa40 3739 8d52 1739 96fe 2c3a
00000020: 3655 5139 4c23 3e39 d34e 6a39 5ee1 a339
00000030: b7f0 8e3a aa69 9539 d434 3539 f131 9839
00000040: 8b0a f938 1d79 553a d061 0f3a 21cd e138
00000050: 6122 9138 2551 4d37 1b05 6d39 2e52 bd39
00000060: bfc2 2a3a cae6 ab39 90c1 2e39 5e55 2039
00000070: 195e 8939 68d6 1e39 f335 bc39 db76 5338
00000080: 2219 d239 456b e739 0dab 9739 10f8 883a
00000090: 1be9 c939 48ec e739 6084 9338 27cd a43a
000000a0: e5ab 8e38 0d45 463a e023 1639 7484 bf39
000000b0: 5c94 5c38 cb61 0b3a ffa6 553a 40cf 1a3a
000000c0: 5bf6 5739 3715 0f3a 41a2 4b3a 9ed9 1f38
000000d0: b24d 0d38 ca57 e937 3a1b 9439 6404 b638
000000e0: 9a79 2738 a903 4139 4916 de38 bc42 8539
000000f0: 748e 0838 9ea0 063a a8ba 3d39 e1d4 8f39
00000100: ec37 7a3a 52b7 f338 9b0b 0839 6831 9f39
00000110: 0845 1b39 623a eb39 a7ef fa39 bec9 7f39
00000120: faaa d938 6b4b 9c39 70c1 4f39 567f cf39
00000130: 926f 1a3a a8b9 5c38 e551 263a e8cc 8138
00000140: 2e50 9b3a 9493 0839 f5a3 593a 4e97 ca39
00000150: b658 1a3a 7a55 1739 1683 0338 44be 0c38
00000160: 2d6d 8c39 9b13 5239 c724 053a ebe1 a838
00000170: 6fea c039 9fec f537 4422 bc39 84a1 ac39
00000180: 1c0f 2839 a3e5 a639 2846 9638 cc30 b338
00000190: 4493 e43a cdda 0b3a d2cf 863a db62 393a
000001a0: 94cc 2d3b a3f3 9839 2b2c 5c39 c4c8 4d3a
000001b0: 0729 4039 979c cb39 8794 2d39 9595 2b39
000001c0: f4ef c43a dff1 7c3a 2629 b33a e7ea c439
000001d0: b3f1 363a 06a2 e23a cebb 2e3a 2cf2 f039
000001e0: 4479 af39 54ab ea38 44de 8539 4a31 623a
000001f0: 4969 3e3a 44d8 233a c842 113a 085c 3e3a
00000200: b1eb 333a fd14 1a39 52e8 d93a bdb7 363a
00000210: fd2c 813a cf01 983a 4a81 9d3a 1b1d 7c3a
00000220: ff5d 0539 8010 7439 43ff 9639 a9f8 bf3a
00000230: 5f49 993a 95f1 353a 837d 813a e31d 8339
00000240: 2600 a638 55e4 f83a 3a4e 293a 2e10 a33a
00000250: b80e 0539 3c68 cc39 39a1 e03a e3d0 dd39
00000260: 576d 003a a57c 1739 3065 423b 8c8d aa3a
00000270: 9f48 0c39 112c 9a3a fce7 c739 ec4e 6239
00000280: d16f 293a bbf3 9839 7d4f 033b 075d dd3a
00000290: f392 073b 7455 3e3a 4e5b ed39 a399 963a
000002a0: 63ee a23a 17ae f139 73ef a53a c7bc 8139
000002b0: 25a8 9e39 476d 173b 15f6 a73a 28cf 063a
000002c0: 5400 143a 2833 0e39 5919 3e3a da51 1d3a
000002d0: 8429 153b b3fc 333a 5391 6a3a dbf1 5b3a
000002e0: fae5 133b 0878 523a ce20 8839 b77b dc39
000002f0: 8e5e ef39 5faf 123b bb04 663a f37e a73a
00000300: 28a5 613a 4d7e 0739 04ad 193a fd4e 093b
00000310: 01f4 893a e6e0 043b d3a4 0a3a 5f8f 0a3a
00000320: 9f31 093a a965 ad3a 43e8 353a 7626 853a
00000330: 7ac3 083b 126e a53a 0b86 e439 2f22 ba39
00000340: 6794 383a 91bc e939 fdff 8338 a515 af39
00000350: 2053 353a ac20 2438 4321 c139 1df7 0b39
00000360: 4b94 2138 86d7 ca3a 4733 9438 10c5 a13a
00000370: c577 6639 aa03 2239 5e02 8a3a 24af a93a
00000380: 3b3c 1839 33c0 9d38 53c8 a93a 7693 753a
00000390: ad6a f43a e94f a539 563f 0c3a 7cec 3238
000003a0: 3411 a639 cad0 163a c68a 0c3a 75d0 e839
000003b0: 7b0e 9c38 ccc9 1c3a ebad 693a b487 ed3a
000003c0: e152 0338 6131 fb39 d4fc f939 182a 3439
000003d0: 4eb5 123a 2ec2 003a 4540 b339 80f3 263b
000003e0: 4c03 c639 4af9 513a 24dd 9e3a 913b ea39
000003f0: 4c21 b839 cf07 be39 412e 013b acf3 9a3a
0.0002986647 0.0004660472 0.0007487421 0.00029388475 0.0013061793 0.00017476329 0.00014431235 0.00065992156
0.00019963537 0.00018132961 0.00022345343 0.00031257694 0.0010905479 0.0002849822 0.00017281185 0.00029028908
0.00011875209 0.00081433525 0.0005469592 0.00010767044 6.9205424e-05 1.2237845e-05 0.00022603983 0.00036110118
0.0006514005 0.00032787613 0.00016666041 0.00015290591 0.00026200784 0.00015147927 0.0003589835 5.0417013e-05
0.00040073047 0.00044139675 0.00028928407 0.0010449905 0.00038511385 0.00044235797 7.034163e-05 0.0012573347
6.8031055e-05 0.000756339 0.00014318479 0.00036529044 5.2590258e-05 0.00053170015 0.00081501895 0.00059055164
0.00020595772 0.00054581783 0.0007768013 3.8111226e-05 3.368938e-05 2.7816644e-05 0.00028249045 8.679254e-05
3.9929153e-05 0.00018407278 0.00010589936 0.00025417458 3.2557597e-05 0.0005135628 0.0001809398 0.00027433693
0.0009545076 0.00011621289 0.00012974294 0.00030363654 0.00014807668 0.00044866191 0.0004786227 0.0002439385
0.00010379213 0.0002981083 0.0001981312 0.0003957699 0.0005891259 5.2624993e-05 0.00063446007 6.189366e-05
0.0011849457 0.00013024948 0.00083023246 0.00038641173 0.0005887853 0.00014432325 3.1354917e-05 3.35558e-05
0.00026784223 0.00020034464 0.00050790276 8.052945e-05 0.0003679576 2.9316461e-05 0.00035883684 0.00032926735
0.00016027357 0.0003183308 7.165625e-05 8.544474e-05 0.0017438908 0.0005335033 0.0010285324 0.00070719206
0.0026519643 0.00029173223 0.00020997289 0.0007850046 0.00018325831 0.00038835846 0.00016553896 0.00016363554
0.0015025125 0.0009649079 0.0013668879 0.0003755905 0.0006978765 0.0017290718 0.00066655583 0.000459568
0.0003346895 0.00011189902 0.00025533338 0.00086285605 0.00072636135 0.00062501826 0.0005541262 0.00072616385
0.0006863429 0.00014694403 0.0016625023 0.0006970128 0.0009855326 0.0011597219 0.001201668 0.0009617374
0.00012718885 0.000232758 0.00028800414 0.001464625 0.001169484 0.00069406006 0.0009879324 0.00025008534
7.9155245e-05 0.0018988947 0.0006458495 0.0012440735 0.00012689352 0.00038987573 0.0017137892 0.00042308038
0.00048991054 0.00014446916 0.0029662363 0.0013012155 0.00013378494 0.00117624 0.0003812908 0.0002158244
0.00064635003 0.00029173293 0.0020036392 0.0016888686 0.0020686954 0.00072606583 0.0004527219 0.0011489879
0.0012430664 0.0004609681 0.0012659862 0.00024745447 0.00030261386 0.0023105906 0.0012814427 0.0005142563
0.0005645801 0.00013561232 0.0007251702 0.00060012715 0.002276034 0.0006865963 0.00089480466 0.0008390226
0.0022567497 0.00080287503 0.00025964383 0.00042053845 0.0004565608 0.0022382361 0.00087745086 0.0012778923
0.0008607679 0.00012921654 0.0005862268 0.0020951622 0.0010524989 0.0020275651 0.0005288843 0.0005285646
0.00052335294 0.001322915 0.0006939212 0.0010158557 0.0020868466 0.0012621304 0.0004358742 0.00035502153
0.00070411566 0.00044581716 6.294248e-05 0.00033394728 0.00069169886 3.9131075e-05 0.0003683661 0.0001334813
3.85235e-05 0.0015475608 7.066741e-05 0.0012342054 0.00021979127 0.00015450889 0.001052927 0.0012945873
0.00014518287 7.522143e-05 0.0012953378 0.00093679817 0.0018647515 0.0003153079 0.0005350014 4.265875e-05
0.00031674805 0.0005753158 0.0005361255 0.000444058 7.441357e-05 0.0005980998 0.00089141604 0.0018122108
3.131002e-05 0.0004791124 0.00047681353 0.00017181819 0.00055964745 0.00049117475 0.00034189425 0.0025474727
0.0003776796 0.0008009864 0.0012120348 0.00044676338 0.00035120023 0.00036245442 0.0019711407 0.0011821887

exp_avg f4 [10]
00000000: 3cd2 aaba 6254 ee3a 5439 183a ae66 5d3a
00000010: 5333 cfba 4754 313b 4caf b6ba 2d54 bf3a
00000020: f075 86ba 18fb 09bb
-0.0013032625 0.0018183107 0.00058068824 0.00084457814 -0.0015808142 0.002705829 -0.0013937741 0.001459723
-0.0010258537 -0.0021054205

exp_avg_sq f4 [10]
00000000: f8a8 a438 dfe0 c338 79e4 2639 5f53 5139
00000010: dd14 2639 d303 4739 f84c dc38 d530 0939
00000020: 091a 6939 f49a 4f39
7.851602e-05 9.34021e-05 0.00015916106 0.00019962851 0.00015838766 0.00018979544 0.00010504754 0.0001308353
0.0002223031 0.00019798783
