lightning_logs/version_2/checkpoints/epoch=2-step=2346.ckpt (torch, 483954 bytes, 12 tensors)

fc1.weight f4 [50, 784]
00000000: 55b8 9fbc ac01 8abc 6830 9d3c e0b7 21bb
00000010: 60e4 90ba bc5b 71bc 52ff 0cbc 5e98 9d3c
00000020: 284f c2bc 8374 e2bc 35e5 a0bc c003 a8bb
00000030: e210 cf3c 30cb a8bc 6031 323c 20bd 843a
00000040: a84c a9bc a2a1 e73c 2cd0 d5bc 9e3d 10bd
00000050: e83c b33c 72d8 59bc 7236 e73c c340 f8bc
00000060: 4a4c da3c ea2e 7ebc 1118 123d e8c1 83bb
00000070: 8e6f 14bc e0fe f0ba fa4c 86bc 36d7 ef3c
00000080: 6498 c9bb e287 46bc 7e4b 3a3d 8971 e73b
00000090: 1d94 5a3d bce4 c33c 7e44 e0ba 368c a33d
000000a0: 246b df3d 172b 0e3e 260f 82bd eac7 603c
000000b0: d4a3 b03c d4b1 923d 4b1f 7e3d af73 413d
000000c0: 0c3a bc3d 1b2c 953d 0282 393d 7f58 29bc
000000d0: 60ba 7b3c fa80 ed3c c64d 05bd 708d 2b3b
000000e0: 2041 d0bc d093 9fbc e2bf c4bc 4bf5 8b3d
000000f0: 1454 953d 612b f0bb b524 153c 2688 503d
00000100: bc64 c43c 1c0e afbd 0742 8fbd 154b 15bc
00000110: a0c3 64bd 2cf2 f3bd 78e1 36be 2ace 04be
00000120: 4bda 70bd 3cd2 8dbd dc97 82bb 4bbf 73bd
00000130: e595 8bbd 5629 cfbc 0b45 b1bc 6c09 3fbc
00000140: 9919 073c 6caa 473d 1284 fc3c 371b 00bd
00000150: 1603 fc3c a27b fc3c 534f e0bb 59c2 ca3c
00000160: e288 ee3c 5844 73bd a24b b8bc 638c a3bd
00000170: 69b3 3abb 6346 f2bc e0fb 81bd ac32 2cbe
00000180: 3695 1abe 3b1f adbd 1db7 89bd 2a49 d8bd
00000190: 1490 89bd 10a3 67bc 7d15 0bbd 02c4 80bc
000001a0: 4b64 bb3d ccb8 523c 42fa ef3c 9f14 e43c
000001b0: ed56 0f3d 8ff0 593d e506 a33d 00b7 88bb
000001c0: 5882 74bc b270 11bc ce61 b2bc 57e4 36bd
000001d0: ba7f 03be b748 47be a987 27be 0180 e0bd
000001e0: 6314 25be ac9d f2bd b0fc 04be 5f31 e4bd
000001f0: 3620 24be fcde fabd 8d63 c5bd a686 86bd
00000200: 7cf1 efbd 43cd 96bd 55dc 6cbc 79a7 c4bd
00000210: d87e 9cbd 7cb9 d0bc ba9d bc3c 0888 b33d
00000220: 06a4 053e 985b d23d 450a 643d ac96 933b
00000230: 94ce a5bb 52e4 f93c a73c 7fbd 3d77 91bd
00000240: 4d1b 09be e10f 00be 4871 bebd c16c 76bd
00000250: a305 e1bd 8874 e3bd 0251 83bd 0c12 b9bd
00000260: 1d46 99bd a1c3 b5bc 54f3 cfbd 291f 0fbe
00000270: ea34 02be 0445 bfbd d186 e9bd ff16 ddbd
00000280: a45c a4bd 7438 75bd 3f94 17bd 827e 47bd
00000290: 953d 303d e753 833d d852 693d dff2 48bc
000002a0: c0d7 9bba 4e13 5839 48e4 be3d 8b76 2e3b
000002b0: 9f42 e8bd 8102 79bd de08 3dbd 300a 8cbd
000002c0: 590b 70bd 1621 bdbd e8de 51bd c025 e2bc
000002d0: 510d 0e3d 9404 563d 1cc0 033d b0d5 163d
000002e0: 29db d03b ecd7 1c3d 9bd8 9b3c d1c8 533d
000002f0: 6f67 d93b ce44 1e3d 9ca8 76bb 7ae5 863b
00000300: 82f5 373d f4c7 993d 4817 213d a14a 5dbd
00000310: bfde 053b c18a 103d d60d 453d 7ded 10bd
00000320: 8c7f 13be ee39 a9bd 9d24 bdbd 59e6 b1bd
00000330: 2061 a6bd e34a ddbb 9466 453d 2f0e da3d
00000340: 0295 de3d 9e91 0e3e 8f20 dd3d 3c57 093e
00000350: fc4c 4f3e d226 0e3e 143c ea3d f147 973d
00000360: 82b2 953d 0425 b33d f8f0 9e3c f9cd 203e
00000370: b12f 353e 07fd df3d 2d19 06bd 57b8 153d
00000380: 2173 3c3d a8a3 133e 5da6 893c a14b bd3c
00000390: 1616 34be 27b8 a7bd f7f0 83bd 24ab 89bd
000003a0: 3159 0d3d 8117 78bc b2ca c23c 11df 483d
000003b0: 395d c73d 6009 d93d 4a9a 013e 60a3 0e3e
000003c0: a76f 503e 8127 0b3e 5d18 103e 225e 953d
000003d0: edc6 dc3d b4c5 8d3d 04d6 cf3d b48f 543e
000003e0: 98fb 7b3e 5ca3 0d3e cd5d 773d eb34 a83c
000003f0: b55b 753d b7f1 d93d 1ed4 623d b0b6 afbc
-0.019497076 -0.0168465 0.019188121 -0.0024676248 -0.0011054389 -0.014731344 -0.008605795 0.019237693
-0.023719385 -0.027643448 -0.019640544 -0.0051274 0.025276605 -0.0206047 0.01087603 0.0010127164
-0.020666435 0.028275315 -0.02610024 -0.035215013 0.021879628 -0.0132962335 0.028224204 -0.030304318
0.026647706 -0.015514115 0.035667483 -0.004020918 -0.0090598 -0.0018386506 -0.016394127 0.029277425
-0.0061521996 -0.012117358 0.04548215 0.007063095 0.053363908 0.02391278 -0.0017110256 0.079857275
0.10909107 0.13883625 -0.063505456 0.013719538 0.021562494 0.07162824 0.062041562 0.047229465
0.09190759 0.07283803 0.04529 -0.0103360405 0.0153642595 0.028992165 -0.032544874 0.0026176833
-0.025421679 -0.019479662 -0.024017278 0.06833895 0.07291427 -0.00732939 0.00910299 0.05091109
0.023973815 -0.08547613 -0.069950156 -0.009112139 -0.055850625 -0.11911425 -0.17859447 -0.1296927
-0.05880193 -0.06924865 -0.003985388 -0.059508603 -0.068156995 -0.025288265 -0.021639368 -0.011659961
0.008245849 0.04874651 0.030824695 -0.031275954 0.03076319 0.030820671 -0.0068453937 0.024750875
0.029118005 -0.05939135 -0.022497002 -0.07985761 -0.0028488284 -0.029574579 -0.063468695 -0.16816205
-0.15095982 -0.08453222 -0.06724379 -0.1056083 -0.06716934 -0.014137998 -0.03395604 -0.015718464
0.09149989 0.012861442 0.029294137 0.027841864 0.03499501 0.05320793 0.079602994 -0.004172206
-0.0149236545 -0.008876966 -0.021775153 -0.044651356 -0.12841693 -0.19461332 -0.16360344 -0.10961915
-0.16121058 -0.1184648 -0.12987018 -0.11142229 -0.16027912 -0.12249562 -0.096381284 -0.06568651
-0.11715981 -0.07363369 -0.014456828 -0.096022554 -0.07641381 -0.02547907 0.023024429 0.0876618
0.13050851 0.10271376 0.055673856 0.0045040455 -0.0050600264 0.03050438 -0.062313702 -0.07102821
-0.1338932 -0.12506057 -0.092989504 -0.06016231 -0.10987403 -0.11106211 -0.064119354 -0.09036645
-0.07484076 -0.02218801 -0.10153833 -0.1397673 -0.12715498 -0.093393356 -0.11402667 -0.10795402
-0.08025482 -0.05986829 -0.037006613 -0.04870463 0.04302748 0.064124875 0.05696377 -0.012264936
-0.001188986 0.00020606557 0.09320885 0.002662095 -0.11340832 -0.060793404 -0.046151035 -0.068378806
-0.058604572 -0.09234826 -0.05123797 -0.027605891 0.03468067 0.05225046 0.03216563 0.036824882
0.006373782 0.038291857 0.019024184 0.051705185 0.0066346447 0.038639836 -0.003763712 0.004116711
0.04491187 0.07508841 0.039328843 -0.05402625 0.0020426956 0.035288576 0.048108898 -0.035382736
-0.14404124 -0.08263002 -0.09235499 -0.086865135 -0.08123994 -0.006753312 0.04819353 0.106472366
0.10868265 0.13922736 0.10797226 0.13412184 0.20244211 0.13881996 0.1143724 0.073867686
0.07309438 0.087472945 0.019402012 0.15703572 0.17693974 0.10936933 -0.032738853 0.036552753
0.046008233 0.14417899 0.016802961 0.023107352 -0.1758655 -0.08189421 -0.06442445 -0.067220956
0.034508888 -0.0151423225 0.023778293 0.049040858 0.09734578 0.10597491 0.12656513 0.1392951
0.20355092 0.13589288 0.14071794 0.07293345 0.107801296 0.069224745 0.10148242 0.20757943
0.24607694 0.13831848 0.06039219 0.020533046 0.05990191 0.106418066 0.055378072 -0.021449417

fc1.bias f4 [50]
00000000: 52ce 363e ccd2 883d 9b0d f93d d54f a13d
00000010: e6f8 f1bd 7bfa 003e 3755 ac3d 48fe 59be
00000020: 71c7 73bd 6944 a03d b36c 24bd e3df 55bd
00000030: 35c1 1d3e 358e dcbc f15a d43d 23a9 153d
00000040: 822f 5ebe 5d63 0ebc 486a 523d 9cea 083c
00000050: 1ab2 993d 5662 61be c9b5 2ebd 29fe c33d
00000060: ea33 d13d 326c 0c3e 2fa0 ee3d 52a3 f13d
00000070: 80c7 993d 2238 8a3b 820b 2fbc 5af0 25be
00000080: 2ea7 823e b916 d33c c0b9 d83c fe0d 8b3e
00000090: cf5c b13c 55a2 3a3e 5922 a53d fc66 753d
000000a0: a433 2abe 23a1 613e 6ddf 7f3c 8add 79bd
000000b0: 4fe9 8cbe f909 583e 9b2b 3fbe e0c2 e33c
000000c0: e72b 033d e71e 2bbe
0.17852142 0.06680831 0.12160798 0.07876555 -0.11815052 0.1259555 0.08414691 -0.21288407
-0.059516374 0.07825548 -0.040142726 -0.05221547 0.15405734 -0.026923278 0.10368908 0.036538254
-0.2169781 -0.008690682 0.05137089 0.0083567165 0.07504673 -0.22010168 -0.042653833 0.095699616
0.1021498 0.13713148 0.11651646 0.11798729 0.07508755 0.0042181173 -0.010683896 -0.16204968
0.25518173 0.025767671 0.02645576 0.27159113 0.0216507 0.18225987 0.08063192 0.059912667
-0.16621262 0.22034125 0.015617234 -0.06100229 -0.2752175 0.21097554 -0.18668978 0.027802885
0.03202429 -0.16711007

fc2.weight f4 [10, 50]
00000000: ef84 653e 9aec 483e 42c0 343e 055a 0dbe
00000010: 87a0 02be 0549 51bd b4e0 84bd 47ef e43d
00000020: 9e7c 65be e2e6 313e 80f9 503d ad64 7f3e
00000030: bec5 7fbe c4d0 853c c111 c4be 160a 8ebc
00000040: 4345 cd3d 968d c9be 752c a5be c059 91be
00000050: 5a7f b7bd 913a 953e 266e 69bd 5e2a dfbd
00000060: 99ea cb3d 7984 8ebe 8521 69be 167f b8be
00000070: cb4b 593e d9a3 15bd ca0e 9abe 87a3 34be
00000080: d9e2 94bd da1d 6c3d 523a 77be c7d6 2ebe
00000090: 7144 c13b 8e37 803e 36cd 3e3e c538 703e
000000a0: 163e 75bd 7b3f bcbd 4b00 703d 91f4 adbe
000000b0: ba83 bd3d 4cce 06be 6260 4a3d 7962 843d
000000c0: 8aea 77be f78f a33b 2ef3 92be 96a6 3fbe
000000d0: c196 82be bb00 813e 2c9d a6be af44 ca3d
000000e0: 8db3 d63d a0fe bbbe 2d46 213e ae51 07be
000000f0: 57b3 743e d228 b9bd c1fa 133e c949 a63e
00000100: 941a b7be edda b7be 7cce 63be 2571 b8be
00000110: 820d 3d3e a905 533d e846 453d 12b6 5abe
00000120: 5798 043e 749c 8c3e ddc1 16be 0a23 343d
00000130: 6079 51bc 6c9e 543e e497 243e 2d05 74bd
00000140: 9c5f f93e 0ec9 7bbd fa6c c7be 3daa fabd
00000150: 7a0e 063e 7dbb 96be 9786 953d 21cb 4cbe
00000160: 29d5 91be 3eb8 b33d ef50 a4be 4cd9 8d3d
00000170: 3991 f53d 358d 3b3e e91d bdbe a305 5f3e
00000180: af6b 9fbe ae3e 693e 633d 1dbe 490a c63d
00000190: 1479 3cbe 76cc 143e a5b5 b63d cf36 8ebe
000001a0: dc66 093e a061 d83d 57e4 123e 3747 593c
000001b0: cc44 2bbe d511 183e 6341 5a3e 1db9 f8bd
000001c0: 4800 5c3e 4f1e c2be 11e6 edbd 8c9b 2cbf
000001d0: 79f2 183e 1fc8 76bd 5f9c 733e 67fa 6bbe
000001e0: 9764 47be 1834 87bd 6b2f c93c e301 823e
000001f0: d0e8 e63d 9c77 a4be 0d06 94be d5a6 753c
00000200: 2d0b 883e 82a9 c7bd 9cd4 0c3e 2471 3d3e
00000210: 07ca 6d3e eb44 443e ec43 1abd 9542 b3bd
00000220: 88f6 183c 1c9d 42be e823 cd3d f6ea 83be
00000230: eaf5 543d f460 eabd 69cc 863a 2255 0fbe
00000240: 5f16 3dbe 03df acbe da45 06bc d05e 1b3d
00000250: 1c9d 7d3e d6bf 893e 9b51 4fbe 4733 23be
00000260: 8551 9cbe 6c64 8c3e 41d1 893b 9d05 0ebe
00000270: 4118 973d 90b3 64bc c115 343d 877a f3bd
00000280: bffe e63d ecbf 2d3e e79a 51bd 74cc d6be
00000290: ede3 91bd fbe2 b4bd c26d 203c b496 7d3e
000002a0: f708 713e 294c 433e 1eb7 4b3e 845c 303e
000002b0: 1580 d2bd aa84 8dbe 800f 1f3e 493b 1abe
000002c0: cb32 4c3e afff 0f3e 26e2 253e c532 ac3d
000002d0: 4c54 e23e d588 143d 122e 25be c4ba 5c3e
000002e0: 879a d8be 5fc3 39be 6665 373c 95fc f9bd
000002f0: 8624 68be 3a77 76be 643c 0a3e 777d 6bbe
00000300: 7b99 5e3d 6716 a73d 4d40 043d f636 e03d
00000310: 1968 ac3b 3252 6bbc a55f 5bbe 1ae8 31bd
00000320: 2888 5cbe 7533 193e e49b 213e 4899 ac3e
00000330: b414 423e 429e 6f3e faec 9bbe 360a cabc
00000340: 03ca 61be 111e a2be 5824 ecbe a914 aebe
00000350: 937d 3abe 2218 8b3b 1ced 213e 2af5 8b3c
00000360: 1fd2 443e 044b 0b3e a90c b5be 3ea6 41be
00000370: c5bd efbe 032f 95be 1657 bbbd d983 283c
00000380: cbd7 7a3e c3ef c03d 1e57 43be 428c 46be
00000390: cb3d 1dbf 8ebc a43d 68cc 613e c70a 983c
000003a0: ad73 413e ff8f bbbe a20f 763e ab6c 813e
000003b0: baf3 72bd 2819 cabd 0ef1 7abe 8a93 213e
000003c0: eb0b bcbe 3181 01be 6b2a 81bc 0e5e ccbc
000003d0: 30ed 26bd 953a 443e 0872 243e 466e 733e
000003e0: 7b4d 8abc a643 4fbc 9950 593e 6c58 04be
000003f0: 6508 af3c 2e17 d9be 6dd5 803c 6809 1a3e
0.22413991 0.19621506 0.17651466 -0.13803871 -0.12756549 -0.051095027 -0.06488171 0.11178451
-0.22410819 0.17373231 0.05101919 0.24940749 -0.24977776 0.016334899 -0.38294795 -0.017338794
0.10022976 -0.39365834 -0.3226048 -0.28388786 -0.08959837 0.29146245 -0.05698981 -0.10896753
0.09956855 -0.27835444 -0.22766693 -0.3603446 0.21220319 -0.03653321 -0.30089408 -0.17640506
-0.0726983 0.057645656 -0.24143341 -0.17074119 0.0058980514 0.25042385 0.1863297 0.23459156
-0.059873663 -0.091917954 0.05859403 -0.33975652 0.092536405 -0.13164634 0.049408324 0.06464095
-0.24210563 0.004991527 -0.28701156 -0.18715891 -0.2550564 0.2519587 -0.32541788 0.098763816
0.10483465 -0.367177 0.15749426 -0.13214752 0.23896538 -0.09040989 0.14451124 0.3247817
-0.35762465 -0.35909215 -0.22246736 -0.36023822 0.18462184 0.05151907 0.048163325 -0.21358517
0.12948738 0.27463114 -0.1472239 0.04397873 -0.012785286 0.20763558 0.16073567 -0.05957525
0.48705757 -0.061471038 -0.3895033 -0.122395016 0.1309146 -0.29439917 0.073010616 -0.19999363
-0.2848294 0.08775376 -0.32092997 0.06926212 0.1199059 0.18315585 -0.36936882 0.21779494
-0.31136844 0.22777817 -0.15355448 0.096699305 -0.18405563 0.1453112 0.08921365 -0.2777619
0.13418144 0.105654955 0.14344917 0.013261608 -0.16725463 0.14850552 0.21314006 -0.121446826
0.21484482 -0.3791375 -0.11616147 -0.67424846 0.14936246 -0.060249444 0.2379012 -0.2304474
-0.19471966 -0.06601733 0.024558743 0.25392064 0.11274874 -0.32122505 -0.28910866 0.014993389
0.26571026 -0.09749128 0.13752979 0.18500191 0.23221599 0.19166915 -0.03766243 -0.08752934
0.009336121 -0.19005245 0.10016614 -0.25765198 0.051992334 -0.114442736 0.0010284308 -0.1399732
-0.18465565 -0.33763894 -0.008195365 0.037932217 0.24766964 0.26904172 -0.20245974 -0.1593753
-0.30530944 0.27420366 0.004205853 -0.13869329 0.07377673 -0.013958827 0.04396606 -0.118886046
0.11279058 0.16967744 -0.051173117 -0.4195286 -0.071235515 -0.088323556 0.009791793 0.2476452
0.23538576 0.19072022 0.19894072 0.17222792 -0.10278336 -0.27640277 0.15533257 -0.15061678
0.19941251 0.1406238 0.1619955 0.08408121 0.44204938 0.036263306 -0.16130856 0.2155562
-0.42305395 -0.18140934 0.011193609 -0.12206379 -0.22670183 -0.24068919 0.134996 -0.2299708
0.05434559 0.0815857 0.032287885 0.10947983 0.005261433 -0.014362859 -0.21423204 -0.04343424
-0.21536314 0.14961036 0.15782124 0.33710694 0.1895321 0.23400214 -0.30454236 -0.024663072
-0.22049718 -0.31663564 -0.46121478 -0.34000137 -0.18211965 0.00424482 0.15813106 0.017084677
0.1922078 0.13602835 -0.3536122 -0.18911073 -0.4682447 -0.2913743 -0.0914747 0.010285341
0.24496381 0.09420731 -0.19076201 -0.19389442 -0.61422414 0.080437765 0.22050631 0.018559827
0.18891783 -0.36633298 0.24029401 0.2527822 -0.059314467 -0.098680794 -0.24506018 0.15778938
-0.36727843 -0.12646939 -0.015767297 -0.024947193 -0.040753543 0.19162972 0.16059124 0.23772535
-0.016882649 -0.012650406 0.21222152 -0.12924355 0.021366308 -0.42400497 0.01572677 0.1504265

fc2.bias f4 [10]
00000000: 27fd 53be 8341 0f3e 51f3 8ebd b08c 72be
00000010: f153 103e eeba 773e 0386 a2bd 416e e43d
00000020: 2d37 adbe d532 f03c
-0.20702039 0.13989834 -0.06980003 -0.2368648 0.14094521 0.24192402 -0.07935717 0.11153842
-0.33831158 0.029321114

exp_avg f4 [50, 784]
00000000: 0000 0000 0000 0000 0000 0000 0000 0000
00000010: 0000 0000 0000 0000 0000 0000 0000 0000
00000020: 0000 0000 0000 0000 0000 0000 0000 0000
00000030: 0000 0000 0000 0000 0000 0000 0000 0000
00000040: 0000 0000 0000 0000 0000 0000 0000 0000
00000050: 0000 0000 0000 0000 0000 0000 0000 0000
00000060: 0000 0000 0000 0000 0000 0000 0000 0000
00000070: 0000 0000 0000 0000 0000 0000 0000 0000
00000080: 0000 0000 0400 0080 0400 0080 5612 0891
00000090: ea9b 6892 904e 0023 3938 0b23 97a8 4922
000000a0: 93b5 fc2e 964a f22c 4a08 20a9 408c 3a30
000000b0: 1e00 7a32 10c8 e230 2921 8f31 4777 f631
000000c0: 3752 b031 7a81 aa2f 8686 1da7 0400 0080
000000d0: 0000 0000 0000 0000 0000 0000 0000 0000
000000e0: 0000 0000 0000 0000 a913 0000 ce99 702a
000000f0: 495a aaa4 f993 4a09 3ad2 9cab 67e0 bfaa
00000100: ee1e 7e31 8de2 0732 7bb1 8e31 2523 2837
00000110: 7427 3a37 e110 5737 d20e 8636 2621 d8b4
00000120: 882f afb7 6092 c0b4 609f 3136 ff1f d734
00000130: e736 a935 2496 c434 8b80 26b4 9ff1 6cb4
00000140: ec8c 9ab2 700e 0529 0000 0000 0000 0000
00000150: 0000 0000 0000 0000 4f2b 0000 5bf1 d6af
00000160: 4c1f cc2b e1ac 982d 1588 2b2e 1ccb 1b2e
00000170: 9a02 2038 473b 7a38 bc5b 0d38 dbd7 1538
00000180: 62f2 8c37 10cb cc37 ffe8 c935 d50d 5eb8
00000190: 6be3 07b9 73e7 99b8 76c5 d935 86b8 d437
000001a0: 8482 5537 d40e 05b8 a169 dfb8 895f 80b9
000001b0: 75e9 41b9 9198 abb6 695d cf9b 0000 0000
000001c0: 0000 0000 0000 0000 e02a 2bb2 49da ebaf
000001d0: 5c2f 2732 05ea 3635 b25d e134 c0d8 70b6
000001e0: 453f 7938 026b fd38 224e 2739 df2a 0739
000001f0: eed8 a438 42cf 81b8 baa3 f5b6 5bd6 e238
00000200: 2e0f 0a39 0c99 8eb7 feda 71ba 13f7 d9ba
00000210: 2d1c d7ba a30b 85ba 8301 87b9 8ab5 85b9
00000220: 2a36 83b9 7039 d6b8 7fc2 4c37 2747 3db2
00000230: 0000 0000 0000 0000 9563 23b3 8c9d a130
00000240: 77ce 85b9 0540 cfb9 6533 a7b9 be3f 5fb9
00000250: 9497 2bb9 cd7e e2b8 cf49 2439 8b8b 4a39
00000260: 04b5 3c39 87bb 9d38 7023 c238 51a9 5ab8
00000270: 60bf 54b7 adfb 7cba 80ec ffba b377 f2ba
00000280: c8d1 05bb 8395 b1ba 3ff6 5bb9 4a1c 45b9
00000290: 09a0 1ab9 6dc3 8eb7 91eb 4bb4 9bf5 a6b2
000002a0: 0000 0000 b780 f404 36bd 10ab db0d cb32
000002b0: 7428 80b9 62a2 c3b9 fedd c1b9 9be5 a1b9
000002c0: 6e4a 96b9 ec5e 34b9 0644 6f38 aca0 a338
000002d0: ec4f 08b9 9d6c e5b9 1c79 dbb9 57d1 04ba
000002e0: 1a2d 86ba f354 07bb 61f7 eaba 5ea6 0bba
000002f0: 1a28 06bb 92e7 b3ba 4222 29b9 4016 1db9
00000300: 68a3 4a37 fee0 1737 ef13 6436 3d9d 14b4
00000310: 998e c782 51d3 84b1 ce4b 52b4 1478 6437
00000320: 7dcd 11b9 ee33 a0b9 3ec9 a2b9 0b6b 8ab9
00000330: 9871 24b9 fad8 8bb8 ec6e 4538 03cc 3c38
00000340: 54c3 5fb9 3a93 abb8 6463 76b9 837c 6cba
00000350: c5ef 23bb 7446 18bb e8fe 77ba 8443 91ba
00000360: 7999 1fbb 7d82 b0ba 98cc 42b9 74a3 2ab9
00000370: 2b76 25b8 edc1 f8b8 6b0c ee36 0e05 76b5
00000380: f719 6ba8 b65d d9b2 eaa8 0638 b3f4 7238
00000390: a8b4 8d38 2d51 b238 b0bc c038 cfc9 b2b7
000003a0: 1870 0937 bba7 acb8 9534 a338 a592 ad38
000003b0: 4959 7eb9 4396 4cb9 3599 15ba a523 daba
000003c0: a9d4 15bb 0fa9 beba 32db 17ba 5586 dcba
000003d0: 66b3 26bb 972b 80ba 0e7e 3eb9 13b4 89b9
000003e0: 6643 0cb9 9e6a c2b8 bd8a 2637 ff12 50b4
000003f0: 00f0 8382 192d 73b2 0bfb 1238 ce47 7538
0.0 0.0 0.0 0.0 0.0 0.0 0.0 0.0
0.0 0.0 0.0 0.0 0.0 0.0 0.0 0.0
0.0 0.0 0.0 0.0 0.0 0.0 0.0 0.0
0.0 0.0 0.0 0.0 0.0 0.0 0.0 0.0
0.0 -6e-45 -6e-45 -1.0734159e-28 -7.339847e-28 6.95553e-18 7.547111e-18 2.732983e-18
1.1491887e-10 6.8863344e-12 -3.5534326e-14 6.7865713e-10 1.4551942e-08 1.6500525e-09 4.1656176e-09 7.1731026e-09
5.131621e-09 3.1014818e-10 -2.1861052e-15 -6e-45 0.0 0.0 0.0 0.0
0.0 0.0 7.053e-42 2.1369644e-13 -7.38787e-17 2.4384442e-33 -1.1142816e-12 -3.4084126e-13
3.6979446e-09 7.909546e-09 4.152921e-09 1.0021763e-05 1.109565e-05 1.2818929e-05 3.9952365e-06 -4.0257254e-07
-2.088376e-05 -3.586929e-07 2.6467824e-06 4.007015e-07 1.260746e-06 3.6617087e-07 -1.5506718e-07 -2.2067114e-07
-1.7992043e-08 2.9544455e-14 0.0 0.0 0.0 0.0 1.5536e-41 -3.9097867e-10
1.4503758e-12 1.7357173e-11 3.9001764e-11 3.5423317e-11 3.8149396e-05 5.965985e-05 3.3702454e-05 3.57254e-05
1.6802169e-05 2.4413253e-05 1.5043478e-06 -5.2941807e-05 -0.00012959323 -7.338719e-05 1.6225229e-06 2.5358295e-05
1.2726177e-05 -3.172348e-05 -0.000106531435 -0.00024485242 -0.00018492884 -5.113958e-06 -3.4305642e-22 0.0
0.0 0.0 -9.963259e-09 -4.2901352e-10 9.731448e-09 6.8140827e-07 4.1977688e-07 -3.5888952e-06
5.942515e-05 0.00012083912 0.00015955468 0.00012890574 7.860536e-05 -6.189804e-05 -7.3206293e-06 0.000108164466
0.0001316636 -1.6998987e-05 -0.0009226053 -0.001662942 -0.0016411595 -0.0010150563 -0.00025750333 -0.00025502994
-0.00025026622 -0.00010215014 1.2204632e-05 -1.1017426e-08 0.0 0.0 -3.8041964e-08 1.1759069e-09
-0.00025521565 -0.00039529815 -0.00031891014 -0.00021290683 -0.00016364298 -0.00010800138 0.00015667755 0.00019316205
0.0001799651 7.521273e-05 9.2572416e-05 -5.213294e-05 -1.2680743e-05 -0.000965054 -0.0019525439 -0.0018498808
-0.0020419229 -0.0013548586 -0.00020977201 -0.00018797923 -0.00014746202 -1.7018721e-05 -1.8991547e-07 -1.9436632e-08
0.0 5.748233e-36 -5.142166e-13 2.3638611e-08 -0.00024444202 -0.00037314283 -0.00036977226 -0.00030879382
-0.00028665684 -0.00017201499 5.7045392e-05 7.802373e-05 -0.00012999744 -0.00043759207 -0.0004186117 -0.00050665945
-0.001023683 -0.002065 -0.0017926508 -0.000532722 -0.002047068 -0.001372563 -0.00016129858 -0.00014980976
1.2078184e-05 9.052686e-06 3.398625e-06 -1.3840777e-07 -2.932227e-37 -3.8657295e-09 -1.9585352e-07 1.3617817e-05
-0.00013904828 -0.0003055627 -0.00031048985 -0.00026401164 -0.00015682576 -6.6684515e-05 4.7071764e-05 4.5012694e-05
-0.00021339703 -8.1813385e-05 -0.00023497414 -0.0009021239 -0.002501474 -0.0023235353 -0.0009460286 -0.0011082743
-0.0024352951 -0.0013466623 -0.00018577499 -0.00016273354 -3.9449118e-05 -0.00011861683 7.0943984e-06 -9.1649497e-07
-1.3050751e-14 -2.530474e-08 3.2105403e-05 5.792519e-05 6.757054e-05 8.5028216e-05 9.190419e-05 -2.1313228e-05
8.191935e-06 -8.232841e-05 7.78224e-05 8.2765975e-05 -0.00024256589 -0.00019510933 -0.00057067286 -0.0016642703
-0.002286235 -0.0014546233 -0.00057928555 -0.0016824702 -0.002543652 -0.0009778616 -0.00018166771 -0.00026264842
-0.00013376548 -9.2705e-05 9.926674e-06 -1.937842e-07 -1.9386473e-37 -1.4154716e-08 3.5042915e-05 5.8479425e-05

exp_avg_sq f4 [50, 784]
00000000: 0000 0000 0000 0000 0000 0000 0000 0000
00000010: 0000 0000 0000 0000 0000 0000 0000 0000
00000020: 0000 0000 0000 0000 0000 0000 0000 0000
00000030: 0000 0000 0000 0000 0000 0000 0000 0000
00000040: 0000 0000 0000 0000 0000 0000 0000 0000
00000050: 0000 0000 0000 0000 0000 0000 0000 0000
00000060: 0000 0000 0000 0000 0000 0000 0000 0000
00000070: 0000 0000 0000 0000 0000 0000 0000 0000
00000080: 0000 0000 fae4 c428 56d2 3b2d 1358 142e
00000090: 7faf 4a2e f02c ba2d 5fb0 002e 9e34 0731
000000a0: b656 fc31 794d a930 b073 dc2f c2b7 7d31
000000b0: 217b b632 7cb2 a831 d8f9 4e2e b558 492f
000000c0: e97b b32e 8880 3b2e c396 4b2e 62ae 9c2c
000000d0: 0000 0000 0000 0000 0000 0000 0000 0000
000000e0: 0000 0000 0000 0000 f4b1 9423 9da5 a82f
000000f0: bf50 262e 2e58 542b c574 dc2f eac0 9930
00000100: 3cd3 7c30 6211 9e30 4315 4c31 0a99 5232
00000110: 03ba 5c32 a8b5 4532 6797 ab32 d400 1533
00000120: 9c4c 4733 058c 7533 8058 3d33 c334 8932
00000130: ddf9 d731 16ed 5031 d3ad de30 4169 2a30
00000140: 0d7a ba2d 449a ba2a 0000 0000 0000 0000
00000150: 0000 0000 0000 0000 c06e b424 858c 3131
00000160: 3dc2 6230 461a 5532 3137 4932 b017 8f32
00000170: 5366 2233 d428 7233 3cd6 a833 7ae3 3534
00000180: bc86 9434 15e5 c034 e065 0735 585e 2235
00000190: ae89 2935 8c7e 2f35 3b87 1235 d3de ee34
000001a0: d2f0 a434 ae93 2634 ef4d c833 bd9d af33
000001b0: 9444 9633 3862 7832 6c40 f82f 0000 0000
000001c0: 0000 0000 0000 0000 2121 3b2d 8498 702e
000001d0: b9df 8430 3ce6 9032 1b13 6633 00bd 0d34
000001e0: 7ac9 7934 aeb3 dd34 0957 3535 cf21 8c35
000001f0: 24b6 da35 7aa7 1e36 6a7c 5536 0dfb 7536
00000200: 4f3e 6136 2898 3a36 ab57 2636 d627 1836
00000210: 4811 ff35 3816 9d35 58ae 3b35 bb70 ce34
00000220: 4589 5134 d78a 4933 e01c e030 3cd5 702c
00000230: 0000 0000 0000 0000 b440 b22d d424 0131
00000240: e717 ff32 ba90 1e34 e15a c134 dd7f 1d35
00000250: 8ef2 8a35 b408 d935 0b1c 3436 2470 8c36
00000260: 276f c636 0d98 0637 16eb 1d37 0367 2937
00000270: dbe7 1e37 9541 0e37 c754 f436 9a30 bb36
00000280: 14dc 9436 0dd7 3936 fdeb cd35 9797 6135
00000290: d6c2 b934 4816 4e33 060f 0b31 6d3a 9b2d
000002a0: 0000 0000 e038 1020 00e4 d230 3a14 6332
000002b0: d153 9833 63e7 aa34 6be1 6c35 9dc9 d135
000002c0: d7ac 2c36 b863 8836 ee9e d036 532e 1737
000002d0: 29d5 4a37 7050 7337 430e 8837 334e 9037
000002e0: 613a 8737 6d16 7537 63a5 4f37 712f 2237
000002f0: 989b f236 9a83 9636 3908 2a36 6140 ba35
00000300: 30b3 1f35 5cfb da33 1e75 6032 1f0e 5530
00000310: ec19 ff23 600e 8e2f f6c8 9931 5662 b432
00000320: 4127 5f34 0cdc 5835 d88a d935 9867 3836
00000330: a387 9536 e04e da36 e4ea 2137 e10e 5837
00000340: 86b4 8337 57e9 9637 2ea1 a237 5f84 aa37
00000350: 69db a637 e313 9637 6d39 7837 a17c 4837
00000360: bd25 1737 53c6 c736 55d5 6636 1f71 0236
00000370: bb20 5935 c12a 7034 143e 3533 5b29 4430
00000380: 6fe7 8e2e 3fdd 0330 b0a6 8332 c8ad 8f33
00000390: a1e0 be34 55e8 9535 0167 1e36 084f 8336
000003a0: a08f c036 5bac 0537 a877 3937 af8d 6737
000003b0: 0d05 8937 854a 9637 b307 9737 335c 9937
000003c0: 1be6 9c37 95dd 8d37 473a 7337 47f8 4737
000003d0: e192 1b37 e58d dc36 3d58 8d36 57cf 1c36
000003e0: 4116 6935 2664 6b34 dec6 a133 b2b7 3230
000003f0: fcd5 9129 21e1 8530 c290 af32 38b3 d833
0.0 0.0 0.0 0.0 0.0 0.0 0.0 0.0
0.0 0.0 0.0 0.0 0.0 0.0 0.0 0.0
0.0 0.0 0.0 0.0 0.0 0.0 0.0 0.0
0.0 0.0 0.0 0.0 0.0 0.0 0.0 0.0
0.0 2.1859674e-14 1.0676423e-11 3.372953e-11 4.6085354e-11 2.1165708e-11 2.926048e-11 1.9674995e-09
7.344023e-09 1.2318387e-09 4.0099968e-10 3.69208e-09 2.1243581e-08 4.909735e-09 4.7060883e-11 1.8312359e-10
8.1619884e-11 4.2633036e-11 4.629076e-11 4.453147e-12 0.0 0.0 0.0 0.0
0.0 0.0 1.6121558e-17 3.0676697e-10 3.7815747e-11 7.5439904e-13 4.0100737e-10 1.1187045e-09
9.197725e-10 1.1500954e-09 2.9697993e-09 1.2258406e-08 1.284798e-08 1.1508213e-08 1.997587e-08 3.469252e-08
4.6402974e-08 5.7170855e-08 4.4085482e-08 1.5972892e-08 6.2857297e-09 3.0402751e-09 1.620203e-09 6.1995215e-10
2.1199953e-11 3.314728e-13 0.0 0.0 0.0 0.0 7.8250174e-17 2.5836766e-09
8.249435e-10 1.2404206e-08 1.1712289e-08 1.6658163e-08 3.7811628e-08 5.638215e-08 7.8620786e-08 1.6939694e-07
2.766518e-07 3.5929466e-07 5.0439667e-07 6.048699e-07 6.3157756e-07 6.537673e-07 5.4586025e-07 4.449308e-07
3.07226e-07 1.551368e-07 9.327402e-08 8.177765e-08 6.9973936e-08 1.4457832e-08 4.5156712e-10 0.0
0.0 0.0 1.0637075e-11 5.4705143e-11 9.66785e-10 1.6868505e-08 5.3568424e-08 1.3200406e-07
2.3263229e-07 4.1295192e-07 6.755441e-07 1.0440652e-06 1.6295276e-06 2.364132e-06 3.1811892e-06 3.6653976e-06
3.356388e-06 2.7804726e-06 2.4786957e-06 2.2672953e-06 1.900401e-06 1.1703878e-06 6.991663e-07 3.8452512e-07
1.951458e-07 4.6925233e-08 1.6306352e-09 3.422442e-12 0.0 0.0 2.0264991e-11 1.8792905e-09
2.9696777e-08 1.4767548e-07 3.6015174e-07 5.8673123e-07 1.0352394e-06 1.6170293e-06 2.6838413e-06 4.18538e-06
5.9137997e-06 8.0224245e-06 9.412664e-06 1.0097169e-05 9.471517e-06 8.479129e-06 7.281636e-06 5.5786923e-06
4.436364e-06 2.7692324e-06 1.5342372e-06 8.4039624e-07 3.4600697e-07 4.7983377e-08 2.0235702e-09 1.7647406e-11
0.0 1.2216093e-19 1.5344312e-09 1.3217738e-08 7.093298e-08 3.1833324e-07 8.824488e-07 1.5630391e-06
2.5730603e-06 4.0647246e-06 6.217385e-06 9.011087e-06 1.20897685e-05 1.4502657e-05 1.6219105e-05 1.7202552e-05
1.6120439e-05 1.4608359e-05 1.2376669e-05 9.666998e-06 7.2302755e-06 4.485669e-06 2.533676e-06 1.3876817e-06
5.949287e-07 1.0197138e-07 1.3065145e-08 7.7509016e-10 2.7658134e-17 2.5839864e-10 4.4757327e-09 2.0999476e-08
2.0782774e-07 8.078648e-07 1.6208169e-06 2.7478436e-06 4.4563362e-06 6.5060885e-06 9.6510375e-06 1.28780675e-05
1.570048e-05 1.799005e-05 1.938696e-05 2.032722e-05 1.9890913e-05 1.7890654e-05 1.4795322e-05 1.1949946e-05
9.009088e-06 5.95375e-06 3.4396846e-06 1.9437355e-06 8.088643e-07 2.2367296e-07 4.2198806e-08 7.1363154e-10
6.498523e-11 4.797193e-10 1.5326208e-08 6.690567e-08 3.5553697e-07 1.1168983e-06 2.360379e-06 3.9133047e-06
5.738766e-06 7.967547e-06 1.1054719e-05 1.3801661e-05 1.6334025e-05 1.7916094e-05 1.8004188e-05 1.8281955e-05
1.87038e-05 1.6911692e-05 1.4497497e-05 1.1919131e-05 9.272918e-06 6.5730296e-06 4.2123997e-06 2.33665e-06
8.683165e-07 2.1922514e-07 7.5333205e-08 6.501707e-10 6.476414e-14 9.741009e-10 2.043851e-08 1.00908835e-07

exp_avg f4 [50]
00000000: ee28 28bb 0795 813a 1f3e c7ba 73e6 063a
00000010: ce89 733a 9122 f839 8794 2ab9 a48f 8439
00000020: 6960 113a 22ae 563a 4c82 12ba 89b2 46bb
00000030: 432f ba3a 5ff2 9739 0feb 133a f6ab eeb7
00000040: d7fe 783a 87ef f63a 8278 c33a 532f 843a
00000050: c356 bbba 79da 10bb 0400 0000 801c ce39
00000060: 2bab bdba 778d ce3a 94c6 38ba 7b79 503a
00000070: 6ba9 24bb 0400 0000 000d 1abb 0112 133b
00000080: ec76 b939 333e 09ba d461 d33a 9da6 06ba
00000090: 0400 0000 1ac9 16bb 101e 02ba 7eed ebb9
000000a0: cea1 e6b8 80e2 97b9 0400 0000 29f7 e33a
000000b0: 7b7b 48ba 019a fbb6 0963 103a 4817 49b9
000000c0: 986e 623a 5629 273a
-0.0025659162 0.0009886333 -0.0015201009 0.0005146034 0.0009290249 0.00047328 -0.00016267794 0.00025284023
0.0005545677 0.00081894 -0.0005588874 -0.0030318818 0.0014204759 0.00028981545 0.00056426314 -2.8451886e-05
0.00094984233 0.0018839695 0.0014913233 0.0010084904 -0.0014292825 -0.0022102876 6e-45 0.00039312616
-0.0014470568 0.0015758713 -0.00070486334 0.00079526723 -0.0025125395 6e-45 -0.0023506284 0.002244115
0.00035374553 -0.00052354037 0.0016127178 -0.00051365216 6e-45 -0.002300805 -0.0004963586 -0.00044999638
-0.00010997393 -0.0002896972 6e-45 0.0017392385 -0.00076477946 -7.4983113e-06 0.00055079215 -0.00019177527
0.00086376956 0.0006376704

exp_avg_sq f4 [50]
00000000: 4112 2c38 0ed6 8237 77e5 f337 965a 8938
00000010: f0fd 0c38 c8b0 7638 2b3e 1d38 9f01 8d37
00000020: 7bd1 3e38 0ae0 e537 4c38 5638 813b 0f38
00000030: 79c6 0a38 4415 4e38 d612 0738 6cbf 5838
00000040: c375 1038 b4b8 2d38 333c 4538 476e 3538
00000050: dd7f 7338 6e9a 4038 8227 b731 5eb0 0b38
00000060: 46d5 2438 cd91 0638 05a4 3938 0cbb 1638
00000070: 01a5 7438 ed0b c232 c538 8838 dd2a 0b38
00000080: acd9 3a38 19b2 4538 7161 5a38 cc03 4a38
00000090: 6a0c c532 4956 d137 5599 f937 212f 4638
000000a0: 3646 5038 0c17 fa37 4d12 2332 6eeb e137
000000b0: c79d 4b38 8176 b438 01e0 2638 9e04 c237
000000c0: 6e87 3538 cd0d 2a38
4.1024996e-05 1.5596885e-05 2.907471e-05 6.549542e-05 3.36151e-05 5.881561e-05 3.7489615e-05 1.6809265e-05
4.5494624e-05 2.7403254e-05 5.1074006e-05 3.4149274e-05 3.3086606e-05 4.9134032e-05 3.220405e-05 5.167669e-05
3.444195e-05 4.1418432e-05 4.7024525e-05 4.3256467e-05 5.8054797e-05 4.592019e-05 5.3304925e-09 3.3304437e-05
3.9299273e-05 3.2083877e-05 4.4260192e-05 3.5936988e-05 5.8327805e-05 2.2589996e-08 6.4955595e-05 3.3180102e-05
4.454858e-05 4.7134326e-05 5.2066e-05 4.816409e-05 2.2939464e-08 2.4954921e-05 2.9754514e-05 4.725077e-05
4.9656453e-05 2.9813054e-05 9.49201e-09 2.693172e-05 4.8545913e-05 8.605142e-05 3.9786104e-05 2.3128752e-05
4.327989e-05 4.054401e-05

exp_avg f4 [10, 50]
00000000: 3eb5 11bc 765a 2dbb 87b2 97bc c4bf 50bc
00000010: 1d08 39bc 2c73 03bd 9d25 8cbc 9428 82bc
00000020: 5e86 79bc 5ad7 1fbb 743b a4bc a6b4 91bc
00000030: 88b0 a1bc dd43 6bbc 1461 103a 17ac 87bc
00000040: fbf5 b3bc 79d5 62bb 82da 54ba c10c 6ebc
00000050: c92e 4839 50f5 51bc 0400 0080 2c6b af38
00000060: 2ca4 9abc bbb9 92bc f63f 85bb 95a9 57bc
00000070: afd1 97bb 0400 0080 faea 3c3a 4785 63bc
00000080: 8799 75bc 7687 78ba 5b21 edbb 5d2c 03bb
00000090: 0400 0000 8534 7abc e040 91bc 1ff4 39bc
000000a0: a87f 82ba fb78 93bb 0400 0000 a323 a9bc
000000b0: a3ca febb a5a8 b5ba 2ada 28bc d75a edbc
000000c0: d7ba 0c3a 4147 b4bb 836e 613a b818 9139
000000d0: 1755 8e3a 343b fc39 f4d6 34bb 5371 a3bb
000000e0: 0d02 4fbb 49eb 5dba 4322 1bbb 554a 41bb
000000f0: 45ea c0ba 1234 b1bb 1980 05bc 6043 7139
00000100: fd88 cd3a 9a31 6dbb 2b81 103a 9766 8e3a
00000110: ce29 aeba fda9 a6bb 33ed 7dbb b424 01b6
00000120: 0400 0000 5783 e0bb c141 15ba d17b 81bb
00000130: 26d6 daba 86f4 a4ba bf87 d2ba 0400 0000
00000140: 9f60 41bc d5c9 d6ba 5663 053b 5883 25bb
00000150: 9cfe 87bb 3075 d23a 0400 0000 4e96 a5bb
00000160: d9dd 8ebb 55ba 8a3a dbb0 14b9 e2a3 27bc
00000170: 0400 0000 170a 27ba 2fbd a2bb 9f44 f3ba
00000180: b490 e13a 5200 4a3b d7ec 83ba ee6d b839
00000190: ddbf 8a3b 546a 193c 1d9e f93b 28e3 113b
000001a0: f3e3 933b c88c 333c a613 173c 85da 073c
000001b0: 65dd 393b 82bd a53b 7b82 f33b f0f6 043c
000001c0: d68f 133c 417e c13a 8b95 9c3b edfe 3a3b
000001d0: 0c9e 083c 12df 553b be70 6b3b 2787 8d3b
000001e0: 413a f53a fef7 f53b 0400 0000 8a51 883a
000001f0: b927 153c d1b9 ca3b f8bc 0d3b 5ad2 183c
00000200: ea9f 4a3b 0400 0080 0be4 4e3b f0c1 273c
00000210: 9d1c 053c 33c8 683b 11c6 503b 41d8 1f3b
00000220: 0400 0000 c236 273c 31f1 543c b649 b33b
00000230: b33c 8e3b ae1d 613b 0400 0000 551f 6f3b
00000240: 31dd ed3a 8961 e839 c869 e73b 9b5f dc3b
00000250: 2f4a 233b 70be 1abb 1a93 013b 4055 363b
00000260: 3b26 6e3b b662 7dba 8250 0c3c 7581 993b
00000270: db82 53bb e11f e93b 46e6 a3ba 75f9 dcbb
00000280: e71b c53b c9de 1b3c 24f5 e2ba f542 a139
00000290: e6ee 9cbb a6e6 923b fcb7 d53b c5e0 553a
000002a0: 70b5 d5b9 d935 613a 1c5d 5dbb d763 303b
000002b0: 0400 0000 fd2c 57bb 4cda d33b 6096 52bb
000002c0: 18a3 14bb 53a7 0dbc 71d2 2c3b 0400 0000
000002d0: c642 49bc 8a4c d1bb df04 eebb 1e4a 01bb
000002e0: e47d 323b 6dfa 8b39 0400 0080 a71f a33b
000002f0: b647 10bb f737 3bbb b9ed 17bc c7b7 023b
00000300: 0400 0000 8759 ed38 c693 d83b 0bf1 3abc
00000310: 79d5 96bb ab38 403b f7be 88bb 2ec6 d4ba
00000320: ac68 bb3a 8fe7 2bbb 434e c539 8d1c 02ba
00000330: 96eb 2e3a f3cc b439 3a44 a4bb 5114 93ba
00000340: 39f6 b63b 8dce f43a 7c4f f2ba f82c 39bb
00000350: e4e8 053b 750f 8a3b 02cf 2eba 4323 7f3b
00000360: 35f2 81bb f90a 9d39 f8b0 62bb 8e16 393b
00000370: e8ba 663a 4c84 24bb 0400 0080 5757 36ba
00000380: 6bd9 ecbb e4ae 6d3b 63ac f83a 9983 16bb
00000390: bbf3 093a 0400 0000 5c78 993a 49d9 4b3a
000003a0: 932c e9ba 269d d639 b41e cb3a a74a 0abb
000003b0: 0400 0000 17c3 52bb 9b30 5dba 52b6 0dbb
000003c0: c6dd 1d3b 67f6 603a 0400 0000 91e6 8a3b
000003d0: 16e9 6d3b 16d6 fe3a 6fe8 143b 75c9 2db9
000003e0: 90c8 15b9 fc86 0b3b 5b00 3abb 486f 8aba
000003f0: 09fd 7fbb 1c48 79bb 50f5 adbb f42d cfbb
-0.008893309 -0.0026451624 -0.018517746 -0.012741033 -0.011293438 -0.03209226 -0.01710778 -0.01588849
-0.01522979 -0.0024389834 -0.02004788 -0.017786335 -0.019737497 -0.014359442 0.000550763 -0.016561551
-0.021967879 -0.0034612103 -0.00081197184 -0.014529408 0.00019090915 -0.012814835 -6e-45 8.3646126e-05
-0.018877111 -0.017910829 -0.0040664626 -0.01316299 -0.0046331505 -6e-45 0.0007206645 -0.013886756
-0.014990217 -0.00094806345 -0.0072366423 -0.0020015456 6e-45 -0.015271311 -0.01773113 -0.011349707
-0.0009956257 -0.004500506 6e-45 -0.020646876 -0.007775621 -0.0013859464 -0.010305921 -0.02897398
0.00053684175 -0.005501658 0.00085995364 0.00027674972 0.0010859099 0.00048109295 -0.0027593942 -0.0049878745
-0.0031586916 -0.0008465541 -0.0023671545 -0.0029493768 -0.0014718255 -0.0054078186 -0.008148217 0.0002300865
0.0015681084 -0.0036192895 0.00055124116 0.0010864314 -0.0013287605 -0.005086182 -0.0038746118 -1.9243862e-06
6e-45 -0.0068515944 -0.0005693697 -0.0039515276 -0.0016695901 -0.0012585081 -0.0016062184 6e-45
-0.011802821 -0.0016387055 0.0020353398 -0.002525529 -0.004150225 0.0016056653 6e-45 -0.005053318
-0.0043599424 0.0010584096 -0.00014180264 -0.010231944 6e-45 -0.0006372048 -0.0049664 -0.0018559879
0.0017209263 0.0030822945 -0.0010065091 0.0003517712 0.0042342977 0.0093637295 0.0076177255 0.002226064
0.0045132576 0.010958858 0.009220993 0.008291845 0.0028360721 0.0050579915 0.007431326 0.008115515
0.009006461 0.0014762358 0.004778569 0.0028533295 0.008338463 0.003263418 0.0035925354 0.00431909
0.0018709378 0.0075063696 6e-45 0.0010400277 0.009103709 0.006186702 0.0021627527 0.0093274955
0.003091807 -6e-45 0.003156903 0.010239109 0.008124498 0.0035519719 0.0031856338 0.0024390372
6e-45 0.010205926 0.012996958 0.0054714335 0.004340732 0.0034349966 6e-45 0.0036487181
0.0018147585 0.00044323158 0.0070621707 0.0067252642 0.0024916043 -0.0023612045 0.0019771517 0.002782181
0.0036338705 -0.0009665893 0.008564116 0.004684622 -0.003227404 0.007114396 -0.001250454 -0.006743605
0.006015289 0.009513565 -0.0017315489 0.000307582 -0.004789221 0.004483062 0.006522177 0.00081587984
-0.00040761707 0.0008591093 -0.0033777421 0.0026914978 6e-45 -0.0032833212 0.006465232 -0.0032133088
-0.002268022 -0.00864585 0.002637055 6e-45 -0.012283986 -0.006387298 -0.0072637643 -0.0019728015
0.0027235681 0.00026698728 -6e-45 0.0049781385 -0.00220154 -0.0028567293 -0.009272986 0.0019945966
6e-45 0.000113177164 0.006609413 -0.011410008 -0.0046030846 0.0029330652 -0.0041731554 -0.0016233379
0.0014298162 -0.002623055 0.00037633078 -0.0004963361 0.0006672678 0.00034484974 -0.005013016 -0.0011221265
0.0055835512 0.001867728 -0.0018486823 -0.0028255563 0.0020433003 0.0042132684 -0.000666842 0.003893093
-0.003965641 0.0002995355 -0.0034590345 0.0028242203 0.0008801655 -0.002510327 -6e-45 -0.00069557637
-0.0072280667 0.0036267573 0.0018972274 -0.0022966622 0.0005262454 6e-45 0.0011708844 0.00077762135
-0.0017789773 0.00040934345 0.0015496821 -0.0021101625 6e-45 -0.003215974 -0.0008437724 -0.0021623564
0.0024088486 0.00085816387 6e-45 0.0042389114 0.003630226 0.0019442465 0.002272155 -0.00016573614
-0.00014284463 0.0021290174 -0.002838156 -0.0010561729 -0.0039060733 -0.0038037365 -0.0053087845 -0.0063226167

exp_avg_sq f4 [10, 50]
00000000: 04af 733a 2480 363a da65 453a 9206 8838
00000010: b748 243a c4cc a93a c7eb 033a e6ba b63a
00000020: ca95 ca39 1e7d 633a b4b0 193a dce7 a73a
00000030: 409f 3a3a acb1 9d38 f45b 2539 c068 1239
00000040: b2b6 253a 37d5 5439 abcd a838 88f7 a039
00000050: 56c1 c338 97d2 973a e283 cf2e c048 1038
00000060: f2bf 3b3a e6d3 3c3a 877a 0439 4eb8 4a39
00000070: 05d0 a439 3866 2e31 d482 5838 e481 053a
00000080: 073a 033a 9a34 1f39 6d86 f338 7dd9 3d39
00000090: e713 9130 3452 ff3a d1ef 0d3b 51a4 153a
000000a0: f296 b139 a0e4 d839 54ca cf31 6adb 4b39
000000b0: af6c 593a 5640 b639 c5b0 813a 9db7 0d3a
000000c0: 5bb4 0139 23ee 5d38 7105 c338 0b52 9037
000000d0: fe52 1138 2ade b839 cc11 9439 6871 663a
000000e0: 7e53 263a 1eb7 3e39 a26e 323a 89e7 7e39
000000f0: d0d7 173a 86f3 c439 5025 ad3a 9279 f439
00000100: 588e b438 4291 b039 aec7 a438 4963 3939
00000110: 3560 0c3a 8366 303a c983 8438 5947 4d39
00000120: 2eb5 8b2e 7575 793a 4a16 5d39 ce10 503a
00000130: 98c5 8239 4798 793a 7609 b039 87ee 9b30
00000140: 8f0b 013a 857e de39 4da7 0239 e43a 1d39
00000150: a44f 9c39 4577 d538 ebf6 d330 7ba5 6c39
00000160: 28b1 b539 a002 d638 7c4e 6239 2a3e 303a
00000170: 7b65 ec2f a988 483a c63b 6439 712f 3a38
00000180: 7917 5339 2311 c439 857c 5939 e364 d839
00000190: ed05 023a da0a 603a 1115 243a 3742 4039
000001a0: a2f9 133b cc77 303b 8b57 d63a 81bd 0d3b
000001b0: a8ec 6c3a bed4 a53a 22c6 d53a 7135 a33a
000001c0: bd2b 363b d2ad 2a39 ef33 163a a9fe f938
000001d0: a92a a03a 9306 813a 6c86 aa3a 6d2a 4d3a
000001e0: 1ab1 6839 957c ac3a 899f 472e 4f50 393a
000001f0: db7b c13a dff5 b73a 552c c239 eaf7 b43a
00000200: 4b29 ac3a e4f1 7931 5a2e a439 f165 ec3a
00000210: 5cf0 803a 8001 5d3a 1558 ba39 6422 7139
00000220: b762 482f cbf8 a33a 5028 173b b25d dd39
00000230: 8f37 a03a dffb 503a 4903 ea2f 4c07 653a
00000240: cd92 8d3a 13b2 6f39 c84f cd3a 665c 6f3a
00000250: 7867 1d3a 32f8 693a 3432 323a fe5f d739
00000260: 6f98 f339 efa8 e039 16b5 253b cb13 3b3b
00000270: cffb a73a d80c 373b d25c 003b 7b89 6d3a
00000280: 9ad0 f03a c52c 283b 92e6 263b 5453 8a39
00000290: 7863 473a d881 613a 3a4e 783a 00b2 163b
000002a0: 2490 a13a 9467 093b 64bf 9d3a c679 283b
000002b0: 58a9 652e 3729 423a ea8c 123b 8b34 103b
000002c0: f173 a33a 6678 ad3a 00f8 be3a 64a0 8730
000002d0: eeef 193a e10a b83a 93ad a539 9966 763a
000002e0: 48c3 5e39 145d e539 a071 c130 4c5e ee3a
000002f0: 824b 003b 1dcc bf39 7ec1 143b 96f1 833a
00000300: c3b7 ac2f ee10 bd3a bdd1 f33a 63df d439
00000310: cbc4 933a d3f4 813a fc6c a839 01a2 653a
00000320: 26b2 093a 34d7 283a aabf 763a 1805 053a
00000330: 6156 ed3a b6f6 e83a 5d82 f039 1ec7 7b3a
00000340: 18f4 753a 35ef 9f39 1a4d 4b39 b51f 7839
00000350: ac62 783a c510 a439 9442 a83a 273b 1f3a
00000360: baa8 423a 77ec a23a e471 1e38 bb1e 613a
00000370: 6d93 c838 6968 a539 84e0 d22f 016c b839
00000380: df7c 133a fb5b 473b 14da 7239 f9c5 8b39
00000390: 62ed b638 f552 2130 a666 9a39 19bc 823a
000003a0: 9981 f53a bf69 eb37 51d7 7f3a a4a3 933a
000003b0: e3e2 132f 856c 373a 5212 5a3a 41ba 623a
000003c0: 90b6 9139 ae2d fb39 b4db 672f 7139 123a
000003d0: 07c7 713a ac0b ef39 9a11 103b 712d 663a
000003e0: f8d1 1d39 50ff 4339 56eb 953a d1ce 8d39
000003f0: 9743 513a 0956 2639 cdcd f53a 35c0 5d3b
0.0009295794 0.00069618435 0.00075301307 6.486209e-05 0.0006266939 0.0012954702 0.0005032387 0.0013941198
0.00038640044 0.00086780067 0.00058628176 0.0012810188 0.0007119067 7.519437e-05 0.00015769881 0.00013962667
0.0006321474 0.00020297324 8.049173e-05 0.00030702003 9.334336e-05 0.0011583146 9.436697e-11 3.440003e-05
0.0007162086 0.0007203206 0.00012634146 0.0001933288 0.00031435504 2.5378437e-09 5.1620256e-05 0.00050929026
0.00050059 0.00015183017 0.00011612182 0.00018105465 1.0555795e-09 0.0019479454 0.0021657834 0.0005708384
0.00033872534 0.0004136907 6.047495e-09 0.00019441327 0.0008294088 0.0003476168 0.00098946 0.00054060837
0.00012369586 5.2912288e-05 9.299338e-05 1.7204342e-05 3.4647986e-05 0.0003526074 0.0002824202 0.00087907026
0.0006344839 0.00018188028 0.00068066467 0.00024309581 0.00057923514 0.00037565472 0.0013209973 0.00046629884
8.6095824e-05 0.0003367756 7.8573226e-05 0.00017679961 0.0005354912 0.00067291426 6.3187974e-05 0.00019576903
6.353172e-11 0.00095160987 0.00021084506 0.00079370744 0.0002494275 0.0009521287 0.00033576385 1.1345528e-09
0.0004922682 0.00042437404 0.0001246009 0.00014994625 0.00029813976 0.00010178847 1.5422449e-09 0.0002256836
0.00034655002 0.00010204804 0.00021582277 0.00067231304 4.3000256e-10 0.00076497585 0.00021766042 4.439004e-05
0.00020131272 0.000373968 0.0002074112 0.00041273897 0.00049599895 0.0008546539 0.00062592427 0.00018335214
0.0022579213 0.0026926873 0.0016352994 0.0021627846 0.000903795 0.0012651903 0.0016309659 0.001245184
0.0027797066 0.00016277216 0.00057297846 0.000119206794 0.0012219745 0.0009843878 0.0013010032 0.00078264513
0.0002219122 0.0013159687 4.5389057e-11 0.0007069157 0.0014761643 0.0014035067 0.00037035593 0.0013806794
0.0013134865 3.6371768e-09 0.00031315052 0.0018035752 0.0009837258 0.00084307045 0.0003554231 0.00022996363
1.8224965e-10 0.0012510059 0.00230648 0.00042222213 0.0012223589 0.0007972102 4.2566686e-10 0.0008736744
0.0010801196 0.00022859154 0.0015664035 0.0009130895 0.0006004493 0.00089252286 0.0006797642 0.00041079515
0.00046462144 0.00042850475 0.0025284938 0.0028545733 0.0012816134 0.002793124 0.0019586575 0.00090613187
0.0018372715 0.002566145 0.002546702 0.00026383495 0.00076060696 0.0008602417 0.0009472106 0.002299428
0.0012326282 0.0020966278 0.0012035188 0.0025707348 5.221898e-11 0.0007406654 0.0022361823 0.0022003974
0.0012470466 0.0013234734 0.0014569759 9.868129e-10 0.0005872239 0.0014041328 0.00031600575 0.00093994435
0.00021244318 0.00043747632 1.4074892e-09 0.0018186062 0.0019576256 0.00036582435 0.0022698338 0.0010066505
3.1417188e-10 0.0014424601 0.0018601936 0.00040602227 0.0011273859 0.0009914882 0.00032124657 0.0008759797
0.00052526814 0.0006440759 0.00094127154 0.00050743064 0.0018107408 0.0017773721 0.00045873495 0.0009604561
0.0009382381 0.00030505066 0.00019388311 0.00023662935 0.00094751525 0.00031293012 0.0012837225 0.0006074183
0.0007425655 0.0012430091 3.7776204e-05 0.0008587648 9.564203e-05 0.00031549044 3.8358305e-10 0.00035175684
0.0005626212 0.0030419815 0.00023160159 0.00026659647 8.722652e-05 5.868935e-10 0.00029449648 0.000997427
0.001873064 2.8063425e-05 0.00097595627 0.0011263979 1.3450178e-10 0.00069970667 0.000831877 0.000864897
0.00027792575 0.00047908485 2.1087382e-10 0.00055780174 0.0009223078 0.0004559433 0.0021983148 0.0008780575
0.00015050906 0.0001869176 0.0011437933 0.00027047706 0.0007982789 0.00015863044 0.001875335 0.0033836488

exp_avg f4 [10]
00000000: d2ff cdbb d0ae 35ba 7d38 373b 0aa1 e4ba
00000010: dfa4 923a 1342 a5ba 3ea9 cd3a 7122 ef3a
00000020: 80fc 033b d5be 2d3a
-0.0062865997 -0.0006930651 0.0027957254 -0.0017443013 0.0011188051 -0.0012608193 0.0015690697 0.0018244517
0.0020139515 0.00066278625

exp_avg_sq f4 [10]
00000000: 7403 aa38 5a09 bf38 e91d 3439 20e5 5e39
00000010: edff 2339 eaa4 5a39 8d2d c138 8e27 0739
00000020: 10b9 7939 6c47 4e39
8.106875e-05 9.1093316e-05 0.0001717728 0.00021256926 0.00015640231 0.00020851535 9.211442e-05 0.00012889339
0.00023815432 0.00019672298
