tb_logs/MNIST_Model/version_1/checkpoints/epoch=2-step=2346.ckpt (torch, 483890 bytes, 12 tensors)

fc1.weight f4 [50, 784]
000000 ba 4e bc 3c 96 76 dd 3c 5c 76 d1 3c 32 e1 fb 3c
       0.022986759 0.027034085 0.025569133 0.03074703
000010 eb e9 15 3d 10 98 ad 3d 58 60 1e 3e fd ba 0e 3e
       0.036600035 0.08476269 0.1546644 0.13938518
000020 05 4f cc 3d 9d 38 bd 3d 6b a5 03 3e c1 aa fd 3d
       0.09976009 0.09239314 0.1285607 0.12386084
000030 e1 11 1f 3e b6 0c 36 3e d5 da 50 3e 3e 8f 57 3e
       0.15534164 0.17778286 0.20395978 0.21050736
000040 4e 1e 34 3e 6a ac 4f 3e 21 2a 9b 3d cb 66 e7 3d
       0.17589685 0.20280614 0.07576395 0.11298903
000050 a7 98 a0 3c 61 d5 41 bc c3 4a 71 3d ec e0 43 3d
       0.01960404 -0.011830659 0.05890919 0.047821924
000060 7c 0f c1 3c 4e 68 fd bc 32 e5 ce 3c b0 a6 10 bd
       0.023566954 -0.030933525 0.025255773 -0.035315216
000070 58 74 c1 bc 44 3b 1d 3c b8 8a 42 bc 68 db 49 3d
       -0.023615047 0.00959665 -0.011873893 0.049281508
000080 79 53 05 3e 26 f0 46 3e 84 81 77 3e 21 a9 86 3e
       0.13020124 0.19427547 0.241705 0.2630091
000090 32 dc a1 3e 7c 4f 8c 3e d6 5b b8 3e e5 79 ab 3e
       0.31613308 0.27404392 0.36007565 0.33491436
0000a0 bf 26 bf 3e 4f 0f c6 3e d4 8a be 3e 18 c3 c7 3e
       0.37334248 0.38683555 0.37215292 0.39016032
0000b0 44 77 a0 3e 6b 5b a1 3e c6 a7 a4 3e 14 dd 94 3e
       0.31340992 0.3151506 0.3215925 0.2907492
0000c0 e9 c4 4b 3e f7 db 34 3e b3 db 1c 3e f9 58 8f 3d
       0.19899334 0.17662035 0.15318184 0.06999392
0000d0 40 ec ea ba 38 06 68 bc c2 93 ae 3c 14 b5 ad bb
       -0.0017923191 -0.014161639 0.02131069 -0.005301127
0000e0 fc 6a c8 3c 48 cc 13 3a 08 b1 21 bc 5b 16 25 3d
       0.024465077 0.0005638045 -0.009868868 0.040304523
0000f0 4e fb 91 3d e3 aa 10 3e e5 c8 82 3e 5a 90 95 3e
       0.07128011 0.14127688 0.25543895 0.29211694
000100 9b 92 7c 3e bf ea 4b 3e ac 8f 52 3e 60 e1 5c 3e
       0.246653 0.19913767 0.20562619 0.21570349
000110 4f f5 56 3e a9 15 35 3e 0b 1d 16 3e b8 75 6e 3e
       0.20992015 0.17684044 0.14659517 0.23287094
000120 d6 61 86 3e a8 64 64 3e b2 60 76 3e 6c 9a 84 3e
       0.26246518 0.22304022 0.24060324 0.25899065
000130 b6 af 8b 3e 7a ae 80 3e fa e1 81 3e d9 08 20 3e
       0.27282494 0.25133115 0.2536772 0.15628375
000140 41 71 ff 3d 14 00 84 bc ee 76 aa 3c e0 c8 ae bc
       0.12472773 -0.016113319 0.020808663 -0.021336019
000150 8e 7c 9b bc 3f 6e 24 3d 55 f0 91 3d 1e 51 1f 3e
       -0.01898029 0.0401442 0.07125918 0.15558288
000160 c6 46 30 3e cb 59 15 3e 3c 3e 31 3e a4 3f fa 3d
       0.17214498 0.14585035 0.17308897 0.1221917
000170 2d 3d e0 3d 71 7f 07 3d b9 a4 81 3b 87 eb 15 bd
       0.10949168 0.033080522 0.003956404 -0.03660157
000180 b6 27 94 bd 14 85 c7 bd 2b eb f2 bd 0d 3b 01 be
       -0.07234137 -0.097421795 -0.11861261 -0.12620182
000190 b9 0f cc bd a0 16 47 bd 23 2e 0b bc 4a 4d b1 3d
       -0.09963936 -0.04860556 -0.008494887 0.0865732
0001a0 9a 01 36 3e d2 89 14 3e 72 fb 63 3e 5e 02 d6 3d
       0.17774048 0.145057 0.22263888 0.1044967
0001b0 e3 1e 86 3d 8f 1a 35 bd dd 3e 99 bb e5 6c 0e 3d
       0.0654886 -0.04421478 -0.0046766833 0.03477182
0001c0 ff f5 05 bd b2 ff 1b bd ab 7e dc bc 06 12 8f 3d
       -0.032705303 -0.038085647 -0.026915869 0.069858596
0001d0 24 01 a9 3d 31 d7 11 3e 18 89 21 3d 13 95 d4 3a
       0.08252171 0.14242245 0.039437383 0.0016218744
0001e0 e4 29 a0 bc 68 bc 4c bd 27 58 12 be 66 7c 2f be
       -0.019551225 -0.049984366 -0.1429144 -0.17137298
0001f0 98 6e 41 be 8c ac 60 be b7 b1 59 be 97 d9 71 be
       -0.18889844 -0.21940821 -0.21259199 -0.2361816
000200 ef 96 41 be d4 bd fa bd c7 e4 c2 bd 3d 2e c3 bd
       -0.18905233 -0.12243238 -0.09516292 -0.095303036
000210 08 fb d0 3b de 7b 8b 3d b1 5f ba 3d b7 e8 b3 3d
       0.0063775815 0.06810735 0.09100283 0.08784621
000220 89 d5 d5 bc ec e5 86 bd 36 b0 08 bd c5 84 e8 bc
       -0.026102798 -0.06586823 -0.033371173 -0.028383622
000230 92 fa 34 bc 6c 11 fb bd 1d 58 f2 bc db 34 12 bc
       -0.011046069 -0.12259182 -0.029583031 -0.008923735
000240 29 8a 78 bc c2 11 fb bc b8 da bc bc 3f a8 16 bd
       -0.015169659 -0.030648116 -0.023053512 -0.036781546
000250 02 6d 5d bd 3d af 0c be 81 60 10 be 37 92 1f be
       -0.054059036 -0.13738723 -0.14099313 -0.1558312
000260 e8 4e ff bd da 7a 1f be f5 a2 12 be 4c 89 19 be
       -0.12466222 -0.15574208 -0.14319976 -0.14993781
000270 16 cb d5 bd 29 91 e8 bd 8f a4 19 be 69 49 c5 bd
       -0.10439126 -0.11355812 -0.1500418 -0.096331425
000280 bc 02 ca bd 04 ab e4 bd 61 80 c5 bd a6 16 3f bd
       -0.09863803 -0.11165431 -0.09643627 -0.04665246
000290 92 86 8c bd ba a8 00 be ca ea cb bd 63 d4 b0 3c
       -0.06861605 -0.12564364 -0.09956892 0.021585649
0002a0 98 49 7e bd 6d 13 20 be 6e d0 f2 bd 62 41 d3 bd
       -0.062081903 -0.1563241 -0.11856161 -0.10315205
0002b0 6e d8 37 be 20 96 5a bd b2 97 2e bd fe 9e b2 bc
       -0.17953655 -0.053365827 -0.042625137 -0.021804329
0002c0 a1 b7 db ba 6e 36 36 3d 4d fa 7d 3d 2f 9f bc 3c
       -0.00167631 0.044485502 0.062006284 0.023025123
0002d0 dc c4 85 3d d0 e4 c9 3a df a4 61 3a 38 bc 18 3d
       0.065316886 0.0015403274 0.00086076366 0.037288874
0002e0 e3 ad 83 3d 73 b1 d0 3d 7b a1 b0 3d 15 ca 89 38
       0.06429651 0.10190096 0.0862455 6.57031e-05
0002f0 1a 30 fb bd 01 19 fe bd 69 98 6c be c1 65 6f be
       -0.12265034 -0.12407113 -0.23105015 -0.2337866
000300 18 a7 51 be df 20 20 be 71 ba 0e be 40 af 99 bd
       -0.20473897 -0.1563754 -0.13938309 -0.075041294
000310 f4 02 cc bd 28 4f cb bd cf 28 39 be 94 66 3e be
       -0.09961501 -0.09927207 -0.18081973 -0.18593818
000320 ef b9 16 be 67 09 4a bd c9 37 21 bd 90 aa 54 bc
       -0.14719366 -0.049325373 -0.03935984 -0.012980118
000330 53 db 3b 3c c1 53 de 3d d1 f3 00 3e 0c 4d cb 3d
       0.011465865 0.108558185 0.12593009 0.09926805
000340 fd 70 34 3e a7 37 32 3e 1e 02 57 3e be 34 42 3e
       0.17621227 0.17404042 0.20996901 0.18965432
000350 e8 6b 2e 3e 9f 48 ff 3d 60 91 c1 3d 0c d3 8a 3d
       0.1703335 0.12465023 0.09451556 0.06778535
000360 ee dc 98 3c d8 ad e5 bc 8d 72 22 be fe 84 71 be
       0.018660035 -0.028036997 -0.1586401 -0.23585889
000370 39 df 5e be d8 b3 8b be fb c6 19 be 36 ab 82 bd
       -0.2176484 -0.27285647 -0.15017311 -0.06380312
000380 b4 da 24 be 78 7e 18 be 9a 8a fc bd 0f d8 10 be
       -0.16099054 -0.14891994 -0.12331124 -0.1414492
000390 88 a5 96 bd 8e d1 f8 bc 6e db 3b 3d b7 c6 43 3d
       -0.07355791 -0.030373361 0.04586356 0.04779693
0003a0 69 dd 2c 3d 26 85 73 3d 82 3c 24 3d 05 8c db 3d
       0.04220334 0.059453152 0.040096767 0.10720066
0003b0 e0 1e f0 3d e1 cd 53 3e a3 14 2f 3e 86 cf e7 3d
       0.11724639 0.20684005 0.17097716 0.11318879
0003c0 80 8f 30 3e f9 7c d2 3d 24 58 37 3d c9 4d 54 3d
       0.17242241 0.10277743 0.04476179 0.051831994
0003d0 9d 0c 90 3d 91 c2 8c 3d 6b cc d4 3b f0 ec d4 bd
       0.07033656 0.06873048 0.006494095 -0.10396755
0003e0 fa 04 5a be 7d fb 4c be 12 62 32 be 34 a6 82 bd
       -0.21290961 -0.2001781 -0.17420223 -0.06379357
0003f0 89 fd 46 bd 32 c5 c8 bd 42 ac 95 bd 74 a9 06 bd
       -0.048581634 -0.09803237 -0.07308246 -0.032876447

fc1.bias f4 [50]
000000 95 08 97 3d 9b a2 8d 3e 24 f0 41 be 96 f3 33 3e
       0.07374684 0.2766312 -0.18939263 0.1757339
000010 0b 12 39 3e 71 c1 06 bd 02 92 7b 3d 85 d2 f4 bc
       0.18073289 -0.032899324 0.06141854 -0.02988554
000020 d6 84 8d bd 08 5f 11 be e9 a3 e3 3d 27 87 37 3c
       -0.06910102 -0.14196408 0.11115248 0.011201656
000030 fe a6 53 bc ad 94 23 bc 8a 57 56 3e d2 17 d7 3d
       -0.012918232 -0.009984178 0.20931831 0.1050259
000040 83 a6 39 be 96 55 2e bc 89 df 4e 3e 59 87 98 bd
       -0.18129925 -0.010640522 0.2020246 -0.074476905
000050 b5 7c 09 be 6f 0d 53 3b 2b 4d c8 bd 74 a7 f3 3b
       -0.13426478 0.0032204052 -0.097803436 0.0074357335
000060 77 4b 33 3e 5b 5c 42 3e 32 1e 55 bd 49 90 30 3d
       0.17509256 0.18980543 -0.05203075 0.04310635
000070 f6 c4 96 be b7 9b 6c 3e b6 4a 4a be 16 f9 8a 3d
       -0.29447144 0.23106275 -0.19755062 0.067857906
000080 fa 5f f8 bd 7f b1 0d 3e ae 1e 5a bb 69 a3 be 3d
       -0.12127681 0.1383724 -0.0033282447 0.09308512
000090 98 39 46 bc e0 31 bc bd b8 78 29 bd 51 6d a7 3d
       -0.012098692 -0.091892004 -0.041374892 0.08175147
0000a0 b5 b2 97 3d a7 80 e1 3d 03 4e 94 3e 79 3f 66 3e
       0.074071325 0.110108666 0.28965768 0.2248515
0000b0 fe 8e ab be e4 9d ad 3e 70 e0 e8 3d 63 d3 15 be
       -0.33507532 0.33909523 0.11370933 -0.14631419
0000c0 04 5f 75 3d da 4f 96 bd
       0.059905067 -0.07339449

fc2.weight f4 [10, 50]
000000 19 ad 9f be 2e bc e3 be d9 9e 3a 3e b0 13 25 3e
       -0.3118675 -0.44479507 0.18224658 0.16120791
000010 b3 23 e2 3d 89 8a f9 bc c8 08 3c 3e 74 33 32 3e
       0.11041965 -0.030461567 0.18362725 0.1740244
000020 71 cd bf 3e df 5d f0 3d 98 f6 15 bf b3 57 2a be
       0.37461427 0.117366545 -0.585794 -0.16635017
000030 a8 a4 26 bf 76 cd 57 3e f8 c5 10 3e 73 fe 4c be
       -0.65094995 0.21074471 0.14138019 -0.2001894
000040 68 bd af 3d a1 3f 96 be 53 8d 38 3e ae 36 b3 3e
       0.08581048 -0.2934542 0.18022661 0.35002655
000050 35 1a f4 bd c5 15 c4 3d be 33 39 3d 49 4f f1 3d
       -0.11919061 0.09574465 0.04521536 0.117827006
000060 24 1e 0d be 9e a0 8a bd 51 33 6d 3d 1e 80 6f be
       -0.13781029 -0.067689165 0.057910267 -0.23388717
000070 69 78 4d 3e 03 a6 71 bd 92 02 32 3e 9e b1 38 be
       0.20065464 -0.05899621 0.17383793 -0.18036506
000080 d7 f4 39 bd ad 45 0f 3e ea cc 41 bc 8e 07 32 be
       -0.045399513 0.13991423 -0.0118286405 -0.17385694
000090 a6 c9 ac bc 4a 90 8e be 67 35 05 bd 0b f9 10 be
       -0.021092247 -0.2784446 -0.03252163 -0.14157502
0000a0 08 32 11 be c7 c6 3f 3e 0d 5e 85 3d 8d eb fd 3c
       -0.14179242 0.18728171 0.065120794 0.030996108
0000b0 d9 26 4f 3e 5e 97 de be 21 ed 97 be 0d 33 12 bf
       0.20229663 -0.4347486 -0.29673102 -0.5710915
0000c0 19 54 1c 3e 6d ab 65 3d 59 fb 33 bd 83 28 83 3d
       0.15266456 0.056071687 -0.043940876 0.06404211
0000d0 e6 61 45 3c b3 11 0d 3e 19 2e 78 be 8e a2 37 3e
       0.012047267 0.13776283 -0.24236335 0.17933103
0000e0 97 63 1d 3e d7 67 68 3e 61 31 ac 3e 08 58 31 be
       0.15370022 0.22695862 0.33631423 -0.17318738
0000f0 c6 9d 5b 3e 3e fb be 3c 75 48 ce be 39 58 4d be
       0.21446905 0.023313161 -0.40289655 -0.20053186
000100 cb f7 93 be c8 ed 86 be aa 7f 8e be 32 b3 18 3d
       -0.2889999 -0.26353288 -0.27831775 0.03728027
000110 ef 6e 67 be b7 47 66 3e a6 00 57 3d d8 5c 9f be
       -0.22600912 0.22488295 0.052490853 -0.31125522
000120 6c 41 a2 be a5 f4 17 be 75 77 b5 3d 83 ba 13 3f
       -0.31690538 -0.14839418 0.08860675 0.5770647
000130 56 49 3c 3d 76 e4 06 3e 26 d7 81 be e3 3c a9 3d
       0.045968376 0.13173088 -0.25359458 0.08263566
000140 03 90 83 be 17 a8 05 be 55 d4 c0 3e af c1 53 3e
       -0.2569581 -0.13052402 0.37661996 0.20679353
000150 55 de 70 be 3a 83 cf be 5f 0b 3c 3e 26 df 0b 3a
       -0.23522313 -0.40529805 0.18363713 0.0005335681
000160 16 a3 99 bc 80 08 bd be f6 5e 79 bd 58 e8 ee bd
       -0.018754523 -0.36920547 -0.060881577 -0.1166541
000170 2b 25 d8 3e cc 98 a9 be fa 54 20 be d6 b6 73 3d
       0.42215857 -0.33124387 -0.15657416 0.059500538
000180 5e da a3 be ed 88 fe bd 75 c4 3e be 18 e2 aa be
       -0.32002538 -0.1242846 -0.1862963 -0.3337562
000190 3a e5 23 3e ad 9f e2 3c 4a b6 4d 3e fe e1 40 3e
       0.16005412 0.02766403 0.20089069 0.18836209
0001a0 bc 78 66 3e 22 b3 61 be dd 09 88 3d 21 5f 1f bd
       0.22506994 -0.2204099 0.06642506 -0.03890908
0001b0 58 4b 50 be fc d8 55 bd 96 fa fb 3e 0f 3f dc 3c
       -0.20341241 -0.052208886 0.4921462 0.026885537
0001c0 ad 3f 3f 3f a3 40 47 be 77 27 17 be df 4d 34 3e
       0.74706537 -0.1945825 -0.14761148 0.1760783
0001d0 e0 c3 0e 3e 09 71 6d bd 44 b4 67 b9 f6 65 49 be
       0.13941908 -0.057969127 -0.00022097031 -0.19667801
0001e0 c0 01 7c be f8 8a 82 be 74 92 9e 3d 18 11 a6 3e
       -0.24610043 -0.2549665 0.077427775 0.32434916
0001f0 95 68 57 3e 0f e3 7f bd 41 d3 f4 bd d9 17 94 3d
       0.21035989 -0.0624724 -0.11954356 0.07231111
000200 2a 42 0d 3e 02 b3 d7 3e 09 c3 b7 3d d3 c1 0c 3e
       0.13794771 0.4212876 0.08972747 0.13745813
000210 5d be be bd 05 66 f6 bc 97 87 64 bc a9 d2 7a be
       -0.09313653 -0.030077944 -0.013948343 -0.24494423
000220 af b8 fa 3d e9 9c 07 be eb b7 03 bc 32 47 84 be
       0.12242257 -0.1324345 -0.008039455 -0.25835568
000230 2c 21 7f 3e 3b a1 4e 3e 32 28 d1 be 89 4e 8d 3e
       0.24914998 0.20178692 -0.4085098 0.2759898
000240 78 57 22 3e 09 78 b3 be 4a 30 91 be bc f6 d8 bc
       0.15853679 -0.35052517 -0.28357154 -0.02648484
000250 16 72 0b be cb a6 0d 3e 2a 56 29 3e 17 9d 19 3d
       -0.13617739 0.13833158 0.16536775 0.03750333
000260 b7 3b e1 3d 3d a3 5c 3c 91 57 a2 be 84 3b eb bb
       0.10997718 0.013466653 -0.31707433 -0.0071787257
000270 e4 fa 38 3d ef 42 1b bd b7 bc 78 3c 86 a0 25 3e
       0.045161143 -0.03790563 0.015181712 0.16174516
000280 2e 2a 93 be 14 76 05 3d a4 4c 3a be a0 38 e2 3d
       -0.28743118 0.03258331 -0.18193299 0.110459566
000290 4f 10 9d be fd 99 63 3e 6d ae 45 3e c1 d8 57 3e
       -0.30676505 0.2222671 0.1930482 0.21078779
0002a0 62 52 c0 3d 7a 80 09 3e c4 65 01 3d ad 29 1d bd
       0.09390713 0.13427916 0.031591192 -0.038369823
0002b0 72 fe 23 be cd e5 2d bd 73 12 eb be f1 84 3a bf
       -0.16015032 -0.042455483 -0.45912513 -0.728591
0002c0 d7 fc 01 3e a7 f3 43 3c d4 28 11 3e 5e 73 af 3c
       0.12694107 0.011959947 0.14175731 0.021417316
0002d0 be c5 6b 3c df 4a ce 3d b3 3c 12 3f f6 b5 05 3d
       0.014390407 0.10072874 0.5712387 0.032644235
0002e0 1c 2f b9 3d 60 c8 2c be f8 35 5c 3e f7 e4 6c bc
       0.090421885 -0.16873312 0.21504962 -0.014458886
0002f0 69 2d 7c 3d d8 34 cd 3d 87 e9 8c bb 94 a0 1c be
       0.061566744 0.10019845 -0.0043002996 -0.1529563
000300 a9 43 08 bf 84 01 d8 be 3e 6d 0e 3d ff 79 7d 3e
       -0.5322824 -0.42188656 0.03477215 0.24753569
000310 ea 90 b7 3d 9c 8b 67 3e ca 7e a0 be ce 92 11 be
       0.08963187 0.2261185 -0.31346732 -0.14216158
000320 b5 1b 0e bf fc 50 13 bf 3e 7f 97 3e 6c 70 05 bf
       -0.5551103 -0.5754545 0.29589266 -0.5212467
000330 79 c9 a0 3e 34 5e 26 be 04 da d8 be 16 bd e8 3d
       0.3140371 -0.16246873 -0.42353833 0.1136419
000340 4d c1 64 be 5d 6f 57 be b2 f1 72 3b fe a0 81 be
       -0.22339363 -0.21038575 0.003707033 -0.2531814
000350 be 31 e9 be 7c 80 62 3e 21 8a 2b 3e cb d8 94 be
       -0.45545763 0.22119325 0.16751911 -0.2907165
000360 64 d5 f7 be 1b 6d 32 be 06 28 b2 3d 65 71 c0 be
       -0.48404992 -0.17424433 0.0869904 -0.37586513
000370 1d fb 16 ba 75 7e 16 be 20 cb d9 bc d4 7b b5 bd
       -0.00057594647 -0.14696677 -0.026586115 -0.08861509
000380 31 d2 eb 3d 27 1c 84 3c a5 8c 17 3e 5a 0b 8d be
       0.115147 0.016126705 0.14799745 -0.27547723
000390 84 fe 4d be 28 48 60 3e a4 20 40 3e 64 99 29 3c
       -0.20116621 0.21902525 0.18762451 0.010351513
0003a0 88 7d 91 be a1 ed fa 3d 3b a1 61 3e 41 2b eb 3c
       -0.28416085 0.12252355 0.22034161 0.028707149
0003b0 b3 d7 a7 be 18 7f d2 bc fa 97 8d 3d d6 ea 5f 3e
       -0.32781753 -0.025695369 0.06913753 0.21866927
0003c0 40 8c 84 3c 51 53 ae 3d ee ac 83 3e d2 e5 6f 3e
       0.016180158 0.08511985 0.25717872 0.23427513
0003d0 f2 f3 ee bd 66 ed 91 3e 0c aa 19 3d aa b9 39 bd
       -0.116676226 0.28501433 0.037515685 -0.04534308
0003e0 3d 42 09 3e df 24 3d 3e 49 a1 3a be a9 bb b0 3e
       0.13404174 0.18471096 -0.18225588 0.34518173
0003f0 90 fb 0a be 1b f5 40 3e 46 fa af bd 41 cf cf be
       -0.13572526 0.188435 -0.08592658 -0.4058781

fc2.bias f4 [10]
000000 21 5d 52 be ee ab 76 3e c9 84 ce bd 42 17 ce bc
       -0.20543338 0.24089023 -0.100839205 -0.025157575
000010 56 9e a5 3c 3a 5a e8 3d d0 45 c5 bc ff 39 63 3e
       0.020217102 0.11345334 -0.02408114 0.22190093
000020 b6 3e c3 be f6 6e 54 bd
       -0.38133782 -0.051863633

exp_avg f4 [50, 784]
000000 00 00 00 00 00 00 00 00 00 00 00 00 00 00 00 00
       0.0 0.0 0.0 0.0
000010 ec de 1c 33 69 89 c5 36 42 8f e0 36 06 d4 27 35
       3.6524327e-08 5.887054e-06 6.6923976e-06 6.252088e-07
000020 e1 cc d9 a8 e6 1f 40 2c 46 c3 b6 b1 12 1a 81 b3
       -2.4180692e-14 2.7302548e-12 -5.319097e-09 -6.011773e-08
000030 7b 3e c2 b5 76 8d a7 b6 27 c4 f0 b5 46 3d dd 33
       -1.447231e-06 -4.993456e-06 -1.7938481e-06 1.030226e-07
000040 cd c6 bd b7 68 69 00 b8 a0 f3 8e b6 6e e8 57 b5
       -2.262313e-05 -3.0615745e-05 -4.2602915e-06 -8.043197e-07
000050 3b 69 2f b3 95 62 ef b2 87 15 ab b1 88 e3 ad b0
       -4.084107e-08 -2.7868092e-08 -4.9792024e-09 -1.2652075e-09
000060 00 00 00 00 00 00 00 00 00 00 00 00 00 00 00 00
       0.0 0.0 0.0 0.0
000070 00 00 00 00 00 00 00 00 00 00 00 00 04 00 00 80
       0.0 0.0 0.0 -6e-45
000080 c3 53 9e b3 8b ca d4 33 91 19 a7 36 f4 44 15 38
       -7.3726845e-08 9.9088616e-08 4.979964e-06 3.5588586e-05
000090 85 02 89 b8 7e 93 15 b8 f2 50 a3 38 ce 01 54 ba
       -6.5331384e-05 -3.566173e-05 7.787523e-05 -0.0008087427
0000a0 95 b0 2a 38 4c 1b d6 b8 36 4a 80 b9 03 57 41 b9
       4.0695613e-05 -0.000102093996 -0.00024469354 -0.00018438329
0000b0 3e a7 b5 b8 93 87 94 b8 e8 1b d7 36 a0 a2 98 b6
       -8.661904e-05 -7.0824426e-05 6.410748e-06 -4.548885e-06
0000c0 55 84 fc b8 19 ec 99 b8 98 6d 64 b0 15 78 b4 b0
       -0.00012040945 -7.339585e-05 -8.310166e-10 -1.3130853e-09
0000d0 00 00 00 00 00 00 00 00 00 00 00 00 00 00 00 00
       0.0 0.0 0.0 0.0
0000e0 00 00 00 00 04 00 00 80 9d 0a 72 2d 11 90 2f 32
       0.0 -6e-45 1.3758464e-11 1.0219098e-08
0000f0 83 c1 95 b3 f3 f1 1c 36 49 66 ec b7 aa f1 7e b7
       -6.973553e-08 2.3386644e-06 -2.8181023e-05 -1.5195847e-05
000100 6f fb 9d b8 14 35 39 b8 36 90 f5 b9 51 a4 00 ba
       -7.5331765e-05 -4.415687e-05 -0.00046837487 -0.00049072976
000110 5f a6 c9 3a 2d e1 00 3b 6f 10 72 3a 0d 7a 26 3a
       0.0015384665 0.0019665465 0.0009234016 0.00063505844
000120 4d ce b5 38 a5 17 f0 b7 33 20 02 b9 22 7b 46 b9
       8.669179e-05 -2.862124e-05 -0.00012409761 -0.00018928622
000130 f3 9e 38 b9 92 c5 f2 37 13 0f c9 38 0c df ba 38
       -0.0001760682 2.8940649e-05 9.587235e-05 8.910717e-05
000140 dc e5 0c b3 9e 8d ca ae 00 00 00 00 00 00 00 00
       -3.2805346e-08 -9.211053e-11 0.0 0.0
000150 00 00 00 00 04 00 00 80 86 21 13 af 53 7a e7 31
       0.0 -6e-45 -1.3381482e-10 6.7368915e-09
000160 d2 c1 2e 37 f1 6d 10 3a 41 a8 0a 3a 61 05 24 b9
       1.04163355e-05 0.00055095466 0.0005289354 -0.00015642263
000170 2c bc 25 39 6e 56 a3 38 aa 9c c2 b9 ca e7 a5 ba
       0.00015805726 7.7885445e-05 -0.00037119287 -0.001265758
000180 d2 5d 84 3a db 37 26 3b 57 8b 56 3a fc 41 52 39
       0.0010098761 0.0025362882 0.00081842154 0.00020051742
000190 02 fb 5a b9 bc d5 dd b9 97 23 aa b9 d9 72 cf b9
       -0.00020883608 -0.0004231165 -0.00032451443 -0.00039567685
0001a0 3f 0d 05 ba d7 17 1c b9 ef 50 e3 38 81 e4 19 39
       -0.0005075521 -0.000148862 0.000108392785 0.00014676341
0001b0 c8 11 a1 37 45 b6 00 ae da e2 16 00 00 00 00 00
       1.9200976e-05 -2.926572e-11 2.10176e-39 0.0
0001c0 00 00 00 00 35 9e 28 b5 c2 f1 b6 b4 22 9d f3 b6
       0.0 -6.28151e-07 -3.4076044e-07 -7.260257e-06
0001d0 f0 f9 a2 38 e2 48 0b 3a 16 43 c2 39 a3 87 80 b9
       7.7713165e-05 0.00053132896 0.00037052546 -0.0002451512
0001e0 50 2e 95 39 84 7f b0 39 59 b3 8b ba bb e0 ab ba
       0.00028454 0.00033664342 -0.0010658308 -0.001311324
0001f0 db 4e b4 3a 7d 75 18 3b d8 56 8d 3a e7 8f 54 39
       0.0013756411 0.0023263388 0.0010783328 0.00020271503
000200 20 cf 00 ba b4 10 0e ba ef c0 a6 b9 11 0e 20 b8
       -0.00049136765 -0.0005419359 -0.00031805734 -3.8160073e-05
000210 8a ff 4d b9 37 b0 a2 b8 30 bd 01 39 05 89 29 39
       -0.00019645519 -7.7575845e-05 0.00012372877 0.0001616814
000220 98 9b 28 36 48 19 0f b3 62 9c d2 24 00 00 00 00
       2.5124518e-06 -3.3317775e-08 9.1337905e-17 0.0
000230 00 00 00 00 a2 9c 24 b6 12 44 0a b7 8c f3 d4 37
       0.0 -2.4529077e-06 -8.24129e-06 2.538578e-05
000240 22 0b c5 b7 92 c6 20 3a 07 3d f1 39 29 f1 0d ba
       -2.3489414e-05 0.0006133105 0.0004601257 -0.0005414659
000250 8b c1 08 ba 65 b8 8c ba 91 a4 a2 ba e8 fc 3f ba
       -0.00052168284 -0.0010736106 -0.0012408664 -0.0007323758
000260 43 9a 42 3a e0 94 3b 3a fa 47 a5 38 9d 6c fb b9
       0.00074234995 0.0007155668 7.88122e-05 -0.00047955374
000270 00 08 34 ba f3 75 96 ba 01 5a a5 ba 24 39 0c ba
       -0.0006867647 -0.0011479243 -0.0012615324 -0.0005349091
000280 ac e8 09 ba 47 e6 d9 b8 46 88 76 39 82 96 52 39
       -0.0005260806 -0.00010390259 0.00023511154 0.00020083229
000290 94 50 35 38 e0 2e 59 38 52 81 98 a9 04 00 00 00
       4.3228807e-05 5.1780487e-05 -6.7725895e-14 6e-45
0002a0 2f 52 a8 2f 81 b9 d4 38 b6 f1 f0 38 72 9c fe 37
       3.0617417e-10 0.000101435005 0.00011489114 3.035201e-05
0002b0 9c 54 ae 37 ca 7e e7 39 b5 8c 47 39 15 ec 39 ba
       2.0781816e-05 0.0004415422 0.00019030536 -0.0007092369
0002c0 d3 fd 54 ba f5 2c a7 ba d8 8c b9 ba 49 01 6c b9
       -0.0008124981 -0.0012754487 -0.0014156355 -0.00022507193
0002d0 06 72 91 b9 a2 d8 c4 b9 13 5d 6d ba f7 b1 63 ba
       -0.0002774151 -0.00037545437 -0.00090547017 -0.00086858816
0002e0 96 b3 62 3a 99 63 61 3a 67 8d 16 38 1b 5b 77 b6
       0.0008647976 0.000859791 3.5894478e-05 -3.6858899e-06
0002f0 da 20 91 38 05 46 a3 b9 0f 59 8d 39 04 56 92 38
       6.920258e-05 -0.0003114195 0.0002695997 6.977844e-05
000300 75 e1 19 38 93 dd 65 38 7e c7 d5 37 5c 69 1f 18
       3.6688016e-05 5.480421e-05 2.5484474e-05 2.0603461e-24
000310 7a 9f c2 b4 63 99 91 36 8d d5 2c 38 7b b8 51 39
       -3.625135e-07 4.3391933e-06 4.120688e-05 0.00020000518
000320 a4 ff 81 39 07 d2 c8 39 be e4 11 b9 6e 1e 01 ba
       0.00024795264 0.00038303455 -0.0001391349 -0.0004925494
000330 61 a3 29 ba 24 01 cb ba 06 b1 05 b9 05 f6 dc 3a
       -0.0006471184 -0.0015488011 -0.00012749815 0.0016857988
000340 14 fe b2 38 a6 57 6a ba c8 cf ac ba b2 ce d7 ba
       8.535027e-05 -0.0008939452 -0.0013184482 -0.0016464798
000350 0d 50 9e 39 9b 68 d0 3a d3 2a 15 3a 11 ef b7 ba
       0.0003019575 0.0015900315 0.000569028 -0.0014033039
000360 6a 5b 6a ba 67 a1 ea b8 7c 17 c1 39 59 ec 4c 39
       -0.00089400134 -0.00011188053 0.00036829326 0.00019543002
000370 51 28 11 b9 fc 63 76 36 40 c2 90 35 00 a2 8d b3
       -0.00013843297 3.6715055e-06 1.078537e-06 -6.595292e-08
000380 89 ba c5 b5 d7 ed 87 b7 2c 94 11 b8 8c 1b 3c 37
       -1.4731933e-06 -1.6204007e-05 -3.470869e-05 1.1212087e-05
000390 7d 03 05 39 f6 db 2f 3a a7 41 4f 3a cf ba ee 39
       0.00012685168 0.0006708497 0.00079062063 0.0004553408
0003a0 ed 67 9f ba 60 18 63 ba f4 2a 31 3b d5 fd 74 3b
       -0.001216171 -0.0008662995 0.0027033659 0.003738274
0003b0 2b 7a 05 3a 7e 36 c4 b9 6f dc f8 ba 4c 47 2e bb
       0.0005091752 -0.00037424633 -0.0018986593 -0.002659279
0003c0 b8 77 d7 b9 31 fe 79 3a a5 59 4d 3a 81 e5 61 ba
       -0.00041097193 0.00095364737 0.00078334875 -0.00086172676
0003d0 04 86 e5 ba 12 ff c8 b9 df 0f ab 3a 63 11 81 3a
       -0.0017511253 -0.00038337015 0.0013050995 0.0009847101
0003e0 a1 07 1d 39 a1 0a 57 b7 44 b4 8b b5 f1 68 90 b2
       0.00014975529 -1.2817473e-05 -1.0408771e-06 -1.6811528e-08
0003f0 4a 5e 80 b4 73 5d b4 b8 64 4f f4 37 2c 59 60 b9
       -2.3910462e-07 -8.600475e-05 2.9124036e-05 -0.00021395524

exp_avg_sq f4 [50, 784]
000000 00 00 00 00 00 00 00 00 00 00 00 00 00 00 00 00
       0.0 0.0 0.0 0.0
000010 59 c1 d7 2e c1 1a 2a 32 de ad 86 32 28 c5 88 32
       9.8114135e-11 9.9013855e-09 1.5678719e-08 1.592214e-08
000020 b9 5e 86 32 9a f2 17 32 49 17 1e 33 19 c8 0b 33
       1.5642728e-08 8.844518e-09 3.680842e-08 3.2545447e-08
000030 e0 e0 79 33 6a 08 b9 32 6b 2e d9 32 23 c2 8a 32
       5.8179353e-08 2.154066e-08 2.5283233e-08 1.6153598e-08
000040 b1 88 c0 32 6b 06 00 33 24 f7 8c 31 82 35 78 30
       2.2413902e-08 2.980816e-08 4.102633e-09 9.0297914e-10
000050 86 6a e3 30 bb 1a 84 30 23 06 0c 30 27 f0 cc 2c
       1.65467e-09 9.611861e-10 5.0940424e-10 5.824691e-12
000060 00 00 00 00 00 00 00 00 00 00 00 00 00 00 00 00
       0.0 0.0 0.0 0.0
000070 00 00 00 00 00 00 00 00 00 00 00 00 b2 64 23 2f
       0.0 0.0 0.0 1.4860538e-10
000080 d6 65 84 31 d0 2c 54 33 6a 1a e7 33 4b f2 71 33
       3.853283e-09 4.9400853e-08 1.07615804e-07 5.633255e-08
000090 7c 2b f0 33 0e 05 84 34 1b 06 12 35 7f e9 16 35
       1.1183781e-07 2.4590594e-07 5.4398123e-07 5.6219136e-07
0000a0 ea 17 20 35 7e 3a 2a 35 a5 99 08 35 55 c2 30 35
       5.9639444e-07 6.341505e-07 5.088753e-07 6.58479e-07
0000b0 77 0d 01 35 4c 4b cc 34 d8 08 76 34 13 80 01 34
       4.807584e-07 3.8052747e-07 2.2913753e-07 1.2060654e-07
0000c0 0d f5 e7 33 74 4f a0 33 d6 7c 4d 33 2b a2 8f 31
       1.080135e-07 7.465033e-08 4.784382e-08 4.180284e-09
0000d0 00 00 00 00 00 00 00 00 00 00 00 00 00 00 00 00
       0.0 0.0 0.0 0.0
0000e0 00 00 00 00 fa 5d b2 2d 63 1e 02 2f 04 cd 35 32
       0.0 2.0277991e-11 1.1834227e-10 1.0582202e-08
0000f0 cb 2e 97 33 9e e9 5c 34 7d 34 d9 34 e9 db 47 35
       7.039997e-08 2.0574086e-07 4.045759e-07 7.445329e-07
000100 80 c9 d7 35 32 d6 2f 36 3e 72 9c 36 dc ef b4 36
       1.6077393e-06 2.620171e-06 4.662462e-06 5.3923413e-06
000110 4c 58 b8 36 01 0e db 36 68 55 d4 36 b0 27 b4 36
       5.4939064e-06 6.528339e-06 6.328035e-06 5.3690383e-06
000120 02 bb 98 36 70 71 7b 36 95 ec 38 36 22 03 e3 35
       4.5517236e-06 3.7467944e-06 2.7555845e-06 1.691373e-06
000130 b2 90 89 35 4a 63 0a 35 a0 22 b9 34 35 d2 ea 33
       1.0249407e-06 5.155349e-07 3.4484128e-07 1.09347106e-07
000140 e6 d8 60 31 d9 f6 0e 30 00 00 00 00 00 00 00 00
       3.2719583e-09 5.201009e-10 0.0 0.0
000150 00 00 00 00 43 61 9e 2d 55 7b 84 32 b6 9c ae 33
       0.0 1.8005713e-11 1.5422907e-08 8.131012e-08
000160 7a df 67 34 8c 85 2c 35 2d 54 a4 35 ab ee 1c 36
       2.1594852e-07 6.426933e-07 1.224345e-06 2.3384735e-06
000170 c1 1f 8c 36 d2 be c9 36 04 c0 1a 37 69 3a 44 37
       4.176022e-06 6.012481e-06 9.223822e-06 1.169611e-05
000180 fb 2d 51 37 a0 4e 66 37 88 65 5e 37 f7 b8 3a 37
       1.2468076e-05 1.3727375e-05 1.3255871e-05 1.1129529e-05
000190 96 86 1c 37 ff 9d 07 37 ae b3 d7 36 6b 06 96 36
       9.32966e-06 8.083413e-06 6.428417e-06 4.4710955e-06
0001a0 73 fb 34 36 6d ab b8 35 d7 8c 8a 35 f0 06 e3 34
       2.6968453e-06 1.375896e-06 1.0322791e-06 4.2287093e-07
0001b0 49 5b 44 33 39 d2 41 32 69 44 ea 2e 00 00 00 00
       4.571783e-08 1.1281878e-08 1.065324e-10 0.0
0001c0 00 00 00 00 b9 d6 68 30 48 ca 22 33 9c 45 b7 34
       0.0 8.470625e-10 3.7902538e-08 3.4137054e-07
0001d0 54 9c 47 35 93 e8 bb 35 db 91 20 36 98 51 86 36
       7.4360764e-07 1.4000274e-06 2.3926757e-06 4.00301e-06
0001e0 5e df d8 36 dc 1f 1c 37 04 01 5e 37 f9 2e 8f 37
       6.463305e-06 9.305742e-06 1.3232468e-05 1.7068802e-05
0001f0 5a c2 97 37 dd c5 a1 37 be bd a0 37 d2 17 90 37
       1.8091105e-05 1.9284833e-05 1.9161842e-05 1.717723e-05
000200 70 08 81 37 f8 e6 54 37 ac a5 22 37 db 7b e1 36
       1.5381927e-05 1.2689961e-05 9.694526e-06 6.719941e-06
000210 ee 89 98 36 f9 c1 40 36 45 2b e3 35 e4 78 3f 35
       4.54601e-06 2.8723136e-06 1.6925411e-06 7.1328964e-07
000220 f1 1e 22 34 d3 ec 6d 32 4c d8 cb 2f 00 00 00 00
       1.5098682e-07 1.3849063e-08 3.7079173e-10 0.0
000230 00 00 00 00 50 7c 21 31 4b 01 0a 34 6f 3e df 34
       0.0 2.3499247e-09 1.2852722e-07 4.1582413e-07
000240 96 a9 8d 35 c6 bc 2d 36 fd 31 8e 36 54 3c e2 36
       1.0554675e-06 2.588889e-06 4.237749e-06 6.742348e-06
000250 9c 3c 39 37 06 5c 81 37 23 3a ae 37 63 bb e4 37
       1.1040971e-05 1.542085e-05 2.0769488e-05 2.7266977e-05
000260 58 c0 02 38 45 e7 07 38 53 3d 03 38 41 bd 00 38
       3.117355e-05 3.2401895e-05 3.1289946e-05 3.0693835e-05
000270 88 04 e3 37 98 44 b7 37 1b 59 89 37 f3 21 39 37
       2.7062619e-05 2.1847241e-05 1.6373166e-05 1.1034764e-05
000280 59 b5 f0 36 b7 b7 8e 36 ee 57 14 36 fb c9 84 35
       7.173669e-06 4.253317e-06 2.21049e-06 9.89355e-07
000290 c0 c6 89 34 da 3f 21 33 27 12 8c 31 10 90 ac 2c
       2.5662848e-07 3.7543806e-08 4.0766e-09 4.904528e-12
0002a0 05 b0 5f 31 c5 52 db 32 4b 42 88 34 99 7c 49 35
       3.2550826e-09 2.5532595e-08 2.5380209e-07 7.505965e-07
0002b0 a4 0d f5 35 25 d3 88 36 93 6c f2 36 52 8f 50 37
       1.8257892e-06 4.0776963e-06 7.2248017e-06 1.24311355e-05
0002c0 de 69 a1 37 4b 58 dc 37 72 2b 15 38 ca 2c 42 38
       1.9241994e-05 2.6267158e-05 3.556483e-05 4.6294917e-05
0002d0 b6 7e 60 38 a0 a2 6a 38 ab 88 66 38 ac a0 5c 38
       5.352377e-05 5.5941404e-05 5.4963555e-05 5.2601725e-05
0002e0 62 48 3d 38 45 9f 19 38 7a c3 ef 37 cc b3 a1 37
       4.5128523e-05 3.6626374e-05 2.8582046e-05 1.927642e-05
0002f0 64 c0 4d 37 d0 8e f7 36 b5 77 8a 36 fd a2 fb 35
       1.2263747e-05 7.377799e-06 4.126656e-06 1.8748393e-06
000300 ac 54 4e 35 1e 8d 15 34 5b ff b6 32 70 27 10 31
       7.6864194e-07 1.3928044e-07 2.130371e-08 2.0977176e-09
000310 8c 04 8f 31 10 61 50 33 c1 26 96 34 1f 4e a7 35
       4.1623647e-09 4.851705e-08 2.7967874e-07 1.2465206e-06
000320 fd e3 55 36 aa 38 ce 36 d6 96 3a 37 b7 36 95 37
       3.187218e-06 6.145875e-06 1.1121583e-05 1.7787663e-05
000330 55 eb e2 37 57 62 19 38 54 33 4a 38 14 b4 70 38
       2.7050884e-05 3.656963e-05 4.8208356e-05 5.738817e-05
000340 56 9c 8c 38 e0 4f 93 38 05 b7 92 38 65 47 87 38
       6.70484e-05 7.024384e-05 6.9959126e-05 6.4506e-05
000350 bb d8 6b 38 3e 2f 46 38 40 45 20 38 3f 36 eb 37
       5.6230212e-05 4.7250876e-05 3.8211467e-05 2.8039443e-05
000360 b1 a0 9b 37 20 5c 3a 37 d5 30 dd 36 de d5 55 36
       1.8552268e-05 1.1107913e-05 6.591998e-06 3.186396e-06
000370 95 76 a7 35 0a e1 83 34 8f 37 04 33 80 f2 70 30
       1.2476982e-06 2.456439e-07 3.0784175e-08 8.7656105e-10
000380 fc 20 62 31 ec 72 00 34 8f 74 c4 34 85 eb c7 35
       3.2906078e-09 1.1962737e-07 3.6592652e-07 1.4895201e-06
000390 c6 02 7b 36 53 31 03 37 fa 51 6d 37 46 73 b4 37
       3.740353e-06 7.819693e-06 1.41453875e-05 2.151135e-05
0003a0 1e 43 05 38 83 99 30 38 c3 b0 5f 38 c3 aa 80 38
       3.177218e-05 4.210464e-05 5.3331965e-05 6.1353225e-05
0003b0 f6 18 90 38 d9 33 92 38 60 ec 91 38 91 77 90 38
       6.8711044e-05 6.97148e-05 6.958167e-05 6.888726e-05
0003c0 65 a6 84 38 fd 28 5d 38 44 b5 34 38 cf 8b 0d 38
       6.325244e-05 5.272868e-05 4.308416e-05 3.3747227e-05
0003d0 a4 98 c2 37 c3 93 77 37 ac 16 0a 37 da a6 8a 36
       2.3197681e-05 1.4756751e-05 8.23072e-06 4.1321446e-06
0003e0 92 7d cb 35 0f 5b c5 34 f3 f2 70 33 d0 67 4b 31
       1.5161224e-06 3.6760363e-07 5.6100316e-08 2.9599398e-09
0003f0 28 9a 3e 32 e1 e6 01 34 30 d0 f6 34 dc ab c4 35
       1.1094507e-08 1.2098054e-07 4.5972547e-07 1.4653156e-06

exp_avg f4 [50]
000000 61 66 30 3b 62 1d b6 39 8d ca 48 bb 6e 3d 13 3a
       0.0026916491 0.00034735637 -0.0030638308 0.0005616759
000010 fa 33 32 bb c1 19 ad 3a 74 24 e7 3a 73 11 45 b9
       -0.0027191625 0.0013206528 0.0017634765 -0.00018793884
000020 87 91 0d 3b 85 c7 46 3b ce 8a d8 ba 56 ba 3f 3a
       0.0021601634 0.0030331325 -0.0016520859 0.0007313838
000030 69 68 73 3b 64 68 1d bb ad 19 bc ba 89 e2 83 bb
       0.003714109 -0.002401852 -0.0014350914 -0.004024808
000040 44 00 ee b9 71 34 73 3a b9 18 12 ba ca 40 eb 3a
       -0.00045395095 0.0009277529 -0.0005573142 0.0017948386
000050 66 a1 cd 3a 32 07 9c 39 e3 95 24 3a 18 45 6b 3b
       0.0015688359 0.0002976 0.00062784384 0.0035899337
000060 40 db df b9 d6 d2 fe 39 8d 88 8b 38 7e 5e 23 ba
       -0.00042697228 0.0004860374 6.653471e-05 -0.0006232037
000070 a2 de 71 3a ca 09 ca b9 19 e9 72 ba f5 d5 81 ba
       0.0009226595 -0.00038535736 -0.00092663016 -0.0009905683
000080 16 2c f7 39 f6 a3 bf ba dd 2e 4f b8 fc a1 76 3a
       0.00047144358 -0.0014621008 -4.939629e-05 0.0009408293
000090 36 f4 f1 39 a9 a4 0f ba 26 04 0f 3a a7 94 eb 3a
       0.00046149053 -0.00054795534 0.0005455635 0.0017973379
0000a0 8d 4a b7 3b 99 16 8b ba 70 28 63 3b f3 ea 00 bb
       0.005593604 -0.0010611593 0.0034661554 -0.001967129
0000b0 af 9f 70 ba b4 03 52 bb 51 30 b8 3a 19 75 f1 39
       -0.0009179068 -0.0032045664 0.0014052485 0.00046054347
0000c0 51 42 9e ba 4b 9f 92 ba
       -0.0012074207 -0.0011186389

exp_avg_sq f4 [50]
000000 0c 86 42 39 a8 e4 db 38 ad 8e a2 38 4c fb cb 38
       0.00018551218 0.00010485324 7.7513374e-05 9.726602e-05
000010 fe 37 a7 38 96 4c a7 38 d2 ca a6 38 2c e2 d9 38
       7.97361e-05 7.977446e-05 7.953275e-05 0.00010389494
000020 29 0f be 37 55 ae 9a 38 a7 1e 58 39 d2 25 8a 38
       2.2656825e-05 7.375764e-05 0.00020610784 6.5873974e-05
000030 96 49 cd 39 02 cf 8c 38 4f 8d c5 38 7a 16 0e 39
       0.00039155473 6.7142784e-05 9.420013e-05 0.00013550548
000040 77 51 95 38 a7 29 c5 38 24 aa 4a 38 61 58 f7 38
       7.120048e-05 9.4014504e-05 4.831901e-05 0.0001179434
000050 9e 05 2d 39 34 dc ef 38 6d 4a 9e 38 b2 cb d8 38
       0.00016500658 0.00011437424 7.54789e-05 0.00010337624
000060 28 70 3a 39 3a 72 0c 39 5a fd b7 38 86 b7 9b 38
       0.00017780124 0.00013393993 8.7733104e-05 7.42516e-05
000070 26 7b b5 38 b4 c6 48 39 ab cf 8a 38 df af 9c 38
       8.653691e-05 0.00019147509 6.619034e-05 7.471418e-05
000080 35 02 f9 38 65 5a e9 38 13 6e 18 38 c8 cb 9d 38
       0.00011873656 0.00011127143 3.634214e-05 7.5243006e-05
000090 b1 08 60 38 eb 1e a9 38 93 46 10 34 4e 63 b7 38
       5.3413856e-05 8.064307e-05 1.343672e-07 8.744617e-05
0000a0 21 4e fe 38 19 a8 b4 38 ce 99 bd 38 1a 7d 8f 38
       0.000121262165 8.6143795e-05 9.040871e-05 6.842073e-05
0000b0 70 9e 98 38 39 55 67 39 c5 90 cb 38 6a 27 0f 39
       7.277436e-05 0.00022061625 9.70676e-05 0.00013652226
0000c0 84 7e 96 38 33 9c 13 38
       7.176123e-05 3.5193003e-05

exp_avg f4 [10, 50]
000000 fb 52 62 bb a8 f5 08 3b 30 dc b8 bb 1b d9 16 3a
       -0.0034534323 0.0020898376 -0.005641483 0.0005754397
000010 79 cc 4e bb e1 a4 bd ba 84 f2 9f bb 18 61 c2 bb
       -0.003155498 -0.0014468693 -0.004881205 -0.0059319846
000020 a6 d8 cd bb 58 2a 4a bc cd 6c 6d 3b 29 cc 0f bc
       -0.00628193 -0.012339197 0.003622818 -0.008776703
000030 d9 e9 16 3a 2d 02 d4 bb bc 05 29 bc d8 a1 5d 3a
       0.0005756892 -0.006469986 -0.010316309 0.00084545976
000040 af cd 0f ba 4d 07 e2 bb 9d a5 88 bb c2 bd 61 bc
       -0.00054856663 -0.006897843 -0.0041701333 -0.013778152
000050 a6 3e ce bb 9c 6e 04 bc 06 6f 04 bb d9 b9 8b b9
       -0.0062940894 -0.008083012 -0.0020207777 -0.00026650613
000060 2d 93 f3 ba 15 bf 71 bb cc cb a5 ba ed 58 dc bb
       -0.001858329 -0.0036887575 -0.0012649237 -0.006724468
000070 7e cf 48 bc cf 09 2c bc 4a b9 2b bc 18 da 04 b9
       -0.012256501 -0.010500385 -0.010481188 -0.00012669747
000080 95 cf a0 3b b6 ce eb ba 8f ad b6 bb a8 54 13 bc
       0.004907558 -0.0017990682 -0.005574889 -0.008992352
000090 08 10 a0 bb 5b 9f 47 bc 5f 48 b2 37 1e 12 f3 bb
       -0.0048847236 -0.012183989 2.1252954e-05 -0.007417931
0000a0 00 db 69 3a 3a 21 1f bb 87 36 f0 39 d3 0c 5f bb
       0.0008920878 -0.002428128 0.00045816993 -0.0034034743
0000b0 b0 4e 5e bc 39 29 c5 38 a2 42 25 bc 23 7e 51 ba
       -0.013568565 9.40137e-05 -0.010086687 -0.0007991513
0000c0 bb df 19 bc 91 c8 a1 bb 81 c5 34 bb 30 36 f5 ba
       -0.00939172 -0.0049372395 -0.0027583542 -0.0018708166
0000d0 08 d5 b1 ba 77 d1 87 bb 89 b7 a3 3a 21 ed 97 bb
       -0.0013567517 -0.004144843 0.0012490611 -0.0046364223
0000e0 0f 67 82 bb 79 02 a8 3a cb 21 06 3b 28 50 e4 ba
       -0.0039795707 0.001281812 0.002046692 -0.0017418908
0000f0 8f b4 28 bb 33 fa 45 bb 71 62 59 ba d3 18 3d ba
       -0.0025742387 -0.0030208945 -0.0008292562 -0.0007213477
000100 83 03 6a 3a 7d a7 0f bb 0d 92 32 bb 52 ad d2 bb
       0.0008926915 -0.00219199 -0.0027247698 -0.006429353
000110 2a 89 29 3a 8b 7b b7 bb 94 d8 02 bb 47 99 a1 ba
       0.00064672774 -0.0055994443 -0.0019965516 -0.0012329005
000120 c6 d5 a4 39 3f 9c 6f bb 39 56 ea 3a a3 ae f5 bb
       0.0003143979 -0.0036561636 0.001787848 -0.007497625
000130 a6 36 c8 39 75 72 a6 bb b4 e6 61 bb e1 04 96 3a
       0.0003818769 -0.0050795623 -0.0034469785 0.0011445546
000140 6c f9 17 39 24 3e a0 39 91 ac 21 bb 3a 0b d3 3a
       0.00014493399 0.00030563876 -0.0024669508 0.0016101368
000150 20 4b 44 37 ad 68 6e 3a 78 a2 91 bb 45 4b 41 bb
       1.1700002e-05 0.00090945774 -0.0044444166 -0.0029494327
000160 cb 75 22 b9 60 dc 1e b9 0d 6c 93 b9 ac 2d 9d 3a
       -0.00015493405 -0.0001515015 -0.0002811853 0.0011991761
000170 06 60 ea 35 7c b5 03 3a 78 c2 07 bb b9 6d 2c ba
       1.7462305e-06 0.00050242967 -0.0020715278 -0.0006577629
000180 b8 92 ae ba dc 26 a8 bb 43 bb c5 3a ed b4 16 3a
       -0.0013318872 -0.0051315855 0.0015085716 0.0005749006
000190 0f d4 bc 3b a6 0e 00 bb f5 18 c0 3b cc 2b ee ba
       0.005762584 -0.001953998 0.00586235 -0.0018171011
0001a0 14 52 d5 bb 9e ec 87 bb 3c b2 05 ba 75 b4 c7 bb
       -0.0065100286 -0.00414808 -0.00051001064 -0.00609451
0001b0 ff 17 94 bc 4c 07 df 3b f4 1b ef 39 ad 0c c2 ba
       -0.018077848 0.00680629 0.0004560646 -0.0014804803
0001c0 86 59 79 bc 85 8f 2c 3c 0d 5a 1c 3c fb 6f 65 bb
       -0.015219098 0.010532265 0.009542954 -0.0035009373
0001d0 94 2f 0d bb 5c 6b 78 bc 99 0c 23 3c b2 7b 28 3b
       -0.0021543251 -0.015162315 0.009951734 0.0025708494
0001e0 1e b6 fd bb 8a 99 15 3c 81 3b c3 3b e8 93 a4 bb
       -0.0077426573 0.009130845 0.005958021 -0.0050225146
0001f0 2f a2 34 bc 0a 72 91 bc 57 bd 30 bc 7c bd c2 bb
       -0.011024996 -0.017754573 -0.01078733 -0.0059429985
000200 de 90 54 3b 2c a0 df 3b 37 21 1c bb c0 7a cd bb
       0.003243498 0.006824514 -0.0023823509 -0.0062707365
000210 3f 95 0f 3b 72 ab 73 bb ed a0 18 bc ce 8a 0c 3b
       0.0021909026 -0.0037181047 -0.009315711 0.0021445039
000220 92 85 89 bb 2b de 90 bc 26 bc 04 39 f6 d9 78 bb
       -0.004196831 -0.017684063 0.00012658592 -0.0037971712
000230 f7 73 0f bb c1 f0 fc ba 89 df e0 bc a2 89 e2 3b
       -0.0021889189 -0.0019297824 -0.02745034 0.0069133798
000240 e0 03 d9 39 10 78 54 bb 4f fa 9e bb 3f 3f 06 bc
       0.00041392352 -0.0032420196 -0.0048516165 -0.00819379
000250 fd 51 97 3b 23 fc 70 bb 86 29 00 3b 95 24 13 ba
       0.004617928 -0.003677138 0.0019556 -0.0005613056
000260 96 b9 91 3a a7 f0 3d bb 27 a4 e9 ba cd 51 c5 ba
       0.0011117931 -0.0028982551 -0.001782541 -0.0015054286
000270 39 ea b2 bb 98 89 a6 bb 65 5b 64 3b 20 44 4a bb
       -0.0054600504 -0.0050823204 0.0034844514 -0.003086336
000280 0d 05 8d bb c0 0d c9 3a e6 0c 68 38 01 9f ab bb
       -0.0043035806 0.0015339181 5.5325123e-05 -0.0052374606
000290 a5 5f f4 3a 1c 1f 04 bc cd e0 22 bc 66 61 8e bb
       0.0018644227 -0.008064058 -0.009941292 -0.004345107
0002a0 dc ab b7 3b f4 4a ae bb f2 41 c2 bb b3 10 da 3a
       0.005605204 -0.0053189937 -0.0059282715 0.0016637057
0002b0 01 d2 a5 39 1c 0b a8 ba 75 69 d9 b9 a9 4c 7a 3b
       0.00031627718 -0.0012820694 -0.00041468037 0.0038192666
0002c0 99 2a 10 bc a2 76 d2 bb c9 b5 27 bc bb e2 35 ba
       -0.008799219 -0.0064228335 -0.010236212 -0.00069383875
0002d0 d7 52 3c bb 91 5c 99 3a 64 65 e7 bb 91 3b e7 ba
       -0.00287359 0.001170056 -0.0070616473 -0.0017641654
0002e0 60 6c 99 bb fb dc 49 b9 47 1a b2 bb 6f 27 c7 bb
       -0.0046821088 -0.00019251175 -0.0054352614 -0.006077699
0002f0 fe 82 03 b9 86 4d 47 bc 0b a2 87 3a e9 ea 99 3b
       -0.00012541932 -0.012164479 0.0010347975 0.004697193
000300 a7 f2 62 bb b1 30 41 3b 90 c6 90 ba b7 5d be 3a
       -0.0034629495 0.0029478485 -0.0011045504 0.0014523779
000310 5a 59 2c bb 9d e0 57 bb 1d 5e 3f 39 f4 6d 1a 3a
       -0.0026298375 -0.0032940276 0.0001825024 0.0005891018
000320 d4 5b c3 bb da 79 06 3b c9 e2 bc bb 01 5f 75 3b
       -0.0059618745 0.0020519407 -0.0057643396 0.003744066
000330 a7 10 c4 bb 86 9e 93 3b 26 f5 c3 39 84 5a cf 3b
       -0.0059834304 0.0045049815 0.00037375948 0.006327929
000340 a1 8d 73 3c 0a cb d0 bb d3 70 bc bb 9e be eb 3a
       0.01486531 -0.0063718604 -0.0057507544 0.0017985885
000350 0c 4c 7c 3c c9 5e 54 bc 2f 47 0d bc 05 04 8b 3a
       0.01539899 -0.012962052 -0.0086229285 0.0010606056
000360 72 60 3e 3b aa fb 12 3c 03 8f 03 bc b4 a4 0f bb
       0.0029049185 0.008971134 -0.008029702 -0.002191824
000370 81 3c f0 3b f3 f8 ba bb 26 c1 d3 bb 22 2c e2 38
       0.0073314314 -0.0057059466 -0.006462234 0.0001078474
000380 78 79 15 3c eb a9 8d 3b 01 cc 8c 3b 06 45 14 3b
       0.009123199 0.0043232343 0.00429678 0.002262415
000390 4d ea 9d bb 91 a3 3b bc 25 bd 4f 3b c2 65 88 39
       -0.0048191906 -0.0114525715 0.0031698432 0.00026015757
0003a0 0e c0 e5 3b 06 3b 4f 3b 40 5c 7a 3b ba 15 ac bb
       0.00701142 0.0031620874 0.0038201958 -0.0052516134
0003b0 eb 90 07 3b 43 f9 41 3c 34 89 24 3a d0 a8 77 bb
       0.0020685743 0.011839214 0.00062765484 -0.003778983
0003c0 8c 65 b0 3a 7e fb 03 bb 23 9d c4 3b 37 9d 92 bc
       0.0013457998 -0.0020138915 0.0060001775 -0.017897232
0003d0 51 f3 b6 3a 7f 13 1a 3a 46 ea 0d bb de eb 81 3a
       0.0013958012 0.0005877539 -0.002165453 0.0009912213
0003e0 2c 37 9f bb ac 04 9c bb ba bb 0e 3a 13 7c 99 bb
       -0.004858872 -0.004761299 0.00054448436 -0.0046839803
0003f0 94 8d e2 3a ff d1 c2 3a ac 5d a4 3b 52 4a f9 3a
       0.0017284625 0.0014863609 0.0050160494 0.0019019342

exp_avg_sq f4 [10, 50]
000000 39 e1 03 3a 8c f7 1d 39 de f2 46 3a ef d0 ce 3a
       0.0005030814 0.00015064905 0.00075892906 0.001577882
000010 78 54 d9 39 73 c9 18 39 55 e7 11 3b dd 12 ca 3a
       0.000414524 0.00014570895 0.0022263129 0.0015416999
000020 63 0e 9a 39 15 9d c2 3a 69 d1 74 39 20 48 74 3a
       0.00029383888 0.001484784 0.00023347665 0.0009318609
000030 93 c0 c5 39 da c8 dc 3a 55 7f 7d 3b da 49 34 39
       0.00037718247 0.0016844526 0.0038680632 0.0001719365
000040 b3 2e 95 3a 13 2e 3b 3a bb 09 28 3b 38 9f 42 3a
       0.0011381715 0.00071403495 0.0025640565 0.0007424238
000050 53 ea eb 39 aa 99 1c 3b bb 93 6f 3a 04 2b 76 3a
       0.00044997278 0.0023895302 0.000913914 0.0009390565
000060 7c 16 3b 39 03 03 7b 39 31 df 62 3a 7b 97 79 3a
       0.00017842086 0.00023938347 0.0008654474 0.00095211685
000070 e7 05 52 3b ef af 38 3a 42 73 36 3b 22 93 07 3a
       0.0032046975 0.0007045259 0.0027839695 0.0005171766
000080 68 bb 92 39 4f 39 a5 3a 9d 00 63 3a 2b 52 01 3b
       0.0002798692 0.001260558 0.0008659454 0.0019732814
000090 15 b2 a8 3a 91 00 e1 3a 81 9b 40 34 3c 60 4a 3a
       0.0012870455 0.0017166306 1.7937965e-07 0.00077200285
0000a0 27 0b 94 39 2e e6 c7 39 67 9a 75 39 42 d1 a3 3a
       0.0002823707 0.00038127735 0.0002342254 0.0012498277
0000b0 1f 3b 53 3b a0 c6 61 37 71 ac b7 3a 5c 63 f3 38
       0.0032231284 1.3457291e-05 0.0014013184 0.0001160565
0000c0 d3 1f 4a 3b af 85 a1 3a 8e cb 3e 39 e4 18 b0 39
       0.0030841723 0.0012323166 0.00018195642 0.0003358788
0000d0 e0 40 6f 38 33 ae 31 3a 83 a5 a4 37 a1 af d8 39
       5.704246e-05 0.0006777972 1.9627396e-05 0.00041329584
0000e0 3f 35 63 3a 5e 13 29 3a e4 15 32 39 72 20 1a 3a
       0.0008667297 0.00064497243 0.00016983558 0.00058794685
0000f0 47 c0 ed 39 ce 90 a4 3a 0b db 49 39 25 a7 ec 37
       0.0004534742 0.0012555362 0.00019250454 2.8211225e-05
000100 02 43 4d 39 b5 d8 b9 38 1d e5 83 39 46 9f e3 3a
       0.00019575286 8.861852e-05 0.0002515697 0.0017366193
000110 91 04 64 39 b8 87 9c 39 dc 9b d5 39 ed 27 39 39
       0.00021745476 0.00029855757 0.0004074265 0.00017657848
000120 c0 a1 86 38 95 cb ad 39 47 44 e0 39 f5 a8 5a 3a
       6.419746e-05 0.00033148812 0.0004277548 0.00083412166
000130 f2 fb 5d 39 d1 83 ad 3a 55 f1 3a 3a 8e 7f e0 38
       0.0002117006 0.0013238137 0.0007131298 0.00010704911
000140 fc 87 df 39 35 51 8e 39 7b 6f 29 39 9c 40 cc 39
       0.0004263519 0.00027144855 0.00016158626 0.0003895805
000150 3b dc 75 39 6e a3 93 39 0e d7 bb 3a d0 c1 f1 3a
       0.00023447063 0.0002815979 0.0014331059 0.0018444601
000160 5d 64 b7 33 4f e3 50 39 54 38 11 39 20 cb 87 38
       8.5398575e-08 0.00019921105 0.00013849261 6.4751366e-05
000170 cc 3f 00 3b ad 51 b7 37 ac 2c 5b 3a b2 31 96 38
       0.0019569276 2.1853333e-05 0.00083608436 7.161814e-05
000180 50 62 16 3a e9 8c 37 3a 9a 72 16 39 7e ba af 38
       0.00057366956 0.0007001893 0.00014347807 8.379387e-05
000190 35 42 7e 3a e4 e4 91 3a 40 c9 ce 3a e6 f5 b1 3b
       0.00096991967 0.0011130837 0.001577653 0.0054309247
0001a0 d1 62 17 3a 65 3f b6 39 a1 33 90 3b 61 f9 8c 3b
       0.00057749177 0.00034760978 0.004400686 0.004302189
0001b0 b2 b3 d8 39 40 2b 54 3b 3a a9 0d 3b 7e 15 8b 3b
       0.00041332614 0.0032374412 0.002161576 0.0042445054
0001c0 b9 1a 85 3b ed b7 e7 3a 4d 1d 8c 3b 74 7f a4 3a
       0.0040620235 0.0017678716 0.004275954 0.0012550191
0001d0 9b 6b 89 3b f3 64 91 3b e9 64 8b 3b 6b 76 a0 3a
       0.004193736 0.004437083 0.004253973 0.0012242323
0001e0 3f e7 c0 3a 7d 05 4d 3b 43 f9 9e 3a a9 da 7f 3b
       0.0014717354 0.003128379 0.0012128729 0.0039040244
0001f0 27 3d ab 3a df 7d bb 3a 13 9f f7 3a f4 ce 6e 3b
       0.001306449 0.001430448 0.0018892012 0.0036439272
000200 07 29 d4 3b a6 e7 ad 3a 50 b1 b8 3b 07 4e 3e 3b
       0.0064746174 0.0013267889 0.0056363717 0.0029038207
000210 d7 0b 59 3a 96 8c 6e 3b fd 94 17 3b fe cb 38 3b
       0.00082796573 0.0036399714 0.0023129575 0.002819776
000220 e3 a1 e0 3b 58 e9 ce 3b e8 c0 b2 35 f6 07 ac 3a
       0.006855236 0.006314438 1.3318177e-06 0.0013124931
000230 6b 77 d3 3a 04 45 34 3a 0d 87 55 3a 68 4a b9 3a
       0.0016133612 0.0006876739 0.00081454293 0.0014136555
000240 1e dd f0 3b ad ed 3f 39 b3 18 57 3b 21 c3 14 3b
       0.007350578 0.0001830372 0.0032821118 0.0022699314
000250 b2 f6 5b 3b 13 f1 d0 3a a7 bc 48 3a 37 9d 5d 3a
       0.003356379 0.0015940986 0.0007657506 0.0008453908
000260 43 39 c1 3a fc f3 9c 3b 9c 78 a8 39 60 09 22 3a
       0.0014741797 0.0047898274 0.00032133318 0.00061812066
000270 f1 29 7c 3b d9 bf bb 3b 8c 1c 05 3a bf 67 80 3b
       0.0038477147 0.005729657 0.0005077801 0.0039186175
000280 82 1d 9c 3a 1b ac b8 3b 45 78 df 3a c9 59 1a 3b
       0.001191065 0.005635751 0.0017049393 0.0023552051
000290 b7 ec 55 3b 9b fd 1e 3b ac 68 cb 3b 2b 40 dd 3b
       0.0032642314 0.0024260047 0.006207546 0.006752034
0002a0 6b 49 8d 3b 12 60 b4 3a 7f 60 05 3b 25 55 3d 3b
       0.0043117306 0.0013761541 0.0020351706 0.0028889861
0002b0 a8 35 41 3a 4e 59 3a 3b 98 bb 30 3a a2 55 4b 3a
       0.0007370361 0.0028434577 0.0006741821 0.0007756596
0002c0 e2 09 64 3b 2b 2c 8f 3b 8c 6c d0 3b 5c ea 84 39
       0.003479593 0.004369279 0.006360596 0.00025351613
0002d0 0f 90 cd 3b 3b 14 a7 3b a4 fe ab 3a ba 2d ac 3b
       0.0062732766 0.005098847 0.0013122153 0.0052544745
0002e0 71 ca 66 3b d4 c7 46 3b 35 b1 11 3c d3 90 1a 3c
       0.003521588 0.003033151 0.008892347 0.009433943
0002f0 15 67 25 34 31 1d 03 3b 87 db b2 3a 5f 2c fd 39
       1.5404324e-07 0.0020006413 0.0013645747 0.0004828898
000300 03 0b 9f 3a b6 2a f0 39 5d 32 07 3c a0 02 1e 3a
       0.0012134019 0.0004580819 0.008251754 0.0006027613
000310 d1 28 a6 3b 1e 65 8b 3b 1b c6 19 3b 92 3e 88 3a
       0.0050707837 0.0042539975 0.0023464027 0.0010394624
000320 d4 88 e0 39 e0 0f 2d 39 6e a8 20 39 d5 dd 1e 39
       0.00042826554 0.0001650448 0.00015321534 0.00015150693
000330 7d c1 dc 3a 11 08 02 3a ab 86 2c 3a 3e 93 a2 3a
       0.0016842332 0.00049603084 0.00065813464 0.0012403501
000340 ff ed 84 39 fb 09 75 3a 97 42 9e 39 1f 8f 64 3a
       0.00025354323 0.00093474955 0.00030185722 0.00087188365
000350 c6 96 61 3a cd de 64 3a 18 18 ac 3b df b0 6f 38
       0.0008605536 0.00087307097 0.0052518956 5.7146764e-05
000360 b3 86 30 39 15 d7 fa 3a ec e1 c1 3a 07 21 bb 39
       0.00016834847 0.0019137586 0.0014792061 0.00035692027
000370 88 53 ec 3a ff 3e 1c 3b 52 1b 33 3a 00 30 89 38
       0.0018030265 0.002384126 0.0006832379 6.54161e-05
000380 0e b4 2a 3a cc a2 06 3a 0c ca e2 3a d4 2f 89 3a
       0.00065118156 0.0005135953 0.0017302646 0.0010466524
000390 7b 31 66 3a 3c 79 62 3b 3a a0 47 3b 1a a9 8d 39
       0.0008781177 0.0034557125 0.0030460493 0.00027019606
0003a0 28 1e 57 39 9a 11 3e 3a df 6c 02 3b 0c fa 8b 3b
       0.00020515232 0.00072505476 0.0019901318 0.0042717513
0003b0 af 90 97 39 9f 94 98 3b fa 46 ae 34 b7 e9 11 3b
       0.00028908762 0.004656389 3.2461668e-07 0.002226455
0003c0 20 9c a8 38 3b b6 c4 39 a2 88 e6 3a 12 c6 46 3b
       8.039945e-05 0.00037519805 0.0017588327 0.0030330461
0003d0 39 5b d0 3a 5c 70 be 39 50 a6 98 3b 8a 98 cd 39
       0.0015896327 0.00036323338 0.004658498 0.00039214297
0003e0 74 97 a0 3b 54 ff 4b 3b 4b c4 2a 3a 80 41 a2 3a
       0.004900867 0.003112753 0.0006514235 0.001237914
0003f0 91 c3 9e 3a ba 2d a5 3b e7 28 ec 39 d2 45 b1 39
       0.0012112727 0.0050408514 0.00045043902 0.0003381209

exp_avg f4 [10]
000000 d7 06 25 bb 93 81 76 ba c9 78 be b9 36 0f 15 3a
       -0.0025181079 -0.00094034633 -0.00036329616 0.00056861655
000010 01 50 19 bb 7b 86 e2 b9 59 2c bd 3a 32 0b f2 3b
       -0.0023393633 -0.00043206275 0.0014432772 0.0073865885
000020 fc fe 46 3b 0b 6c bf bb
       0.0030364385 -0.005841737

exp_avg_sq f4 [10]
000000 97 11 5c 39 05 9b 0c 39 e5 9f 09 3a 90 4b 1d 3a
       0.00020987388 0.0001340919 0.00052499614 0.00060003344
000010 cc 1f a0 39 bb 9a 20 3a 7a fe fe 39 50 87 cb 39
       0.0003054127 0.0006126572 0.00048636255 0.00038819993
000020 a6 3f 09 3a f3 cc 03 3a
       0.00052356196 0.0005027793
