lightning_logs/version_1/checkpoints/epoch=2-step=2346.ckpt (torch, 483954 bytes, 12 tensors)

fc1.weight f4 [50, 784]
-0.002681218 -0.026919182 0.020694066 -0.01835202 -0.018090777 0.031248067 0.0014751963 -0.013495332
0.015701063 -0.012441849 0.008228932 0.0066500753 0.06181891 0.07482209 0.0660525 0.06311743
0.022630472 -0.015622973 -0.015403807 -0.02225371 -0.035626825 -0.0025023855 0.012404762 -0.0122159645
0.018045835 -0.010943307 -0.011515027 0.031931963 0.0022203363 0.028288912 -0.0086201355 -0.021835998
0.060080107 0.045672182 0.1410045 0.11510302 0.09918909 0.1865584 0.11906667 0.1130156
0.16775866 0.08337675 0.015022527 0.16354856 0.1612117 0.13952288 0.13319299 0.08979767
0.13002425 0.067922086 0.10498749 0.05044465 0.0151261985 -0.03229139 0.0061527155 -0.013613092
0.022478163 0.01454135 0.016288972 0.100915655 0.025995608 0.028393416 0.070768364 0.19651327
0.23668626 0.27787748 0.23722279 0.1945559 0.19273792 0.22311775 0.1512082 0.24881476
0.21880585 0.19628209 0.15218046 0.21876046 0.16611102 0.14647801 0.11074589 0.18366729
0.119503595 0.05468399 0.010024037 -0.010340862 0.024933308 0.02167064 0.06058549 0.1423002
0.10651657 -0.04928123 0.10661768 0.092021756 0.069309816 0.17973109 0.14740741 0.12302337
0.1476232 0.21079841 0.15663545 0.08107008 0.09997674 0.07840844 0.056783848 0.04364688
0.043109883 0.049080297 0.12836735 0.07919677 0.16282582 0.036012467 0.041349463 0.0323175
0.0039428733 -0.05108192 -0.06397991 -0.08553663 -0.03077891 -0.008203543 0.031844072 0.032759815
0.009950453 0.08643516 0.09232146 0.027349668 0.042102657 0.05355356 0.07609253 0.0596168
0.009625647 0.06506763 0.06934758 0.06459244 0.0068806848 0.072400145 0.028899677 0.10307235
-0.024145897 -0.03755163 -0.026270594 0.0320081 0.013130542 0.0067192055 0.03296111 -0.024478748
-0.07362619 -0.14293677 -0.09605863 -0.077077165 -0.034824796 -0.019847853 0.03473135 -0.019772783
-0.0028049133 0.009095742 0.005318215 0.025195364 0.066815756 0.064256735 0.05811249 0.07521108
0.08718245 0.13641244 0.1310075 0.087646164 0.124998495 -0.02302738 0.07077781 0.04113077
-0.022623966 0.048313916 -0.06933993 -0.014872695 -0.08731055 -0.14667104 -0.09117912 -0.10354743
-0.13355161 -0.06800057 -0.09339762 -0.036772683 -0.012198825 0.0043314886 0.032728653 -0.014968514
0.014877096 -0.025865618 -0.0024881898 -0.0109723415 -0.029360231 0.026231648 0.026712203 0.009540485
0.12150471 0.04388537 0.08825406 0.044966444 -0.0348828 0.063158125 -0.03481822 -0.110550955
-0.14998372 -0.17986485 -0.17637564 -0.1391805 -0.109776594 -0.09223515 -0.052777722 -0.004702021
-0.0011752984 0.033676635 0.0019826083 -0.048817534 -0.0570406 -0.045085654 -0.07532822 -0.04754804
-0.053680666 -0.03193536 -0.045438465 -0.083889686 0.008133572 0.024076711 0.040205255 0.060200173
0.03780791 0.037003662 -0.053258695 -0.07986681 -0.1879814 -0.1960941 -0.1675605 -0.13345958
-0.06964052 -0.07255695 0.050266825 0.010434422 0.042985886 0.03962778 0.02559086 -0.014970291
-0.061239205 -0.057573076 -0.12652783 -0.10431861 -0.08892279 -0.063794404 -0.07375982 -0.021700114
-0.058574677 0.049037203 -0.03638355 -0.005126729 0.027827632 -0.009514068 0.011801773 -0.09323934
00000000: 60b7 2fbb 9e85 dcbc 9a86 a93c fa56 96bc
00000010: 1c33 94bc f2fb ff3c 605b c13a 861b 5dbc
00000020: 849f 803c e6d8 4bbc a4d2 063c e0e8 d93b
00000030: d335 7d3d 533c 993d 8846 873d b643 813d
00000040: 8a63 b93c 80f7 7fbc 4060 7cbc 6a4d b6bc
00000050: 6fed 11bd 10ff 23bb 583d 4b3c 7825 48bc
00000060: dcd4 933c 8e4b 33bc 86a9 3cbc 17cb 023d
00000070: 1083 113b 26be e73c 783b 0dbc 68e1 b2bc
00000080: 8f16 763d c112 3b3d 7c63 103e 22bb eb3d
00000090: a623 cb3d 2a09 3f3e 3ad9 f33d b974 e73d
000000a0: edc8 2b3e 6ec1 aa3d 0c21 763c 4679 273e
000000b0: ae14 253e 16df 0e3e be63 083e d7e7 b73d
000000c0: 1425 053e bc1a 8b3d ae03 d73d 0d9f 4e3d
000000d0: e0d3 773c fa43 04bd b89c c93b 7209 5fbc
000000e0: 2024 b83c d83e 6e3c 7370 853c deac ce3d
000000f0: bef4 d43c 4f99 e83c 01ef 903d c63a 493e
00000100: e25d 723e f545 8e3e 88ea 723e a939 473e
00000110: 175d 453e fb78 643e 53d6 1a3e 4cc9 7e3e
00000120: a40e 603e 2cfe 483e 32d5 1b3e be02 603e
00000130: 0219 2a3e 55fe 153e bece e23d 4713 3c3e
00000140: 4dbe f43d 52fc 5f3d dc3b 243c b86c 29bc
00000150: f040 cc3c a086 b13c 7e28 783d 25b7 113e
00000160: 5c25 da3d 1ddb 49bd 5f5a da3d e775 bc3d
00000170: 4ef2 8d3d 6d0b 383e f8f1 163e adf3 fb3d
00000180: 892a 173e 8adb 573e 0b65 203e 1208 a63d
00000190: 9bc0 cc3d 9b94 a03d 2e96 683d 12c7 323d
000001a0: fd93 303d 6c08 493d bb72 033e eb31 a23d
000001b0: d0bb 263e cf81 133d 0e5e 293d 5b5f 043d
000001c0: 3833 813b 463b 51bd e607 83bd d42d afbd
000001d0: 0d24 fcbc 2768 06bc ee6e 023d 282f 063d
000001e0: 3a07 233c eb04 b13d 0913 bd3d 690c e03c
000001f0: d673 2c3d fa5a 5b3d 66d6 9b3d bf30 743d
00000200: e4b4 1d3c 2d42 853d 1b06 8e3d 0b49 843d
00000210: 5e77 e13b 8746 943d 04bf ec3c 9917 d33d
00000220: 9ecd c5bc bdcf 19bd 6e35 d7bc ed1a 033d
00000230: 7c21 573c c82c dc3b 3b02 073d a887 c8bc
00000240: 54c9 96bd 045e 12be 63ba c4bd a2da 9dbd
00000250: 72a4 0ebd f797 a2bc 7642 0e3d 88fa a1bc
00000260: a3d2 37bb 4f06 153c 6c44 ae3b 8266 ce3c
00000270: b3d6 883d 0999 833d 5d07 6e3d 4408 9a3d
00000280: b68c b23d b4af 0b3e d526 063e d57f b33d
00000290: 36ff ff3d eba3 bcbc f5f3 903d bd78 283d
000002a0: e555 b9bc d0e4 453d 1802 8ebd 9bac 73bc
000002b0: e0cf b2bd ef30 16be 1ebc babd ad10 d4bd
000002c0: c1c1 08be e243 8bbd 4047 bfbd f49e 16bd
000002d0: 95dd 47bc 29ef 8d3b 7b0e 063d 803e 75bc
000002e0: 10bf 733c 22e4 d3bc e610 23bb 56c5 33bc
000002f0: de84 f0bc c1e3 d63c 8dd3 da3c b24f 1c3c
00000300: 76d7 f83d 25c1 333d 8bbe b43d bc2e 383d
00000310: 44e1 0ebd 0c59 813d 8d9d 0ebd 8a68 e2bd
00000320: 5595 19be 7e2e 38be d19b 34be 5585 0ebe
00000330: 8dd2 e0bd c8e5 bcbd 742d 58bd 6913 9abb
00000340: 780c 9aba 83f0 093d a6ee 013b e5f4 47bd
00000350: 67a3 69bd bcab 38bd af45 9abd bcc1 42bd
00000360: 42e0 5bbd a7ce 02bd af1d 3abd 5bce abbd
00000370: ac42 053c 863c c53c 44ae 243d 7594 763d
00000380: 78dc 1a3d 2791 173d ca25 5abd 3691 a3bd
00000390: 327e 40be e4cc 48be fb94 2bbe a1a9 08be
000003a0: b09f 8ebd bd98 94bd 96e4 4d3d 23f5 2a3c
000003b0: f811 303d bd50 223d eca3 d13c f445 75bc
000003c0: f6d5 7abd bfd1 6bbd 8390 01be ffa4 d5bd
000003d0: 271d b6bd a4a6 82bd 630f 97bd 70c4 b1bc
000003e0: 00ec 6fbd 3cdb 483d eb06 15bd 1ffe a7bb
000003f0: c6f6 e33c e5e0 1bbc 395c 413c 44f4 bebd

fc1.bias f4 [50]
0.2174799 -0.095041096 0.043918777 0.27093124 0.05673796 0.07247513 0.21800905 0.032665376
-0.066073686 0.045746457 -0.009256995 0.04625534 -0.08659357 -0.0028153742 -0.052222054 0.031117816
0.14442907 -0.07149291 -0.09230944 0.14729856 0.071533814 0.14961793 -0.059378095 -0.035225973
-0.10010913 0.002958426 0.089135766 0.019467873 -0.043922566 -0.015858933 0.28675452 0.042653877
-0.16860999 -0.051916063 0.14275482 0.041167505 0.20753403 0.063598216 0.03418763 -0.15541163
0.13993847 0.04640312 0.22650068 0.1807328 0.13486877 0.07732023 -0.018353876 -0.050873984
-0.10135076 0.015219742
00000000: 0db3 5e3e e8a4 c2bd 2de4 333d 80b7 8a3e
00000010: 1066 683d d76d 943d c43d 5f3e 21cc 053d
00000020: a451 87bd a360 3b3d a7aa 17bc 3d76 3d3d
00000030: f857 b1bd 2482 38bb cbe6 55bd caea fe3c
00000040: 37e5 133e e06a 92bd bb0c bdbd 6fd5 163e
00000050: 5280 923d 7135 193e 7236 73bd 1c49 10bd
00000060: 0406 cdbd 27e2 413b d08c b63d 177b 9f3c
00000070: 26e8 33bd 98ea 81bc 7dd1 923e d5b5 2e3d
00000080: 19a8 2cbe f0a5 54bd 522e 123e 429f 283d
00000090: cd83 543e c83f 823d 5408 0c3d 3a24 1fbe
000000a0: 084c 0f3e 3311 3e3d cbef 673e 0512 393e
000000b0: 0a1b 0a3e 125a 9e3d de5a 96bc 3d61 50bd
000000c0: fd90 cfbd 3a5c 793c

fc2.weight f4 [10, 50]
-0.034230415 0.12820041 -0.2113836 -0.2889708 -0.32020485 -0.42436755 -0.52023 0.18407433
-0.26301768 0.17321016 0.16833243 -0.11150462 -0.13080958 0.27539748 -0.07485641 0.08894539
-0.3403411 -0.19989793 0.23383217 0.14526235 -0.14415394 0.09083464 0.26386708 -0.009901766
-0.019613974 -0.22480462 0.04581936 -0.26765066 -0.13416313 -0.08803278 0.14280713 -0.006739704
0.07601483 0.033355888 -0.25810683 0.15909447 -0.039999433 -0.1948452 -0.014301479 0.18981753
0.12760743 0.14710872 -0.0038012748 0.13757886 0.028154667 -0.22029291 -0.2490458 0.21936584
-0.15844868 0.28935054 0.2787762 -0.16853677 0.21020658 0.1708815 0.21397091 -0.13964458
0.030246768 0.27731428 0.2111259 -0.29275924 0.23193459 0.14876074 -0.007155238 -0.1909375
-0.31976572 -0.25310636 0.065913185 -0.14213167 0.23630866 0.08313356 0.28777164 -0.1619885
-0.12870713 0.05488894 -0.029203588 -0.28538817 -0.41921368 0.078815356 -0.005753884 -0.35325062
0.17578112 -0.26566818 -0.28532177 -0.2665444 0.14893223 0.2257362 0.20255324 0.20893736
0.21380632 -0.32165858 -0.2818136 0.10007546 -0.04037666 0.11190744 -0.4405006 0.17470768
-0.37188548 0.017363343 0.14616752 0.21419989 0.24122319 -0.16616485 -0.2905874 -0.031870052
0.11770831 -0.4865913 0.38628316 -0.11076913 0.053889923 0.24205734 -0.28403834 0.14677991
-0.5916096 0.26879567 0.0216728 -0.20627096 -0.084363125 0.17041941 0.03226724 -0.13262722
-0.33391643 0.14624867 0.06716595 0.099996835 0.13719359 -0.19897799 -0.0687734 0.0058658337
-0.1037355 0.3133534 -0.27498394 0.013194112 0.054296494 -0.11312225 -0.11534786 -0.26807716
0.10651243 0.16950703 0.0129910745 -0.15923326 -0.22056575 0.06507183 0.2976259 -0.7283726
0.060294 0.27819985 -0.14015119 0.20190096 0.034817062 0.17736426 -0.173675 0.24135572
0.15819995 -0.24403092 0.23384416 0.19103281 -0.13246001 0.2512963 -0.12538072 -0.10812724
0.33653027 0.055912264 -0.4200908 0.025266943 0.09826906 -0.0053854943 0.20262785 -0.07154336
-0.30553254 -0.18542227 -0.3846917 0.09930584 -0.07597688 -0.1020748 0.12613496 -0.15828691
-0.26429695 0.18613759 0.09238804 0.29632846 -0.37108815 0.1785297 0.16196005 -0.010436092
0.17204589 -0.15153143 -0.20422255 0.028248692 -0.11094343 -0.039536927 -0.2459841 0.19035299
-0.13317509 0.10278807 -0.1971606 -0.17419758 -0.25144947 0.020770663 0.141931 -0.34239608
-0.2342029 -0.41538724 0.24978738 0.33265325 -0.027672883 -0.2306332 -0.56186825 -0.2195365
-0.34723803 -0.08723977 -0.15284961 -0.035601467 -0.09171423 -0.30598518 0.17928025 -0.15269707
0.042975746 0.21953341 -0.4208486 -0.28958356 0.3560643 0.26475763 -0.5435858 0.019503364
-0.07244557 0.058262713 0.23236874 -0.08881414 -0.008177573 -0.31114 0.0065620188 -0.20185518
-0.16402642 0.21911459 0.26407447 0.08366001 -0.013268828 -0.28741124 0.19526464 -0.053787813
-0.071563974 -0.5415394 -0.1165036 0.0046231793 0.17032243 -0.035977244 0.059379317 -0.27947298
-0.26840225 0.38925582 0.16008346 -0.033067103 0.1440944 0.1906346 -0.19902872 0.38161793
00000000: 3135 0cbd f846 033e f174 58be fbf3 93be
00000010: e4f1 a3be b446 d9be cb2d 05bf fb7d 3c3e
00000020: 41aa 86be 015e 313e 565f 2c3e 895c e4bd
00000030: f2f2 05be e600 8d3e 514e 99bd 0029 b63d
00000040: 3041 aebe 0bb2 4cbe b371 6f3e a7bf 143e
00000050: 179d 13be 8307 ba3d 9619 873e 043b 22bc
00000060: 7cad a0bc 2f33 66be 15ad 3b3d 8209 89be
00000070: 0f62 09be 884a b4bd 083c 123e bcd8 dcbb
00000080: aaad 9b3d 2fa0 083d 9426 84be a9e9 223e
00000090: 72d6 23bd 8085 47be c050 6abc 875f 423e
000000a0: 86ab 023e aba3 163e cf1e 79bb 79e1 0c3e
000000b0: 9ea4 e63c 7794 61be dd05 7fbe 70a1 603e
000000c0: 5f40 22be c125 943e c1bb 8e3e e794 2cbe
000000d0: 6540 573e 8ffb 2e3e 311b 5b3e fdfe 0ebe
000000e0: 12c8 f73c 23fc 8d3e 6331 583e 8ae4 95be
000000f0: 4380 6d3e bc54 183e 7d76 eabb 1f85 43be
00000100: 55b8 a3be 2897 81be 7efd 863d f78a 11be
00000110: e6fa 713e ee41 aa3d ce56 933e 50e0 25be
00000120: cdcb 03be 3ad3 603d 5d3c efbc 661e 92be
00000130: 2da3 d6be f269 a13d 148b bcbb 44dd b4be
00000140: f7ff 333e a905 88be b215 92be 8278 88be
00000150: b181 183e 6427 673e 1e6a 4f3e adf3 553e
00000160: 0bf0 5a3e 6fb0 a4be df49 90be 5df4 cc3d
00000170: ff61 25bd ba2f e53d 4b89 e1be 92e6 323e
00000180: c667 bebe 923d 8e3c f0ac 153e 3757 5b3e
00000190: 3603 773e 1e27 2abe dfc7 94be 2c8a 02bd
000001a0: 0e11 f13d 7f22 f9be e8c6 c53e edda e2bd
000001b0: aebb 5c3d e1dd 773e 796d 91be 794d 163e
000001c0: ba73 17bf 969f 893e 288b b13c b238 53be
000001d0: 93c6 acbd 6d82 2e3e a72a 043d 6ecf 07be
000001e0: 18f7 aabe 36c2 153e 4d8e 893d 24cb cc3d
000001f0: 7a7c 0c3e e3c0 4bbe 11d9 8cbd 2e36 c03b
00000200: 4773 d4bd db6f a03e b2ca 8cbe 1e2c 583c
00000210: 0066 5e3d a3ac e7bd 803b ecbd 6941 89be
00000220: 3023 da3d 4093 2d3e 84d8 543c 0b0e 23be
00000230: fddb 61be 6144 853d 6c62 983e a076 3abf
00000240: d7f6 763d 3670 8e3e cb83 0fbe 20bf 4e3e
00000250: 569c 0e3d fa9e 353e dcd7 31be f425 773e
00000260: 2bff 213e 3ee3 79be d874 6f3e 1b9e 433e
00000270: 99a3 07be e9a9 803e ce63 00be d071 ddbd
00000280: b24d ac3e 4204 653d 2416 d7be 9ffc ce3c
00000290: 4a41 c93d cd78 b0bb ad7d 4f3e 5385 92bd
000002a0: c36e 9cbe 56df 3dbe 4ff6 c4be dc60 cb3d
000002b0: c499 9bbd 980c d1bd 8629 013e f715 22be
000002c0: ee51 87be da9a 3e3e f135 bd3d 5db8 973e
000002d0: 44ff bdbe 7dd0 363e dbd8 253e 24fc 2abc
000002e0: cc2c 303e 0e2b 1bbe b71f 51be cd69 e73c
000002f0: 4f36 e3bd 79f1 21bd 42e3 7bbe e5eb 423e
00000300: 0d5f 08be 8d82 d23d 78e4 49be da60 32be
00000310: fcbd 80be 3d27 aa3c 5c56 113e 8a4e afbe
00000320: e3d2 6fbe a3ad d4be 43c8 7f3e 8751 aa3e
00000330: 3eb2 e2bc 1c2b 6cbe 99d6 0fbf 2dce 60be
00000340: 2fc9 b1be c4aa b2bd 9c84 1cbe d8d2 11bd
00000350: acd4 bbbd 17aa 9cbe 3e95 373e 9f5c 1cbe
00000360: 5607 303d 5ecd 603e 7879 d7be 4c44 94be
00000370: 0f4e b63e 508e 873e 7028 0bbf 85c5 9f3c
00000380: 585e 94bd e2a4 6e3d 12f2 6d3e 30e4 b5bd
00000390: 3afb 05bc be4d 9fbe 3406 d73b 20b3 4ebe
000003a0: 8bf6 27be 935f 603e c534 873e f055 ab3d
000003b0: 8065 59bc 9127 93be 74f3 473e 9c50 5cbd
000003c0: 2290 92bd 53a2 0abf 7099 eebd 0a7e 973b
000003d0: 0169 2e3e e05c 13bd ba37 733d 1517 8fbe
000003e0: 056c 89be 8a4c c73e ebec 233e 5f71 07bd
000003f0: 7b8d 133e b735 433e 2fce 4bbe 6d63 c33e

fc2.bias f4 [10]
-0.11397624 0.015141131 0.1645595 -0.038094357 0.08996117 0.27312377 -0.08536928 0.076671526
-0.3105141 0.07913932
00000000: 606c e9bd 8212 783c 4982 283e d408 1cbd
00000010: 903d b83d e1d6 8b3e 17d6 aebd f605 9d3d
00000020: b4fb 9ebe cc13 a23d

exp_avg f4 [50, 784]
0.0 0.0 0.0 0.0 0.0 0.0 0.0 0.0
0.0 0.0 0.0 0.0 -1.246859e-32 -2.6931074e-31 -2.6930954e-31 -1.1221237e-32
0.0 0.0 0.0 0.0 0.0 0.0 0.0 0.0
0.0 0.0 0.0 0.0 0.0 0.0 0.0 0.0
-1.5081451e-12 -4.5279375e-12 -1.2921205e-09 -2.1910096e-09 -8.662961e-06 -1.9430277e-06 -4.069838e-07 -6.3931157e-07
-3.877106e-09 -1.7672699e-08 -1.12218416e-07 -1.62585e-07 -1.421592e-06 -6.983767e-07 -1.6172565e-07 -1.9173905e-07
-9.95025e-09 -8.045109e-09 -6.157149e-09 -1.9304364e-10 0.0 0.0 0.0 0.0
0.0 0.0 -5.4882663e-27 -1.6935407e-18 -9.426139e-13 -3.6883765e-08 -2.7310887e-06 -7.191018e-06
-1.3484886e-05 -5.4474635e-06 9.3305306e-07 3.297245e-06 -2.3244719e-07 -9.161921e-06 -1.0020214e-05 -5.4932425e-06
-1.5043602e-05 -2.1804182e-05 -1.041677e-05 -2.1391172e-06 -2.31195e-07 -2.4045e-07 -1.3411507e-07 -1.7395353e-08
-2.670888e-08 -1.5845542e-08 0.0 0.0 0.0 0.0 -1.2137445e-26 -7.7542755e-12
-1.298832e-16 -2.8577395e-07 -1.1532409e-05 -2.0885169e-05 -2.9050962e-05 -1.4705412e-05 1.547309e-05 3.5255747e-05
-6.455107e-05 -1.5458481e-05 -0.00020263565 -0.0002318408 -7.1742885e-05 1.3686585e-05 9.250275e-05 0.00024032069
0.00020917185 8.3047824e-05 1.5435884e-05 1.12045285e-07 1.1646973e-06 2.5848246e-08 5.8681073e-09 0.0
0.0 1.1134169e-08 2.9072458e-22 3.950152e-12 -6.1960377e-06 -4.8372818e-05 -7.214957e-05 -7.735468e-05
-2.6785387e-05 -9.446526e-05 -9.346445e-05 -0.0002114618 -0.00032210434 -0.00034686548 -0.00026710203 -0.00017805284
0.00028241694 0.0004999272 0.0004985342 0.00032818463 0.00042014138 5.6691722e-05 6.912292e-05 0.00010855068
8.6492764e-05 2.037224e-05 1.505569e-07 1.35803564e-14 0.0 0.0 -8.4670404e-12 5.3124453e-11
-5.84861e-06 -1.5530024e-05 -3.1897598e-05 -4.1461848e-05 -0.0001755766 -3.3802007e-05 1.103444e-05 -0.00020320882
-0.00076694845 -0.0011839281 -0.0011664024 -0.00094613066 -0.00032598127 -0.0003129023 4.1398413e-05 0.0006948194
0.0006972715 0.00037163738 0.00016164452 9.686883e-05 8.580696e-05 1.04683295e-05 -3.8910525e-06 1.2270433e-17
0.0 2.1705802e-16 -1.7330511e-07 -5.826684e-09 -3.4077248e-06 -2.4229212e-05 -6.957383e-05 -0.00020691188
-0.00037784822 4.031321e-05 -5.050949e-05 -0.00051744434 -0.0009733492 -0.00125241 -0.0004618438 -0.00018463699
-0.00043530198 -0.00035497348 -0.00020729494 0.00019062177 0.00076000014 0.00039152187 0.000113437454 0.00021703301
8.227693e-05 -2.8736284e-05 -3.2343964e-05 -1.9060557e-05 0.0 1.7280608e-15 -7.625555e-07 4.966798e-09
-1.1588511e-05 -0.00016364506 -0.0002725494 -0.00036055953 -0.00032056964 9.0032314e-05 -0.0003727908 -0.0012236047
-0.0019212235 -0.0013540752 -0.0006462259 -0.00088011596 -0.0014080906 -0.0013595358 -0.0007460467 -0.00025962054
-0.0004588169 -0.00011765637 -0.00027374626 -0.00018901663 -0.00014293184 -0.00012526967 -1.683973e-05 -1.2341536e-05
-8.304157e-13 -7.87246e-08 -5.2045755e-07 1.1285245e-07 -0.00017409837 -0.00032534983 -0.0003302988 -0.0002729193
-0.00020568293 -0.000120233744 -0.00042106185 -0.0016660767 -0.0019919248 -0.001610587 -0.0009847044 -0.0010822975
-0.0011489561 -0.0010995689 -0.0002216644 -0.0003648753 -0.00097251445 -0.0009382645 -0.00032331745 1.1974672e-06
0.000118697855 9.468e-05 3.1816978e-06 1.0445512e-08 0.0 3.3961922e-12 -1.2647936e-07 3.8859383e-07
00000000: 0000 0000 0000 0000 0000 0000 0000 0000
00000010: 0000 0000 0000 0000 0000 0000 0000 0000
00000020: 0000 0000 0000 0000 0000 0000 0000 0000
00000030: 337b 818a ecca ae8c b9ca ae8c 540e 698a
00000040: 0000 0000 0000 0000 0000 0000 0000 0000
00000050: 0000 0000 0000 0000 0000 0000 0000 0000
00000060: 0000 0000 0000 0000 0000 0000 0000 0000
00000070: 0000 0000 0000 0000 0000 0000 0000 0000
00000080: a740 d4ab 0950 9fac 7396 b1b0 a690 16b1
00000090: 2257 11b7 f664 02b6 6d7f dab4 289d 2bb5
000000a0: 6337 85b1 adce 97b2 bafc f0b3 0693 2eb4
000000b0: 87cd beb5 1578 3bb5 cfa6 2db4 d4e0 4db4
000000c0: aaf1 2ab2 c336 0ab2 db8e d3b1 f440 54af
000000d0: 0000 0000 0000 0000 0000 0000 0000 0000
000000e0: 0000 0000 0000 0000 a269 d993 29ec f9a1
000000f0: 3fa9 84ab 216a 1eb3 bf47 37b6 604a f1b6
00000100: 253d 62b7 5bc9 b6b6 eb76 7a35 3d46 5d36
00000110: 9996 79b4 27b6 19b7 7e1c 28b7 9852 b8b6
00000120: c763 7cb7 20e8 b6b7 b0c3 2eb7 c18d 0fb6
00000130: 663e 78b4 3217 81b4 4501 10b4 c96c 95b2
00000140: 736d e5b2 b71c 88b2 0000 0000 0000 0000
00000150: 0000 0000 0000 0000 2868 7094 276a 08ad
00000160: c1be 15a5 796c 99b4 527b 41b7 8f32 afb7
00000170: 77b2 f3b7 43b7 76b7 35cc 8137 92df 1338
00000180: 985f 87b8 d6ac 81b7 987a 54b9 4a1a 73b9
00000190: ab74 96b8 6f9f 6537 09fe c138 98fe 7b39
000001a0: 2455 5b39 f629 ae38 4f7c 8137 8c9d f033
000001b0: b252 9c35 e508 de32 6ba0 c931 0000 0000
000001c0: 0000 0000 9848 3f32 73bb af1b cefb 8a2c
000001d0: 8fe7 cfb6 ebe3 4ab8 014f 97b8 7a39 a2b8
000001e0: 2eb1 e0b7 a61b c6b8 5802 c4b8 d8bb 5db9
000001f0: 1de0 a8b9 7fdb b5b9 d409 8cb9 b2b3 3ab9
00000200: 5c11 9439 8c0d 033a 10b0 023a 3210 ac39
00000210: 6c46 dc39 46c8 6d38 16f6 9038 b4a5 e338
00000220: 7363 b538 0de5 aa37 c4a8 2134 57a4 7428
00000230: 0000 0000 0000 0000 29f4 14ad d1a4 692e
00000240: 2d3f c4b6 7946 82b7 c9c9 05b8 52e7 2db8
00000250: fc1a 38b9 a1c6 0db8 8f20 3937 7414 55b9
00000260: 0a0d 49ba 092e 9bba f8e1 98ba c105 78ba
00000270: 77e8 aab9 090d a4b9 35a3 2d38 8a24 363a
00000280: 19c9 363a 53d8 c239 1f7f 2939 0f26 cb38
00000290: 43f3 b338 22a1 2f37 e38f 82b6 7b59 6223
000002a0: 0000 0000 3840 7a25 bf15 3ab4 0e34 c8b1
000002b0: 44b0 64b6 d63f cbb7 2ae8 91b8 7cf6 58b9
000002c0: ee19 c6b9 fb15 2938 27da 53b8 1aa5 07ba
000002d0: 5c28 7fba e827 a4ba a023 f2b9 1d9b 41b9
000002e0: 3e39 e4b9 bc1b bab9 505d 59b9 a4e1 4739
000002f0: bf3a 473a 2d45 cd39 45e5 ed38 5b93 6339
00000300: 178c ac38 b30e f1b7 11a9 07b8 3ce4 9fb7
00000310: 0000 0000 310a f926 6ab2 4cb5 6ba8 aa31
00000320: 476c 42b7 2398 2bb9 f6e4 8eb9 7b09 bdb9
00000330: 2112 a8b9 bbcf bc38 2273 c3b9 5c61 a0ba
00000340: 90d1 fbba 397b b1ba 7c67 29ba 95b7 66ba
00000350: ae8f b8ba 7432 b2ba 5992 43ba ae1d 88b9
00000360: 5d8d f0b9 48be f6b8 9a85 8fb9 c432 46b9
00000370: f9df 15b9 d25a 03b9 0b43 8db7 7e0e 4fb7
00000380: c2bd 69ab 4e0f a9b3 92b5 0bb5 4a59 f233
00000390: 2d8e 36b9 b793 aab9 f42b adb9 9c16 8fb9
000003a0: 97ac 57b9 0026 fcb8 f7c1 dcb9 4260 daba
000003b0: f48a 02bb 551a d3ba 3211 81ba e1db 8dba
000003c0: 9298 96ba 691f 90ba 966e 68b9 bc4c bfb9
000003d0: 57f0 7eba ddf5 75ba ef82 a9b9 a9b8 a035
000003e0: 6ded f838 f08e c638 2785 5536 d973 3332
000003f0: 0000 0000 5cfc 6e2c 62ce 07b4 ee9f d034

exp_avg_sq f4 [50, 784]
0.0 0.0 0.0 0.0 0.0 0.0 0.0 0.0
0.0 0.0 0.0 0.0 8.340911e-11 4.0191434e-10 2.0227398e-12 3.5117048e-15
0.0 0.0 0.0 0.0 0.0 0.0 0.0 0.0
0.0 0.0 0.0 0.0 0.0 0.0 0.0 0.0
2.145335e-15 4.1290227e-13 3.3500407e-09 1.2014497e-08 8.693384e-09 5.288327e-10 1.0901331e-09 1.911222e-09
3.5065142e-09 2.6285214e-09 2.4457416e-08 3.9444883e-09 1.5111075e-08 4.169859e-09 1.0345808e-09 2.8604072e-09
1.925417e-09 4.5592294e-09 7.432757e-09 9.335654e-10 0.0 0.0 0.0 0.0
0.0 0.0 1.4428504e-15 4.9037756e-11 1.01349935e-10 1.5716803e-11 2.9130798e-09 2.1874936e-08
1.6151294e-08 6.839375e-09 3.9346684e-08 4.2616566e-08 6.9531474e-08 1.2950885e-07 2.0046772e-07 1.2642047e-07
1.8459211e-07 1.1182929e-07 6.2878364e-08 1.4209482e-08 9.224182e-09 7.938927e-09 1.6278403e-08 3.024244e-09
5.007447e-10 9.1685645e-11 0.0 0.0 0.0 0.0 4.0500708e-14 4.2720444e-10
1.3594378e-09 9.028654e-09 3.5377884e-08 1.259212e-07 1.6413154e-07 2.0519084e-07 3.8524482e-07 5.839799e-07
8.878275e-07 1.1891915e-06 1.4446052e-06 1.847294e-06 1.6524838e-06 1.3567234e-06 8.9814574e-07 5.993833e-07
4.3990582e-07 2.3902163e-07 7.2898075e-08 2.933042e-08 1.2316813e-08 8.3952195e-10 4.468627e-10 0.0
0.0 2.179886e-15 1.3802308e-11 4.2570547e-10 1.1886013e-08 1.1761831e-07 2.4520486e-07 5.365357e-07
8.602454e-07 1.2981478e-06 1.7714374e-06 2.6475323e-06 3.6823371e-06 5.042991e-06 6.5711856e-06 7.0828505e-06
6.189234e-06 5.1930147e-06 3.9806546e-06 3.0055394e-06 2.2012234e-06 1.264202e-06 6.380295e-07 2.4738236e-07
1.2227832e-07 2.5173602e-08 1.4152162e-09 1.5374958e-10 0.0 0.0 1.5928226e-11 7.766747e-09
6.7234936e-08 3.8977726e-07 7.3369864e-07 1.3704581e-06 2.236406e-06 3.1696923e-06 4.579499e-06 6.534954e-06
9.011323e-06 1.1965183e-05 1.3995313e-05 1.5077169e-05 1.44908045e-05 1.2405189e-05 9.587188e-06 7.068811e-06
4.978546e-06 2.9719158e-06 1.6143366e-06 7.3763863e-07 2.391766e-07 4.205303e-08 3.1884115e-09 3.1886543e-10
0.0 5.329227e-14 8.545973e-09 4.2630642e-08 1.284725e-07 4.6216562e-07 1.2189612e-06 2.4181384e-06
3.8564053e-06 5.63164e-06 7.774596e-06 1.0344875e-05 1.4071135e-05 1.7440925e-05 1.9655758e-05 2.0347159e-05
1.9023022e-05 1.6666454e-05 1.368964e-05 1.0939815e-05 7.315558e-06 4.4956287e-06 2.6426062e-06 1.2799486e-06
4.0884106e-07 1.1007016e-07 2.2924095e-08 5.0590065e-09 0.0 4.3203524e-11 4.968821e-09 3.698498e-08
1.9280142e-07 7.454415e-07 1.8856282e-06 3.419217e-06 5.3676463e-06 7.177055e-06 9.753292e-06 1.2828577e-05
1.6710803e-05 1.9201214e-05 2.0538835e-05 2.063194e-05 1.9359328e-05 1.7234575e-05 1.4924612e-05 1.2234382e-05
8.7404605e-06 5.821796e-06 3.4077893e-06 1.8183798e-06 7.2708605e-07 2.595432e-07 5.2758033e-08 2.1210032e-09
6.5613115e-10 1.9315352e-10 1.2526582e-08 3.0613627e-08 2.832643e-07 1.1101804e-06 2.4311905e-06 4.101173e-06
6.1914684e-06 8.053417e-06 1.1093543e-05 1.4567561e-05 1.6784812e-05 1.8055078e-05 1.8514202e-05 1.8966499e-05
1.827142e-05 1.6294338e-05 1.4404112e-05 1.2219843e-05 9.424933e-06 6.438175e-06 3.829843e-06 2.1766214e-06
8.190562e-07 2.4919004e-07 7.048626e-08 1.2563612e-09 0.0 6.10502e-11 9.896379e-09 4.1188063e-08
00000000: 0000 0000 0000 0000 0000 0000 0000 0000
00000010: 0000 0000 0000 0000 0000 0000 0000 0000
00000020: 0000 0000 0000 0000 0000 0000 0000 0000
00000030: 286b b72e 6af4 dc2f 7156 0e2c 850b 7d27
00000040: 0000 0000 0000 0000 0000 0000 0000 0000
00000050: 0000 0000 0000 0000 0000 0000 0000 0000
00000060: 0000 0000 0000 0000 0000 0000 0000 0000
00000070: 0000 0000 0000 0000 0000 0000 0000 0000
00000080: 7296 1a27 7d71 e82a 8a36 6631 5168 4e32
00000090: e859 1532 4b5d 1130 a6d3 9530 9356 0331
000000a0: 40f7 7031 70a1 3431 6d16 d232 1688 8731
000000b0: 9bcd 8132 7846 8f31 1331 8e30 d190 4431
000000c0: 4b50 0431 68a7 9c31 3963 ff31 ea4e 8030
000000d0: 0000 0000 0000 0000 0000 0000 0000 0000
000000e0: 0000 0000 0000 0000 c9ef cf26 9bab 572e
000000f0: f1de de2e 183f 8a2d 712f 4831 7ee7 bb32
00000100: 12bd 8a32 c7ff ea31 23fe 2833 6909 3733
00000110: 5551 9533 1f0f 0b34 2640 5734 32be 0734
00000120: 4b34 4634 cd26 f033 bf07 8733 f61d 7432
00000130: 6278 1e32 c563 0832 96d4 8b32 10d3 4f31
00000140: c7a4 0930 6e9e c92e 0000 0000 0000 0000
00000150: 0000 0000 0000 0000 2366 3629 aedb ea2f
00000160: f7d6 ba30 711c 1b32 65f2 1733 f534 0734
00000170: 223c 3034 6e52 5c34 a5d3 ce34 cbc2 1c35
00000180: 0b53 6e35 4f9c 9f35 42e4 c135 8af0 f735
00000190: e9ca dd35 a918 b635 1b18 7135 4fe5 2035
000001a0: 322c ec34 e252 8034 248c 9c33 47f2 fb32
000001b0: eb99 5332 1bc4 6630 56aa f52f 0000 0000
000001c0: 0000 0000 cd13 1d27 12d0 722d b808 ea2f
000001d0: 3d33 4c32 5a95 fc33 b3a4 8334 7406 1035
000001e0: 9deb 6635 053c ae35 20c2 ed35 42ac 3136
000001f0: 121e 7736 f636 a936 0e7e dc36 39a9 ed36
00000200: 1ead cf36 a83f ae36 9091 8536 c6b2 4936
00000210: bbb8 1336 a6ad a935 0e45 2b35 f9cf 8434
00000220: 9c4b 0334 563d d832 7e81 c230 a90c 292f
00000230: 0000 0000 0000 0000 2d1b 8c2d 846e 0532
00000240: cc62 9033 9442 d134 63f3 4435 95f0 b735
00000250: 2a15 1636 e6b6 5436 99a9 9936 d446 db36
00000260: 562f 1737 12be 4837 69cd 6a37 f3f3 7c37
00000270: 881d 7337 e21f 5037 a9d8 2037 a030 ed36
00000280: 620d a736 2071 4736 2fac d835 2402 4635
00000290: 2e68 8034 cc9d 3433 211b 5b31 524c af2f
000002a0: 0000 0000 ce01 7029 96d1 1232 e318 3733
000002b0: 40f2 0934 8f1f f834 309b a335 4d47 2236
000002c0: 4566 8136 6bf7 bc36 a36f 0237 e68e 2d37
000002d0: 1113 6c37 1a4e 9237 6be2 a437 31af aa37
000002e0: a193 9f37 f0ce 8b37 8eac 6537 268a 3737
000002f0: 2a78 f536 28d9 9636 a157 3136 b3ca ab35
00000300: b07e db34 b65f ec33 9eea c432 7ed3 ad31
00000310: 0000 0000 d802 3e2e 36ba aa31 6ad9 1e33
00000320: da04 4f34 5a1a 4835 b115 fd35 b375 6536
00000330: bb1b b436 6fd2 f036 12a2 2337 523a 5737
00000340: 2d2e 8c37 4b12 a137 d04a ac37 c112 ad37
00000350: d765 a237 f892 9037 b864 7a37 4542 4d37
00000360: fea3 1237 d958 c336 60b1 6436 0e0f f435
00000370: f92c 4335 5957 8b34 1298 6233 15c1 1131
00000380: 205b 3430 e25f 542f 7e34 5732 0a7c 0333
00000390: 8d13 9834 8201 9535 8927 2336 cf9c 8936
000003a0: 4fc0 cf36 2a1d 0737 681e 3a37 3367 7437
000003b0: 1ccd 8c37 fc74 9737 f24e 9b37 3f1a 9f37
000003c0: 9345 9937 d3af 8837 31a9 7137 d303 4d37
000003d0: c71f 1e37 8107 d836 1a82 8036 1212 1236
000003e0: 1ddd 5b35 6bc8 8534 3b5e 9733 48ac ac30
000003f0: 0000 0000 3540 862e bc04 2a32 c1e6 3033

exp_avg f4 [50]
-0.0020464063 0.0034957703 5.353456e-05 -0.0009502009 -0.0013416698 0.0013864569 0.0023743554 0.0003168402
0.00019960268 -0.00036492027 -0.00050820515 0.0025525223 0.00094037276 0.0024236874 0.0022011306 0.003642775
0.00048619718 -0.0037697593 -0.00093886687 -0.0018896167 0.0002693639 0.0010197492 0.0013725796 3.7529945e-18
-0.0016972929 -0.002824743 -0.00070544414 -0.00025844265 6e-45 0.0012702044 0.0029699614 0.0018832369
-0.003558023 -0.0013035439 -0.0013495998 -0.004146606 0.0022316575 0.0037668042 -0.00022543772 -9.764174e-05
-0.0007394514 0.006072514 -0.0010127457 -0.0009484097 -0.00018301896 0.0022044983 -0.0031512901 -0.000111644855
0.0024360938 -0.00061465794
00000000: 001d 06bb 4b19 653b 4c8a 6038 e716 79ba
00000010: f8da afba c6b9 b53a 139b 1b3b 921d a639
00000020: 704c 5139 c552 bfb9 1239 05ba 3848 273b
00000030: 5983 763a bad6 1e3b d840 103b 9fbb 6e3b
00000040: 48e8 fe39 110e 77bb 4a1e 76ba 04ad f7ba
00000050: 6939 8d39 1ba9 853a 21e8 b33a 0876 8a22
00000060: b377 deba 531f 39bb 8eed 38ba 967f 87b9
00000070: 0400 0000 fd7c a63a afa3 423b f2d6 f63a
00000080: b82d 69bb addb aaba 0ee5 b0ba 41e0 87bb
00000090: 0041 123b 7ddc 763b 7a63 6cb9 03c5 ccb8
000000a0: bed7 41ba f1fb c63b 1bbe 84ba b39e 78ba
000000b0: c7e8 3fb9 5879 103b e085 4ebb e022 eab8
000000c0: dfa6 1f3b ff20 21ba

exp_avg_sq f4 [50]
4.8103888e-05 4.1981166e-05 4.5686007e-05 7.566393e-05 4.580196e-05 5.350387e-05 5.4719327e-05 4.778016e-05
4.624618e-05 3.288921e-05 5.2799533e-05 4.8134185e-05 2.1284372e-05 3.614907e-05 3.6445294e-05 3.601054e-05
1.8772931e-05 3.8389575e-05 3.4927045e-05 3.6880323e-05 4.7185382e-05 2.5806168e-05 4.3891494e-05 6.484776e-08
4.2730597e-05 3.0877844e-05 5.5597906e-05 2.9968909e-05 1.4654378e-08 4.7338493e-05 4.8689e-05 2.8311391e-05
3.4978453e-05 3.075617e-05 2.8326078e-05 2.6416494e-05 3.1181582e-05 3.5468565e-05 4.3997632e-05 4.4150198e-05
3.795288e-05 4.1790845e-05 3.76932e-05 4.07231e-05 2.4558203e-05 1.8432836e-05 4.663618e-05 2.1399159e-05
4.2074786e-05 4.1819003e-05
00000000: 28c3 4938 ef14 3038 fa9e 3f38 c3ad 9e38
00000010: 7b1b 4038 5869 6038 6e82 6538 8e67 4838
00000020: 75f8 4138 85f2 0938 1175 5d38 b0e3 4938
00000030: d78b b237 c59e 1738 d6dc 1838 060a 1738
00000040: 907a 9d37 7e04 2138 a17e 1238 f2af 1a38
00000050: ebe8 4538 537a d837 2218 3838 6f42 8b33
00000060: a139 3338 d582 0138 cc31 6938 be65 fb37
00000070: a3c2 7b32 528d 4638 6a37 4c38 407e ed37
00000080: d4b5 1238 3000 0138 ca9d ed37 fd98 dd37
00000090: f8c8 0238 15c4 1438 198a 3838 ea2d 3938
000000a0: 982f 1f38 9448 2f38 c418 1e38 18ce 2a38
000000b0: 5702 ce37 37a0 9a37 389b 4338 5882 b337
000000c0: 7579 3038 d066 2f38

exp_avg f4 [10, 50]
0.00067279296 0.004837736 0.0008119282 0.0010465321 0.0037197166 0.0006414417 0.0028283454 0.0028581803
0.0027435792 0.00045543633 0.0015285206 0.00064331864 0.003411353 0.0003912737 0.0014640612 0.0043640374
0.0032400026 -0.00063089235 0.0010745159 0.00019772952 0.0005222654 0.001595843 0.0030560526 -2.6523058e-19
0.0011873713 7.628072e-05 -0.0013057715 0.0031382644 6e-45 0.0018867182 0.004568609 0.0017097224
0.001021869 0.0019000225 0.0019659123 -0.00096965255 0.0008061677 0.0006852909 0.00076062494 0.00090681546
-0.00091439375 0.0019613623 -0.0010935364 0.0012579242 0.00026804497 0.00025317544 -0.0017867986 -0.00018512551
0.0054791598 -0.003584471 0.003876082 0.004196166 0.001893721 -0.0014356824 0.0038143084 -0.0018771464
-0.00054154545 -6.3705755e-07 0.008551465 0.0006189851 0.00021522664 0.003480565 0.00084726687 -0.0045872736
0.0025244947 0.0030120704 0.005444416 0.00021241917 0.007102931 -0.00011137916 0.0042338856 0.0006595933
0.0015148716 3.4499935e-26 0.0066613997 0.003056187 0.0009019162 0.009175185 -6e-45 -0.0020255693
0.007442985 -0.00077220524 0.004475734 0.0015329871 -0.00019661186 0.002408333 0.0022610808 0.0038450162
0.0054754983 0.0037856079 0.00058985065 -0.0011748952 0.0015152604 0.011470554 0.00031828322 0.0035238774
0.0027285013 0.0010696559 0.007180844 -0.001091291 0.0011275123 -0.0044797463 -0.00020619937 0.00061416905
0.00010805114 0.001626746 -0.002921648 -0.002131981 0.00084494596 0.00093398115 -0.001961632 0.00043640457
-0.00026290436 0.0013941936 -0.0004904711 -0.0023403633 0.00071116537 0.0046528126 -0.0026699128 0.0006414011
0.0002740404 -0.0029949371 -0.0010386051 1.9846323e-21 -0.00082301244 0.0027833842 0.0008903703 -0.0011318921
6e-45 0.001623147 -0.006921355 0.00012435074 -0.00092368945 0.0024884723 0.0032423092 -0.0019054055
-0.0033765323 -0.0005407884 0.00080555596 -0.0006625032 0.0015942507 -0.0038289505 -0.006210469 0.0018371992
0.0007717777 0.00041808523 0.0036426485 0.0011105874 -0.0012824953 0.0018404397 0.00063284807 0.00085712236
-9.0839225e-05 0.0028579396 -0.004894638 -0.00720685 0.009324673 0.0048203333 -0.0006560889 1.6537377e-05
0.00083547836 0.0021680691 0.0010558658 0.001958067 -0.006685811 0.0026793783 -0.0015887187 -0.0052694352
0.00014031914 0.0032841256 0.00044411301 -0.0025440978 -0.000116332296 1.0779142e-23 -0.0024519092 -0.0058246506
0.0017272288 -0.005173412 6e-45 -0.0043495325 0.00330594 0.0030838943 -0.0015052323 -0.0034577786
-0.0043087914 0.00122699 0.0002030375 -0.0013731823 -0.0005830526 -0.0007036923 0.00054044026 0.003169983
0.0017703798 0.0048614875 -0.0037280999 0.0005021355 -0.0038315572 -0.0018493916 0.0013427774 -0.0007092369
0.0034956504 -0.000664518 -0.010721708 -0.0038238727 -0.003926171 -0.004303203 -0.0036879254 0.0015236683
-7.8578225e-05 0.0024647058 0.0048554773 -0.0027602045 -0.0016878486 0.00084511185 -0.010198081 -0.003088628
-0.014390611 -0.002540771 0.0024673482 0.0011260582 -0.00854819 -0.0051733195 0.0017097464 2.0440464e-19
-0.0015721198 -0.0048956885 -0.005656229 -0.0032260476 6e-45 0.00091867 -0.0062912563 -0.0010228215
8.9888075e-05 -0.0033069556 -0.007767339 -0.0008611261 -0.011098661 -0.004047486 -0.011425353 0.0011810048
0.0013481512 -0.0027539053 0.003158012 -0.008291828 -0.0027934515 -0.0023927735 -0.0053862524 0.0010861872
-0.006086891 0.0062866923 0.002141476 -0.0019252475 0.007900797 0.0026899893 0.0029720622 0.009902009
00000000: 5f5e 303a df85 9e3b 94d7 543a ca2b 893a
00000010: 7dc6 733b 6c26 283a c35b 393b 4f50 3b3b
00000020: 9fcd 333b a1c7 ee39 a458 c83a 62a4 283a
00000030: 0291 5f3b de23 cd39 bee5 bf3a 3300 8f3b
00000040: 3956 543b 7862 25ba c5d6 8c3a 9d55 4f39
00000050: a3e8 083a 9b2b d13a 0e48 483b 8390 9ca0
00000060: 92a1 9b3a e6f8 9f38 6c26 abba 57ab 4d3b
00000070: 0400 0000 c24b f73a 45b4 953b c418 e03a
00000080: 3cf0 853a 2d0a f93a 89d6 003b 4830 7eba
00000090: 0055 533a 18a5 333a ad64 473a 5bb7 6d3a
000000a0: edb3 6fba 338a 003b fe54 8fba efe0 a43a
000000b0: 6388 8c39 a2bc 8439 0333 eaba 401e 42b9
000000c0: 868a b33b 72e9 6abb dd05 7e3b fe7f 893b
000000d0: bc36 f83a 822d bcba 7af9 793b 950a f6ba
000000e0: 80f6 0dba 4302 2bb5 721b 0c3c 6343 223a
000000f0: 76ae 6139 311a 643b 1e1b 5e3a d750 96bb
00000100: fe71 253b 2866 453b 1267 b23b d6bc 5e39
00000110: b4bf e83b 3b94 e9b8 68bc 8a3b 8fe8 2c3a
00000120: a88e c63a ddd5 2a15 df47 da3b 4f4a 483b
00000130: 926e 6c3a 8453 163c 0400 0080 6abf 04bb
00000140: 49e4 f33b d16d 4aba 2ea9 923b 83ee c83a
00000150: 9829 4eb9 1fd5 1d3b a42e 143b abfc 7b3b
00000160: cf6b b33b f617 783b 35a0 1a3a f1fe 99ba
00000170: b49b c63a feee 3b3c 40df a639 daf0 663b
00000180: a8d0 323b b233 8c3a 494d eb3b a609 8fba
00000190: 09c9 933a d6ca 92bb 3937 58b9 3000 213a
000001a0: 8499 e238 8a38 d53a 1f79 3fbb b5b8 0bbb
000001b0: 5d7f 5d3a 6ad6 743a b98e 00bb 3bcd e439
000001c0: 6dd6 89b9 60bd b63a f592 00ba c860 19bb
000001d0: 806d 3a3a 9f76 983b b4f9 2ebb b323 283a
000001e0: 14ad 8f39 b546 44bb ce21 88ba 5ff4 151d
000001f0: 6ebf 57ba 7069 363b bd67 693a ff5b 94ba
00000200: 0400 0000 c7bf d43a 89cc e2bb 2664 0239
00000210: c023 72ba a315 233b ec7c 543b cdbe f9ba
00000220: d048 5dbb b2c3 0dba f22b 533a d6ab 2dba
00000230: 2df6 d03a 21ef 7abb 3181 cbbb 2dce f03a
00000240: 2051 4a3a 7332 db39 80b9 6e3b 2191 913a
00000250: 6719 a8ba e93a f13a b7e5 253a 82b0 603a
00000260: f080 beb8 454c 3b3b 3363 a0bb 7127 ecbb
00000270: 83c6 183c e3f3 9d3b 61fd 2bba bfb9 8a37
00000280: 0104 5b3a 2a16 0e3b fa64 8a3a ea52 003b
00000290: a614 dbbb 8298 2f3b 8e3c d0ba 3aab acbb
000002a0: a222 1339 7c3a 573b d7d7 e839 e1ba 26bb
000002b0: 6df7 f3b8 ba7f 5019 36b0 20bb b6dc bebb
000002c0: 2e64 e23a ba85 a9bb 0400 0000 8686 8ebb
000002d0: 78a8 583b 291b 4a3b 374b c5ba e69b 62bb
000002e0: c330 8dbb f4d2 a03a 77e6 5439 5afc b3ba
000002f0: ffd7 18ba fe77 38ba 55ac 0d3a 7dbf 4f3b
00000300: 170c e83a 1d4d 9f3b 2353 74bb bea1 033a
00000310: dd1a 7bbb 4967 f2ba 2200 b03a 15ec 39ba
00000320: 4817 653b 0c33 2eba 1aaa 2fbc f099 7abb
00000330: 1ca7 80bb e201 8dbb 1fb1 71bb d3b5 c73a
00000340: 5dca a4b8 e786 213b b21a 9f3b 8ce4 34bb
00000350: cd3a ddba 7f8a 5d3a da15 27bc 946a 4abb
00000360: 99c6 6bbc 1083 26bb 3cb3 213b 3e98 933a
00000370: b50d 0cbc f384 a9bb 9219 e03a 8351 7120
00000380: 960f ceba 036c a0bb e357 b9bb 196c 53bb
00000390: 0400 0000 e6d2 703a e226 cebb 3210 86ba
000003a0: 4b82 bc38 82b9 58bb 2985 febb 32bd 61ba
000003b0: 29d7 35bc c6a0 84bb 6731 3bbc f2cb 9a3a
000003c0: 73b4 b03a dd7a 34bb a6f6 4e3b 73da 07bc
000003d0: 5712 37bb 14d0 1cbb 297f b0bb 655e 8e3a
000003e0: 8b74 c7bb 9900 ce3b 0158 0c3b 9658 fcba
000003f0: 5872 013c 884a 303b eec6 423b 093c 223c

exp_avg_sq f4 [10, 50]
0.00048818445 0.000708153 0.00010074051 5.8620553e-05 0.0002796601 3.312615e-05 0.00012214667 0.0003717488
0.00030654445 0.0011645107 0.0004315272 0.00022137017 0.0002529302 0.0002942264 0.0004148884 0.0008693968
0.00023326535 0.0006713042 0.00029492917 0.00034173758 4.0100418e-05 0.0002618997 0.00094557926 5.009055e-08
0.000769489 0.0006840379 0.00061167823 0.0003369534 2.4856753e-10 0.00013160912 0.00019810993 0.0003178684
0.0010883303 0.0010661536 0.00016651994 0.00014141481 7.953131e-05 3.9493378e-05 7.637138e-05 0.0010447046
0.0005705853 0.00040759225 0.0004300369 0.00030560468 0.0010887107 1.9938092e-05 0.0005336678 0.00043620897
0.0006750745 0.0010643612 0.00078363525 0.00017525024 0.00043730266 3.4919907e-05 0.0008082444 3.948879e-05
0.00015799678 9.7726144e-05 0.001075737 0.0001918493 3.2856085e-05 0.0004606693 1.9059149e-05 0.000105857755
0.00027360822 0.00023952614 0.001122189 0.00040201336 0.00021249555 0.00011509236 0.00027202102 5.2078936e-05
0.0002499126 3.344897e-08 0.0006692513 0.00040572265 0.00013013395 0.0010649236 2.646934e-10 0.00015684936
0.00038306054 0.00012935144 0.00040198842 0.00032669157 0.00046059105 0.00026525249 0.0007148688 0.0006681786
0.00064828113 0.00015870045 3.8431237e-05 0.00025359192 0.0002538237 0.00095609773 0.00013495007 0.00034357648
0.0003166346 0.00018960604 0.0013114192 2.2788026e-05 0.0013271637 0.00079829845 0.0002347354 4.95533e-05
0.0014892871 7.6263765e-05 0.00048465747 0.00031119047 0.0011859298 0.0014631741 0.00015974801 0.00091511465
0.00017697834 0.00074537384 0.001239248 0.00080763275 0.0010882426 0.0017539118 0.00026399893 0.00029545228
9.633149e-05 0.0005139566 0.0009221237 1.4825719e-08 0.0017965933 0.0010131625 0.00047069552 0.0016686211
1.4548675e-10 0.0010506603 0.00012991655 0.0009378821 0.0017049853 0.0012571267 0.00046257483 0.00011997184
0.0005485061 0.001079756 0.0005780899 0.0010239227 0.0002371629 0.0008631738 0.001094077 0.00035691782
0.0013431894 0.000474177 0.0007783324 0.00081675773 0.002056638 0.001050979 0.00097564503 0.0018956457
0.0010130797 0.0001601289 0.0017060526 0.00070622354 0.00051756424 0.0007591568 0.00143958 0.00123195
0.00033680437 0.0010039198 0.000292482 0.00060162204 0.0017401841 0.0019041444 0.00272996 0.0014480008
0.00025138893 0.00048957707 9.670117e-05 0.00045988578 0.001786295 1.8025013e-08 0.0020022944 0.0013592403
0.0005274478 0.0020864452 1.6712041e-10 0.0011029087 0.00017820031 0.0016782295 0.0021629364 0.002491388
0.0013434727 0.0001831823 0.0006248136 0.00097090576 0.000722344 0.0011244189 0.0003059171 0.0017988374
0.0004923309 0.0013383926 0.000957115 0.00027195874 0.0010094092 0.0005599909 0.0037944117 0.0005402175
0.0003075133 0.000259238 0.00046769629 0.00032266285 0.0006113353 0.00028286097 9.5936724e-05 6.491247e-05
0.00044192275 0.0005158517 0.00019703284 9.6796866e-05 0.00029476717 3.309443e-05 0.0020550024 0.0007580591
0.0013623388 0.0016523012 5.9679936e-05 6.7150875e-05 0.000384418 0.0009212062 0.00011752852 5.834007e-09
0.0004502965 0.002406076 0.001080425 0.00038257006 1.6885686e-10 3.5028046e-05 0.00058617396 7.072279e-05
0.00053526566 0.0019317416 0.0011523084 0.00037816612 0.0006298847 0.00011019834 0.0007264249 0.0011261192
0.00022601841 7.852277e-05 0.0006619453 0.00054809847 0.0026227285 8.538756e-05 0.0017854733 0.0001098312
0.000706286 0.00072467857 0.0013493729 0.0011930862 0.001010067 0.0002832748 0.000887535 0.0006629431
00000000: 02f3 ff39 58a3 393a a644 d338 57df 7538
00000010: 589f 9239 eff0 0a38 7f14 0039 48e7 c239
00000020: b3b7 a039 7fa2 983a 9a3e e239 9a1f 6839
00000030: b79b 8439 6642 9a39 6185 d939 3be8 633a
00000040: b198 7439 76fa 2f3a b9a0 9a39 3e2b b339
00000050: 7f31 2838 954f 8939 c0e0 773a 2423 5733
00000060: 88b7 493a 0251 333a 0859 203a 1fa9 b039
00000070: c5a6 882f 8e00 0a39 bbbb 4f39 93a7 a639
00000080: 4ea6 8e3a 2ebe 8b3a db9b 2e39 c048 1439
00000090: 0cca a638 b1a5 2538 9329 a038 78ee 883a
000000a0: 5593 153a 1bb2 d539 9376 e139 9139 a039
000000b0: 12b3 8e3a ba40 a737 d7e5 0b3a fab2 e439
000000c0: 7cf7 303a 0982 8b3a df6c 4d3a 61c3 3739
000000d0: c545 e539 f776 1238 5de0 533a c4a0 2538
000000e0: f0ab 2539 53f2 cc38 beff 8c3a 282b 4939
000000f0: f4ce 0938 fd85 f139 36e1 9f37 f3ff dd38
00000100: 1373 8f39 4f29 7b39 6a16 933a 52c5 d239
00000110: 57d1 5e39 be5d f138 0b9e 8e39 556f 5a38
00000120: b406 8339 88a9 0f33 b270 2f3a 2cb7 d439
00000130: 9174 0839 e894 8b3a 4984 912f ee77 2439
00000140: 84d5 c839 83a2 0739 f9c1 d239 cd47 ab39
00000150: 7c7b f139 9611 8b39 0866 3b3a b528 2f3a
00000160: 69f1 293a d468 2639 3a31 2138 88f4 8439
00000170: a413 8539 a2a2 7a3a 6281 0d39 0e22 b439
00000180: fa01 a639 fcd0 4639 ede3 ab3a ea28 bf37
00000190: 39f4 ad3a e744 513a 4e23 7639 73d7 4f38
000001a0: 2f34 c33a ccef 9f38 a019 fe39 4727 a339
000001b0: 3371 9b3a fac7 bf3a 0882 2739 4ee4 6f3a
000001c0: 4393 3939 3165 433a 436e a23a 51b7 533a
000001d0: 5da3 8e3a 84e3 e53a 5669 8a39 efe6 9a39
000001e0: 9305 ca38 0bbb 063a adba 713a 34b4 7e32
000001f0: ab7b eb3a 18cc 843a afc7 f639 a2b5 da3a
00000200: e1f6 1f2f 4fb6 893a 353a 0839 34dc 753a
00000210: d079 df3a 2cc6 a43a be85 f239 6499 fb38
00000220: 9fc9 0f3a 9986 8d3a f58a 173a 2535 863a
00000230: eeae 7839 9d46 623a 2267 8f3a b320 bb39
00000240: f50d b03a f69a f839 0109 4c3a af1b 563a
00000250: a9c8 063b 01c1 893a 6ec2 7f3a 5177 f83a
00000260: 50c9 843a 46e8 2739 a09d df3a dc21 393a
00000270: 26ad 073a 2702 473a 4ab0 bc3a 6279 a13a
00000280: 1e95 b039 f595 833a 4558 9939 2cb6 1d3a
00000290: e416 e43a 7c94 f93a 21e9 323b d8ca bd3a
000002a0: dacc 8339 f656 003a 0ccc ca38 d31c f139
000002b0: 1d22 ea3a 6cd5 9a32 ed38 033b 8928 b23a
000002c0: 6c44 0a3a bebc 083b 37c0 372f 7a8f 903a
000002d0: 48db 3a39 0af8 db3a 0dc0 0d3b 8e46 233b
000002e0: 7717 b03a a014 4039 88ca 233a 6284 7e3a
000002f0: af5b 3d3a 3d61 933a 8063 a039 f8c6 eb3a
00000300: c40f 013a 016d af3a e6e6 7a3a af95 8e39
00000310: 274e 843a 5acc 123a aaab 783b 629d 0d3a
00000320: bd39 a139 56ea 8739 2235 f539 132b a939
00000330: 0442 203a f54c 9439 a331 c938 9e21 8838
00000340: deb1 e739 393a 073a 9a9a 4e39 6cff ca38
00000350: fb8a 9a39 e0ce 0a38 38ad 063b 7cb8 463a
00000360: 8190 b23a 0792 d83a d850 7a38 5ad3 8c38
00000370: b68b c939 1a7d 713a a579 f638 7874 c831
00000380: c615 ec39 42af 1d3b 0c9d 8d3a af93 c839
00000390: fba8 392f 14eb 1238 78a9 193a 0251 9438
000003a0: 1251 0c3a 7e32 fd3a 0e09 973a 9944 c639
000003b0: d91e 253a 491a e738 8d6d 3e3a 4a9a 933a
000003c0: 5bff 6c39 97ac a438 6686 2d3a 44ae 0f3a
000003d0: 15e2 2b3b 1912 b338 8b06 ea3a 2d55 e638
000003e0: 0d26 393a 5bf8 3d3a 71dd b03a 5461 9c3a
000003f0: 3964 843a 8084 9439 77a9 683a 5cc9 2d3a

exp_avg f4 [10]
0.001351563 0.0020011102 -4.0395564e-05 0.00021664296 -0.0023458903 0.0008999955 -0.007614078 0.0057335515
4.5099445e-05 -0.00024759144
00000000: ee26 b13a 0f25 033b 686e 29b8 a72a 6339
00000010: 82bd 19bb aded 6b3a 847f f9bb 84e0 bb3b
00000020: 2929 3d38 29cf 81b9

exp_avg_sq f4 [10]
7.710113e-05 9.104378e-05 0.0001468326 0.00018209792 0.00014462645 0.00019783464 9.760231e-05 0.00013757857
0.00021734949 0.00022642467
00000000: 5bb1 a138 c2ee be38 13f7 1939 8af1 3e39
00000010: dea6 1739 d571 4f39 d7af cc38 f742 1039
00000020: 4fe8 6339 696c 6d39
